MNIST/mnist_net.pth (torch, 239663 bytes, 8 tensors)

fc1.weight f4 [64, 784]
00000000: 981e a9bc f0f3 983c d00f 10bb 2021 d13a
00000010: 66bb 43bc ce68 be3c 8ed5 b63c f6f6 0dbd
00000020: e42e 1d3c 38e7 263c f3b5 023d 00d2 a3bc
00000030: a6f8 8abd d9df cbbd c7a9 6abd f047 f9bc
00000040: fe01 c33c 31ee 033d 606f dabc 4a05 7bbc
00000050: 7055 4d3b 9201 6bbc 701b a63c 2a20 68bc
00000060: 30a2 a5bc 913c 103d aed8 c53c d0be a13c
00000070: 4005 533a 0c93 923c ea2e f23c 0ac8 fe3c
00000080: 699f edb9 ea11 57bc 48d0 7ebd 6531 0cbe
00000090: 85d8 febd f9e6 83be 2eeb 3abe d572 17be
000000a0: 6eea 60be 5ddf 20be 8fe1 423d aa1d 17be
000000b0: cf48 e5bd eb01 a2bd fd54 64be 6d06 32be
000000c0: 8af7 6cbe 49a3 09be e580 bbbd afa0 25bd
000000d0: a3ad 01bd 2abe bfbc f0f8 4dbb 6e89 873c
000000e0: 7487 173c 40db 86bb 58b4 c4bd c19c c13a
000000f0: 60eb bfbd de60 973c 97ce abbd 6eeb 56be
00000100: 8e82 04be c5ed 53bb 2382 ecbd d261 38be
00000110: 912c 0ebe 0588 123d 9c2a 273e c1d1 623e
00000120: 767c 89bd dd02 f5bd b2a4 d4bd 8afe debd
00000130: 6bdb 84bd cffb 09bd 396d fbbd 3514 09be
00000140: 7ad1 1fbc ebff 89bd bc38 363c 080d 91bb
00000150: 0024 893b c08c 03bc b677 1abd 344a 62bd
00000160: dc69 59bd febb b6bd bf9a 43be 3ab4 7abe
00000170: 9458 44be 81bc debd e701 c2bd 9fb5 66bd
00000180: 0e2f e1bc 82f1 cebc dd89 d33c 259a 4b3d
00000190: 4e71 a33d d9bd 60bd 8e97 40bd 0acd 5abd
000001a0: cee4 08bd b769 443e a7f0 543e 73bd fd3d
000001b0: c81d 7dbd 8755 76bd 03ee e6bd 0042 703b
000001c0: 402a d5bc 03c5 84bd c562 d2bd d934 80bd
000001d0: f37f afbc 4d72 abbc f327 09bd 0f24 abbd
000001e0: 8aad 003d cad0 c3bd 8a9e a93d d616 c33d
000001f0: 37ef 7d3e 6846 733e 0c4e 1d3e ee69 d83d
00000200: 723e 273e 0fd3 b83d d063 8b3d 43a0 3c3e
00000210: 563b 973e 042c 8e3e 49ba 373e f0d1 ba3c
00000220: b6d3 7ebd b2c2 1fbe 989e d4bd 7a24 8a3d
00000230: dc71 24bc fc99 673c de3e 9fbd 8618 f53d
00000240: f04a 113d 13f8 dbbd a207 9dbd b3db e9ba
00000250: 8ca8 24be 339c 19bd 3156 35bc 9612 03bc
00000260: 0b78 df3d 31bc 913c eaa4 b63d 4c3c e03d
00000270: 377c 533d 5b03 cf3d 5bda 063e ea7d 113e
00000280: 5700 443e db5e 9f3e e3e8 803e f855 0d3e
00000290: 2d6b f63d 5304 3b3d 0362 fd3c 4f1c 273d
000002a0: 1543 0d3d 60eb eabd f61b 73be 427b d83c
000002b0: 56e7 9e3d 6bea bc3b b855 4dbd 683f 89bd
000002c0: 24f7 8fbd 3f34 d9bd 00a4 81bd f531 1ebe
000002d0: 2928 11be f217 43be c4d0 88be dd8e 33be
000002e0: 8d60 afbd 4c57 5fbc 8c71 56bd d1b9 ac3c
000002f0: 5d00 0d3e 8ee9 ff3d 0efe 7b3e 031e 933e
00000300: f25c c63d 5fe6 3abd c160 5d3c bcec abbb
00000310: 1a74 d2bc 6658 3ebe 6939 49be 3693 f4bd
00000320: 67f1 143e 4490 0f3e 21b9 f73c 133b acbd
00000330: de87 40bd 4682 8aba 72ce 94bd 86e1 06be
00000340: e3bc 56be f53c 26be 758e 72be 02e0 1dbe
00000350: 3794 d1bd bdd3 93bc d631 c93c 0e26 213d
00000360: fd44 9b3c dbbe d63b 1c05 6d3e 3bd2 2b3e
00000370: 3782 923d e702 c7bc 8865 373e d960 f4bb
00000380: a3ac 95bd 1cba 46be 5c21 aabd 4c64 bcbc
00000390: 0275 2e3e e578 f53d 8299 583c af30 75bc
000003a0: 1daa 04bd 55d3 333d b592 8bbd ace8 dcbc
000003b0: b618 c3bd d577 2fbd 513b 39be b7fa 3ebe
000003c0: a488 55bd 9a0f e33c 1032 493d 9c8b 153d
000003d0: 63e6 b3bd 5aae 65bd 224a 71bc 939d abbc
000003e0: a1b5 6e3c d813 be3c f28b a43e 14d4 723d
000003f0: 1d7e c4bc 4e41 44be 7aa0 b63b e293 953c
-0.020644471 0.018671006 -0.0021982081 0.0015955307 -0.011946535 0.023243334 0.022318628 -0.03465935
0.009593699 0.010186963 0.0319118 -0.019997597 -0.06785707 -0.09954805 -0.05729082 -0.03042981
0.02380466 0.03220958 -0.026664436 -0.015321085 0.0031331442 -0.014343636 0.020276755 -0.014167825
-0.020218939 0.03521401 0.024151172 0.019744307 0.00080497935 0.017892383 0.029563386 0.031101245
-0.00045322932 -0.01312683 -0.06221035 -0.13690718 -0.124436416 -0.25762156 -0.18253776 -0.14789899
-0.21964428 -0.15710206 0.04757839 -0.1475741 -0.11195528 -0.07910522 -0.22298045 -0.17385264
-0.23141304 -0.13441195 -0.09155444 -0.040436443 -0.031659734 -0.023406107 -0.0031428896 0.016545024
0.009248603 -0.004115492 -0.0960471 0.0014771448 -0.09371066 0.018478807 -0.08389013 -0.20988247
-0.12940428 -0.0032337767 -0.11548259 -0.18006065 -0.13884188 0.03577425 0.16324848 0.22150327
-0.06713192 -0.11963437 -0.10382976 -0.10888393 -0.06487163 -0.03368741 -0.12276692 -0.13386615
-0.009754533 -0.067382656 0.011121925 -0.0044266023 0.0041851997 -0.008029163 -0.03771182 -0.055246547
-0.05307947 -0.089225754 -0.19102 -0.24482813 -0.19174415 -0.10875798 -0.09473019 -0.05632555
-0.027488258 -0.025261644 0.025822574 0.04970755 0.079805955 -0.054868553 -0.047019534 -0.053418197
-0.03342133 0.19180952 0.20794927 0.1238965 -0.06179598 -0.06014016 -0.11275866 0.0036660433
-0.026021123 -0.064828895 -0.10272745 -0.0626008 -0.021423316 -0.020928526 -0.033485364 -0.08356487
0.0314155 -0.09561308 0.08282192 0.0952584 0.24798284 0.23757327 0.15361804 0.105670795
0.16332415 0.09024631 0.06806147 0.1842051 0.29537457 0.27767956 0.17942156 0.022805184
-0.062213622 -0.15601614 -0.10381812 0.067452386 -0.010036912 0.014135834 -0.07775663 0.11967568
0.035471857 -0.10740676 -0.076674715 -0.0017841965 -0.1607992 -0.03750248 -0.011067913 -0.008000037
0.10911568 0.017789932 0.089181736 0.10949001 0.051632132 0.10108062 0.13169234 0.14208189
0.19140755 0.31127056 0.25177678 0.13802326 0.12032161 0.04565842 0.030930525 0.04079848
0.034487803 -0.114706755 -0.23741135 0.026425961 0.077589676 0.0057652495 -0.050130576 -0.06701547
-0.0702956 -0.10605668 -0.06330109 -0.15448745 -0.14175476 -0.19052103 -0.26721776 -0.17534967
-0.085633375 -0.013631653 -0.05235438 0.021084698 0.1376967 0.12495719 0.24608633 0.28733835
0.09685697 -0.045629855 0.013511837 -0.005246727 -0.025690127 -0.18588409 -0.19650806 -0.11942141
0.14545213 0.14019877 0.030239644 -0.08409705 -0.047004573 -0.0010567389 -0.07265939 -0.13171968
-0.20970492 -0.16234191 -0.23687156 -0.15417483 -0.10233348 -0.0180453 0.024559896 0.039342932
0.018953795 0.0065535135 0.2314648 0.16779415 0.07153743 -0.024293376 0.17909825 -0.007457834
-0.073083185 -0.19406933 -0.08307144 -0.022997044 0.17036822 0.119859494 0.013220193 -0.01496522
-0.032388795 0.043902714 -0.068150915 -0.026966415 -0.095261976 -0.04283889 -0.18089034 -0.18650328
-0.052132264 0.0277174 0.04912001 0.036510095 -0.08784177 -0.056074478 -0.014727147 -0.02094916
0.014569671 0.023202822 0.3213802 0.059284285 -0.023985917 -0.19165537 0.0055733295 0.018258993

fc1.bias f4 [64]
00000000: 7a3c 763d 86d6 963c 824f 4fbd aa48 febd
00000010: d2a6 03be 24dc 073e 8368 c3bd f3ef cbbc
00000020: 2ed3 033e ffd5 1d3d 07cb f3bd a8ad 6c3e
00000030: 08d0 033c 75af 17be 6642 fc3d f035 313d
00000040: e0de c23b 0ec8 b7b9 7de2 d43d f163 d3bd
00000050: 2253 2a3e fd5f 803e 9a99 303e 925e 973d
00000060: a6e5 113e 8698 fb3d 3dae 563e f0b6 7e3d
00000070: b9d6 a53c cff6 e63c 6064 90bd b2ee 063e
00000080: 2bd3 04be 5d6a a33c 9d3e 97bd b5bd 053e
00000090: f78c 043e 3684 75bd 2ca0 b23d 5475 27be
000000a0: eb77 cdbd 2574 12be 2e5d 17be 22fb 32bd
000000b0: b301 1d3d 68a3 0bbe 2fd8 ed3d 2324 23bd
000000c0: 9061 77bd 7c8f 6e3e 17de 3a3e 3388 033d
000000d0: 9aab 98bc adb7 9bbd 640b fc3d 92f1 c7bc
000000e0: 5be5 5cbd 2c12 24bd 8db9 813d b715 98bd
000000f0: c540 a6bd a83e 083d f553 e83d 95dc 3fbd
0.06011627 0.01841284 -0.050612934 -0.12416203 -0.12856606 0.1326757 -0.095414184 -0.02489469
0.12873527 0.03853416 -0.11903959 0.2311312 0.008045204 -0.14813025 0.12317352 0.04326433
0.005946979 -0.00035053532 0.10394762 -0.10321797 0.16633275 0.25073233 0.17246094 0.07391085
0.1424776 0.12284951 0.20964904 0.06218618 0.02024399 0.02819386 -0.07050395 0.13176993
-0.12971179 0.019948179 -0.073849894 0.13060649 0.12944399 -0.05994054 0.087219566 -0.16353351
-0.10032638 -0.14302118 -0.14781639 -0.04369653 0.0383317 -0.13636553 0.116134994 -0.039829385
-0.060395777 0.23296922 0.18248783 0.03211231 -0.018636514 -0.07603393 0.1230686 -0.024407182
-0.053929668 -0.040056393 0.06334219 -0.07426017 -0.081178226 0.03326288 0.113441385 -0.046841223

fc2.weight f4 [64, 64]
00000000: 6118 713e f3c5 513c 8ba5 0e3d 5a10 b8bd
00000010: 7294 fcbd 1b4f c13d e351 f7bc d1ca d0bd
00000020: 2f9d 1e3d ed39 3d3e ef6d f93c 68bf 8fbd
00000030: 506a ccbe 1dbf 1bbd 3a33 693e 3e2e a3bb
00000040: 4991 5e3d 3298 9c3d b38d 1f3e 1a27 09be
00000050: f7e6 b2bd 4251 653d ca71 1f3d 0eaa e43d
00000060: 6e7b bf3d bcee 403c 9df4 f9bd f218 043e
00000070: bd02 30be 2a56 8bbd 90ad 613d d58a 8abe
00000080: 3aac 0a3e fb6f 14be f15b 863d ef26 45be
00000090: 5a6f 7abe f6e5 18bc 42ab e8bd beba b2bd
000000a0: 3191 ddbd eb26 d03c f8ae 243e 4621 b6bd
000000b0: 97d7 163e 51a9 bdbb 4628 483d d5b3 6f3e
000000c0: fa6b f73d b480 5cbe 1af6 fbbe e9c2 443e
000000d0: 582b 7cbd 1519 c6bd 4271 373e ea6e 923d
000000e0: ede0 b6bd de1b 6b3d c176 d73c 042e ff3d
000000f0: 951a 80be 71bf 893d 7c11 d8bd 1424 b5be
00000100: f38c 2dbc 3065 27bd 686f 26be a0aa aebe
00000110: 8be0 99be 596f 80be b856 00be b430 69bd
00000120: 7291 373d 9534 4c3d 87ad f1bd 4171 b4bd
00000130: 270c 1e3e 444d 1dbe fbae ae3d a65a 693e
00000140: abdd 53bd b8e3 c4bc bee8 4a3d 70be 3d3e
00000150: e32a 463e 0dd3 a93e 5239 033e 815f 6ebd
00000160: 5253 08bd d80a 2cbd 7279 a4bc abd0 aabb
00000170: 05c7 e73d 6914 9e3c 8e01 a2bd 3902 1e3d
00000180: 6464 ab3d c003 673c 2771 2f3d 1ed2 bbbe
00000190: a15a 213e ed52 f9bd d898 96bd 4bdc 2dbd
000001a0: 0768 56be 7815 203e 95fc b4be 067c d73d
000001b0: ad58 d8bc 2797 a2be 3878 e2bc 52f1 02be
000001c0: 2c45 953d 1017 d0be 4fdd 40bd 9ba9 f93d
000001d0: a265 763e 5d85 f5bd 64c1 9a3e b566 15bd
000001e0: 7bc4 1c3e 5cb6 12bd fafe 243e a0b9 a53e
000001f0: 3b69 a8bb 48bc e3bd 52c0 313d 8a01 91bd
00000200: 9af1 4fbe 646e 79be f081 76be 18c7 3ebe
00000210: ffc3 60bb ae9f 313e 5d54 11be 34a0 083d
00000220: 5452 53bd 39e8 11be 92b5 d8bb ba4d 73be
00000230: 504f 1cbd 1934 abbd fb73 003e cb12 ab3d
00000240: c700 cd3d 59e3 08bd 29fa 16be b035 88be
00000250: 723e 153d 8968 a93e 655b 263d cd22 373e
00000260: a4ba ac3e a49c 3ebe 22a1 5b3e 6f61 f43d
00000270: 784c 3c3e c1ec 5e3d a9c1 13be 4c52 4a3c
00000280: 7d8f 523d 814b 84bd ca31 57be 5429 763e
00000290: 0305 3bbd 4378 eebd ed70 703e bedb 17bc
000002a0: c6ac bcbd e091 22be 0613 23be 3443 eaba
000002b0: 6933 7bbe 1773 f7bd 37e7 6fbe fff2 323d
000002c0: c030 01be 58a5 65be 7865 ac3c 8517 ff3d
000002d0: 17e4 503b d8bc 37be aff7 89bd b1fb 02be
000002e0: 1dfe a0bd b891 89be 0a84 693e ef27 adbd
000002f0: 1cc7 34bd 9466 43bc efc3 ddbd 3b16 223e
00000300: 5db6 ec3d 28ea 96be 8930 bc3e b49b 793e
00000310: b9c1 3d3e bc97 0dbd ee03 f13d 5897 12be
00000320: ab33 17be 8e1a 83be 5d67 32be 0339 de3d
00000330: af71 023e e6e9 67bd da64 86be 1e14 9ebe
00000340: 62b3 473d 8e45 343e 5e6d f33e 0cf8 3e3c
00000350: aa5c 833d b8dc 60bd 197d 46be c57e 5d3c
00000360: f487 65bd 2c7c 3fbe 6876 02be 1a90 5ebe
00000370: c269 d43c e5e8 21bd b437 febb fb8e 86be
00000380: 719b e8bb eb29 f9bd e71c 8bbd 90ea 0d3c
00000390: acee 2bbd bca9 dd3d 7e80 14be cde1 503d
000003a0: 6920 973e e87c ff3d 78f1 18bd 231a f4bd
000003b0: 8cef d83d cecf 293e ef9d c9bc 01ed b3bd
000003c0: 330c de3c c8c1 0f3d adf3 34be 0fad e0bc
000003d0: 193f 913d 71f7 323e 0ae4 15be b994 09bd
000003e0: fabb 7a3d 00fd b7bc f2d3 ea3d d8a7 8b3d
000003f0: 7df6 993d 44e0 293e 6bef 1b3e 5121 543d
0.23544456 0.012803542 0.034825843 -0.08987494 -0.12333001 0.09438916 -0.030190414 -0.10194934
0.03872412 0.18479128 0.030447928 -0.0701893 -0.3992486 -0.038024057 0.22773448 -0.0049798777
0.054337773 0.076462165 0.15581398 -0.13393822 -0.08735459 0.055985697 0.038926877 0.11165248
0.09349714 0.011775669 -0.122048594 0.12900141 -0.17188545 -0.06803544 0.055097163 -0.27059045
0.13542262 -0.14495842 0.06560505 -0.19253133 -0.2445654 -0.009332171 -0.1136079 -0.087270245
-0.10818709 0.025409183 0.1608237 -0.08893065 0.14730678 -0.0057880064 0.048866533 0.23408444
0.12081142 -0.21533471 -0.49211198 0.19214977 -0.061564773 -0.09672753 0.17914298 0.071500614
-0.0892962 0.057399623 0.026301743 0.12459949 -0.2502028 0.06725968 -0.1055021 -0.35379088
-0.010592687 -0.040867984 -0.16253436 -0.34114552 -0.30054125 -0.25084952 -0.1253308 -0.056931213
0.04481644 0.049854834 -0.11800676 -0.08810664 0.15434323 -0.15361506 0.085294686 0.22788486
-0.05172507 -0.024034366 0.049538366 0.18529677 0.19352297 0.3316883 0.12814835 -0.05819655
-0.033282585 -0.04200253 -0.02007744 -0.0052128634 0.11317257 0.019296842 -0.07910453 0.03857634
0.08368757 0.014100015 0.04283252 -0.36683744 0.15757228 -0.1217402 -0.073533714 -0.042446416
-0.20938121 0.1563319 -0.35348955 0.105217025 -0.026409471 -0.31755945 -0.027645215 -0.12787369
0.07288584 -0.40642595 -0.047086056 0.12190553 0.24062207 -0.11988328 0.3022567 -0.036474902
0.15309326 -0.035818443 0.16112891 0.32368183 -0.0051394976 -0.11119896 0.0433963 -0.07080372
-0.20307007 -0.24358517 -0.24073005 -0.18630636 -0.003429651 0.17346069 -0.14192338 0.033355907
-0.051592186 -0.14248742 -0.0066134417 -0.23760119 -0.038161576 -0.08359546 0.12544243 0.08353194
0.10009914 -0.03341994 -0.14743866 -0.2660346 0.036436506 0.33087566 0.040614504 0.17884369
0.33736145 -0.18614441 0.21448186 0.119326465 0.18388546 0.054425005 -0.14429344 0.012348723
0.051406372 -0.06459714 -0.21015087 0.24039203 -0.045659076 -0.11644032 0.23480578 -0.009268699
-0.092126414 -0.1587596 -0.15925226 -0.0017872811 -0.2453133 -0.120824985 -0.23428045 0.04368877
-0.12616253 -0.22426355 0.021044478 0.12455658 0.0031874233 -0.17943132 -0.06736695 -0.12791325
-0.07860968 -0.26868987 0.22804275 -0.08454882 -0.044135198 -0.011926312 -0.10828387 0.15828793
0.115582205 -0.29475522 0.3675578 0.24375802 0.1853093 -0.034568533 0.11768328 -0.14315546
-0.14765804 -0.25606197 -0.17422242 0.10850718 0.1273868 -0.056619547 -0.2624882 -0.30874723
0.048755057 0.17604658 0.47544378 0.011655819 0.06414159 -0.054897994 -0.19383658 0.013518994
-0.056037858 -0.18699712 -0.12740481 -0.21734658 0.025929336 -0.039528746 -0.007758105 -0.2628096
-0.007098608 -0.12166198 -0.06792622 0.008661881 -0.041975662 0.1082339 -0.14502141 0.05099659
0.29516914 0.12474996 -0.037339658 -0.11919048 0.10592565 0.16583177 -0.024611441 -0.08785439
0.027105426 0.035096914 -0.1767108 -0.02742627 0.07092113 0.17477204 -0.14637771 -0.0335891
0.061214425 -0.022459507 0.114662066 0.06819123 0.07517717 0.16589457 0.1522805 0.051789586

fc2.bias f4 [64]
00000000: fe41 203b a334 89bd 7eae 363d 7395 99bc
00000010: e305 953d 555d f33d 7395 31be 1828 443d
00000020: eab8 ca3d ca45 a03b aa5f 443d 96d2 9bbd
00000030: 83b7 92bd b8b0 0e3d 0a20 653d 6d86 3ebe
00000040: 557a af3e be14 f03d b671 81bd 5833 5e3d
00000050: f97f 803d dc57 1bbe 523e ec3d 2dbc 323e
00000060: 041a e13c d9a4 ce3a 3db5 803e 11f0 eb3c
00000070: fc5e fd3d 2ff3 a63d a9bd 92bd a7e4 27bd
00000080: f3c5 1dbe 2ac2 803d 282e 13be c591 3bbc
00000090: 1b9d c23d 056a aabc 0172 9f3b 4df9 1b3e
000000a0: 294d 1c3d c09b 7e3d e0fa c93d 70fc 633c
000000b0: 180d 133d 4a3d 233d f7cd 07bc a13f 323e
000000c0: 04c1 6f3d 571f 3d3e 0f26 0a3e 0b6c 653d
000000d0: e8e3 5bbd 6dba 77bd 5014 723e 27b9 bfbd
000000e0: d682 0bbe e273 f1bc 3dc6 5c3e fc81 603a
000000f0: 3a84 edbd 1c02 1f3e e3f3 1ebe cfdf fb3d
0.0024453397 -0.06699493 0.044600002 -0.01874802 0.072765134 0.11883036 -0.17342167 0.0478898
0.09898551 0.004891132 0.047942795 -0.076085255 -0.07163908 0.0348365 0.055938758 -0.18605967
0.3427302 0.11722706 -0.06320517 0.054248184 0.06274409 -0.15170234 0.11535324 0.17454596
0.027478226 0.0015765681 0.25138274 0.028800996 0.123716325 0.08151852 -0.07165081 -0.040989544
-0.15407543 0.06287034 -0.14373076 -0.011448328 0.09502622 -0.020802507 0.0048658852 0.1523182
0.038159523 0.062160254 0.09862304 0.013915166 0.03590116 0.03985337 -0.008288852 0.17407085
0.058533683 0.18468986 0.1349108 0.05601124 -0.053684145 -0.060480524 0.23640561 -0.09361487
-0.13624129 -0.029474203 0.21559997 0.0008564291 -0.11597486 0.15528148 -0.15522723 0.122985475

fc3.weight f4 [64, 64]
00000000: d0a5 bebc 6be4 22be 8829 8abc dcb8 42be
00000010: 6029 5ebd 56a7 4e3d 79ae 9c3d 204f a73c
00000020: e406 2e3d a20a 22be e2af d3bd f5e2 28be
00000030: 56d6 6bbd e653 6ebd 8877 75bd 0e9f febd
00000040: 2c2b 13bd eb3b b33b 6574 d2bd ba9c d7bd
00000050: dccb 1cbe 3521 70bd 81bc a2bd 75e8 48bb
00000060: 8041 c23b f27c f33d a55c 923d 0029 243a
00000070: 7eae f5bc dbce 8bbd e66a 72bd 6e73 053d
00000080: ff3f 48bd 0c5f d33c 4211 bebd fa27 4abd
00000090: 60f6 8f3c d275 e8bd 2a39 28be ab1e f7bd
000000a0: 7a3a f4bd bc9c 1cbd 40c2 703d 0317 2ebc
000000b0: 2449 d8bd 87d1 853c 5a9c 2bbe 58e6 00be
000000c0: b655 813c 8513 aebd c06b 33bd 885f 9ebd
000000d0: 2c63 d1bc 22fb 833d ffe1 843a d17b 673c
000000e0: 3c03 503d 3b7a 5d3d 442f a3bc 9177 51bd
000000f0: 68be e13c 346e 853d 7cd5 263d 2d72 23be
00000100: 1474 b7bd bcd2 863d a72f dbbd 44c0 843e
00000110: 6cbc f6bd fe6a 743c 2e22 a33d e23e f33b
00000120: 9cf4 883c 79d0 cc3d 52ee 253d 9b13 463c
00000130: 3007 cbbb bcaf e8bd 538c aebd 14aa 28bb
00000140: 0c20 febd 85ca d8bd f67d 9ebd 8301 693e
00000150: bc48 aa3d bee1 923d e0ea e7bd e030 8c3d
00000160: fd5f 26bd 2270 d63d 6996 113d 6a05 d73d
00000170: 1dce 87be ec99 6bbc 749b 4cbe 4c46 d1bd
00000180: e94a d23c 1bbc 2a3e fef0 7d3e 867d 93bd
00000190: 03a4 f4bd 384f 1dbe 0ad4 5cbe e747 4cbe
000001a0: 81f2 1e3e 4159 333d 36e9 863d a12e 1dbe
000001b0: 3a53 0cbe 487a 46bd 0de8 51bc bdf4 71bd
000001c0: 5b8a 82be b38e 233d ba39 7fbd 8af0 c03c
000001d0: 07d0 133d 78f8 223d 6536 b33c ad4c bf3b
000001e0: 0278 253d 21db 0d3c ae9e ffbd e510 d23e
000001f0: 2273 c93e 110e 853e d822 93bd 10de 02bc
00000200: b0a2 a1be b9b0 7f3d afc1 e63d d6b1 0c3e
00000210: f510 c9bd b063 713e 145d 203e 69e5 93bd
00000220: 058d 033e b74b 7a3d 350f a43e fa93 063d
00000230: bc49 d33d 40bb 4bbe 7040 d0b9 4426 1abd
00000240: fbbc 003e 08b0 1dba 6f08 a33d 134c 813d
00000250: acea 00be a437 513e 4ebe 67be f5ba 483e
00000260: df4a a13d 832b ddbe d90a 0fbe 0bf1 02bd
00000270: 6087 7b3d 188c d9bd d4fb bd3c e0aa 0b3d
00000280: 2752 353e df73 d53d 774d 333e d116 d43d
00000290: 404f 86bb 862f 8cbe 68a4 bebc a4a1 69be
000002a0: a9c9 093e 5a77 5f3e ed43 843e a8a6 05be
000002b0: 0fbd 47be 438b dabd af17 b8bc 4a71 c43c
000002c0: 886b d8bd f7e8 473d 9cfc 783d 6511 c5bd
000002d0: acf1 983e 93fb 47bc 67ca 7c3d c30b 1e3d
000002e0: e471 003e 1d03 353e 2a4c 3f3d d892 553e
000002f0: 4f4d 573e f604 043d 8034 743d 69d7 4e3c
00000300: 695b 18bd a969 0c3d 8122 3a3e 08a7 adbd
00000310: a164 1bbe 25b0 533d 44b1 033e 8f5b aa3d
00000320: 074a d63d 190d e03d 452a 08bd 123f 82bd
00000330: 4e6e f6bd 2cd4 da3b 6682 6a3d 5e94 a6be
00000340: 80c6 1e3f bb3e a63e 69b7 843d ede2 76bd
00000350: 1e4e 303e 9abe c0bd 1c66 2f3d a971 f9bd
00000360: da42 8c3d e5e7 35be f286 5bbd a5c9 f33d
00000370: aacd 76bc fb7c 9d3d 1817 933d 5b89 74bd
00000380: b7e6 063e 8058 c7bd ef60 e23d e229 98bd
00000390: ad44 883e fe73 c53d 70ad 323e 6c69 b8bd
000003a0: fe56 06be 4c23 bcbd 9448 d63a 41f1 36be
000003b0: eb6b 9e3c e521 63bd aa1b 1d3e 7b59 113e
000003c0: e147 82be ef3f a33d 2712 00be 4b9d 2e3e
000003d0: 672e cebc f45c 0e3e ce87 03be e686 b1bd
000003e0: f1ac 473e 4924 9dbd 1243 353e 4101 42be
000003f0: a6c0 8ebe 9311 60be e3d6 113e 9915 013e
-0.023272425 -0.15907447 -0.016865507 -0.19015831 -0.054238677 0.050452553 0.076504655 0.020423472
0.04248704 -0.15824369 -0.10336281 -0.16492827 -0.057577454 -0.05818548 -0.059928447 -0.12432681
-0.035929844 0.0054697893 -0.10276107 -0.1052794 -0.15312141 -0.05862542 -0.079461105 -0.0030656133
0.0059282184 0.11889066 0.07146577 0.0006262213 -0.02999043 -0.06826564 -0.059183978 0.032580785
-0.048889156 0.025802158 -0.092806354 -0.04935453 0.017573535 -0.113505974 -0.16428056 -0.12066396
-0.11925216 -0.03823541 0.058779 -0.010625604 -0.105608255 0.016335262 -0.16758862 -0.12587869
0.01578794 -0.08499817 -0.04380393 -0.07733065 -0.025559984 0.06444384 0.0010138153 0.014128641
0.050784335 0.054071646 -0.019919999 -0.051139418 0.027556613 0.0651516 0.04073094 -0.15961523
-0.08957687 0.06583163 -0.10702448 0.25927937 -0.12047657 0.014918087 0.07965504 0.0074232677
0.016718201 0.100007005 0.040510483 0.012089635 -0.006195925 -0.11361644 -0.085228585 -0.002573614
-0.12408456 -0.105855025 -0.07738869 0.22754483 0.08314654 0.07171963 -0.11324096 0.0684526
-0.040618885 0.104706064 0.035543833 0.104990795 -0.2652444 -0.01437996 -0.19981176 -0.10218486
0.025670486 0.16673319 0.24798962 -0.07201676 -0.11945345 -0.15362251 -0.21565261 -0.19949304
0.15522195 0.04378629 0.0658745 -0.15349819 -0.13703623 -0.04845646 -0.012811673 -0.05907129
-0.25496182 0.03993101 -0.06231091 0.023552198 0.036087062 0.03978774 0.021876523 0.005837998
0.04039765 0.008658201 -0.124814376 0.41028515 0.39345652 0.25987294 -0.0718438 -0.007987514
-0.31569433 0.062424395 0.11267411 0.13739714 -0.098176874 0.23573184 0.15660506 -0.07221491
0.12846763 0.061107364 0.32042852 0.032855965 0.10316798 -0.19895649 -0.0003972086 -0.03763415
0.1257209 -0.00060153054 0.07960593 0.06313338 -0.1258952 0.20431381 -0.22631189 0.19602568
0.07875609 -0.4319726 -0.13968982 -0.031968158 0.0614084 -0.10622424 0.02319137 0.034098506
0.1770712 0.10422491 0.17510019 0.103559144 -0.004098803 -0.27380008 -0.023271754 -0.22815567
0.13455833 0.21822873 0.25833073 -0.13051856 -0.19505714 -0.10671093 -0.02247223 0.023979802
-0.10567385 0.048806157 0.060787782 -0.09622458 0.2987188 -0.012205976 0.061716463 0.038585436
0.12543446 0.17676969 0.046703495 0.20856798 0.21025585 0.032231294 0.05962038 0.0126246
-0.03719655 0.034280453 0.18177225 -0.08479124 -0.15175106 0.051681656 0.1286059 0.08318245
0.10463338 0.10939998 -0.033243436 -0.06359686 -0.12032758 0.006678125 0.057253264 -0.3253507
0.62021637 0.32469735 0.06480295 -0.060275007 0.172173 -0.09411354 0.04282199 -0.12179882
0.068486884 -0.17764242 -0.05359549 0.11903695 -0.015063683 0.07689854 0.07182139 -0.059701305
0.13173948 -0.09733677 0.11053645 -0.074298635 0.26614895 0.096412644 0.17448974 -0.090044826
-0.13119122 -0.0918642 0.0016348534 -0.17865469 0.019338569 -0.055452246 0.15342584 0.1419429
-0.25445464 0.07971179 -0.12506925 0.1705219 -0.02516861 0.13902646 -0.12844774 -0.08668308
0.19499566 -0.076729365 0.17701367 -0.18945791 -0.27881354 -0.21881704 0.14242129 0.12605895

fc3.bias f4 [64]
00000000: 5173 15be a7fb 903d 7589 fabd 98b0 cf3d
00000010: 2641 83bd 95e9 ec3d f3b2 a8bd ab7c 1fbe
00000020: dee4 563d 78e9 273d 66fc 9bbd 41d8 29be
00000030: 5e8f 41bd 5a99 783d 78e1 e63d bffe 45be
00000040: f553 483e 5131 693d 5ab9 91bc c661 493d
00000050: f2a2 443e 8fab ce3d e346 fc3c 84a0 863d
00000060: 3860 6ebd d1e9 cb3d beaa 3fbd 06b5 f93d
00000070: 2501 b4bc c1ac 1c3e cb98 ef3d 1a41 8e3d
00000080: 8c4c 9d3d 6fdf c83d 5692 42bc 8b99 0bbe
00000090: 3bca efbd 55d9 6f3b e6c9 b13c b8be 063e
000000a0: afd1 0cbe 87df 033e bf64 0c3c 300e c5bc
000000b0: 3341 5e3e 20d8 e93d 9166 5f3d 37d7 1ebe
000000c0: 91fd 483e 70fe af3d 65a9 bcbc 1931 d3bc
000000d0: 1777 46be a871 803e b969 4f3e 0792 0e3e
000000e0: c0ae 8fbd ee03 9f3c e213 2b3e faec 133e
000000f0: 354c d8bd 9ea0 aabc 97f4 f8bc e5a9 553e
-0.14594771 0.07079249 -0.12233249 0.101411045 -0.064089105 0.1156799 -0.08237257 -0.15574901
0.05246436 0.040994138 -0.076165006 -0.165864 -0.047255866 0.060693122 0.112734735 -0.19335459
0.19563277 0.056931797 -0.017788578 0.04916551 0.19202784 0.10091316 0.03079552 0.06573585
-0.05819723 0.09956706 -0.04679369 0.121927306 -0.021973202 0.15300275 0.11699065 0.06946011
0.07680616 0.098082416 -0.0118757095 -0.1363279 -0.11708494 0.0036598046 0.021702718 0.13158691
-0.13751863 0.12878238 0.008568942 -0.024054617 0.21704559 0.11418176 0.054541174 -0.15511785
0.19627978 0.08593452 -0.023029992 -0.025780248 -0.19381367 0.25086713 0.20255174 0.13922893
-0.07015753 0.019411054 0.16706803 0.14445868 -0.1056141 -0.020828541 -0.030390067 0.20865591

fc4.weight f4 [10, 64]
00000000: c6e0 3d3d 6e69 3ebe fc75 7cbe 61f3 4e3e
00000010: 0c09 c8bd 0673 b1be 6ea8 0dbe cc3a 64bd
00000020: b823 8dbe 78db 393e e7f5 63be 6bd4 ddbd
00000030: 0e1e 82be 3033 debd e545 7bbe c9a2 a4bd
00000040: 120c 61be fa09 8a3e f98d a03b 11ae 4abe
00000050: 83e3 e53d e1a5 8dbe 8ec8 bfbe 36d6 c3bd
00000060: f51d 003d 89dd cc3d dc61 4b3d e2a1 f5bd
00000070: 3b9b 3bbe 2310 dfbd a2d3 64be 03b1 03be
00000080: 5b94 c3be e0c8 0bbd 6567 833c ce72 22be
00000090: c3b9 3dbe 27b1 39bd d024 9dbd 07f2 17bf
000000a0: 923e 91bd aca0 873e bb9b 46be b676 7c3c
000000b0: 7cb6 a0bd 605c 043e 7c21 343e f97e 3bbe
000000c0: 5bee 17be 50ea 3b3e 9912 123e 2bba ccbe
000000d0: 880c 26be 34a6 fdbe 4ac1 e2bd e657 25be
000000e0: 4c41 e33b 8c77 bdbd 5e8c 1cbe 218b e5bd
000000f0: 24b0 b03d c322 613e 3496 293e 1fe9 3bbe
00000100: b125 443d a1a9 3c3e 5411 abbd 4b01 d5be
00000110: 58bf a03e 20f1 5fbe e396 94bd 1d47 9f3d
00000120: dc83 87be ca45 893d 1458 6e3e e97d 01bf
00000130: b731 993d 6d97 c8bd 6272 04be 47c9 0e3e
00000140: b205 a83e ece5 ebbd bebf f23b 008b 4dbe
00000150: 679d b3be 23c7 99be cc69 00be 7ea9 973e
00000160: a125 50bd 08ca 843d 24a2 e3bc fd29 ebbe
00000170: a967 443e ae4b c1be ea3a eb3c e04e 103e
00000180: adc8 c2bd 8fb6 5ebe 9ffe aa3b 182d 8ebe
00000190: f2b6 9d3d dcb4 c23c 4c72 63bc 3d4d 47bd
000001a0: 1cec 80be d658 75bd 8bec 093e 3b24 41be
000001b0: a7e1 d93d dc9b 7abe 2292 2f3d 7993 32bd
000001c0: a384 9cbe 919a d5bc 923b d2be db1d 773e
000001d0: ea9a 0cbf 36d9 4c3e e689 57be 3dfd 02bf
000001e0: 7e3a 723d 49c8 0d3c 4601 383d c0b2 423e
000001f0: b48a 3fbe 9924 86be 8f0c 28bf 1b0b 693c
00000200: cd27 2fbe 3ba1 273d cb6d 203e 1412 b7bd
00000210: 4117 c3bd a36a f83d b54b 0d3e 12a4 80bd
00000220: 2df1 383e d718 0b3e d52a 413e 5666 38be
00000230: 2752 8b3d 24a7 37be 5fed 043e a694 c3bc
00000240: ac5c 52be 83a9 4ebd 0c2f 513d 07d1 dcbd
00000250: b93c 96bd ee1b 2bbd 1cb2 0bbb 6b72 86be
00000260: b1f9 a239 013a e73d 4d18 593d c9b0 a7bb
00000270: 338b 333e 7eab b5be 2d5d 4abe 81d0 8cbd
00000280: 74c0 fdbd c3a5 313e 706a 0f3e 2029 293d
00000290: b575 debd 11e7 1fbe 38d2 cbbe 9509 81be
000002a0: e5ad 96bd 79d9 7bbe 2648 6d3d a4d0 2a3e
000002b0: 0913 90be 0e21 07be 5348 273c 2ae4 6fbd
000002c0: c88b 343a aa97 8a3e a9cb 093e 2eb6 39bd
000002d0: 3724 54be e3b1 af3b 47b2 d9bd a246 aebc
000002e0: ee3c 8bbd 8da4 5d3e fee6 b1be a0a1 1dbe
000002f0: 9d45 7bbd 34d6 17be 0e0a 8ebe 7ade 62be
00000300: e70f 033d 3461 273e 502a 313e 5589 983d
00000310: d230 58be 28ed 3bbe 123f b43d 78d6 52bc
00000320: 50d0 42be 71b8 743d 5cc7 e23b 7c78 89bc
00000330: 7e08 c13b fee3 0f3e 119e b83c b3d3 94bd
00000340: e7fa 08bf 9727 89ba 3bd3 01be 1db1 13be
00000350: ce04 043e 3458 6fba 207a c0be 2fe6 acbe
00000360: bf34 a3bc 6ace c63d d46d 0dbe 6c5e 95be
00000370: fd40 16bc baf2 05be 83b9 f3bd 11b1 383d
00000380: 9768 77bd a4d2 6d3d a830 783d e8b4 0d3d
00000390: 6056 7d3e 2b5e 323e d1a1 1e3e abd0 b93d
000003a0: bb34 0c3e 17b3 9cbe f0d8 b63d 7376 9f3b
000003b0: cd4b bebd b2b7 443d 145c 86bd 9d52 bebd
000003c0: 5d93 443d c2c4 9bbe e68a 9cbd 2ad4 82be
000003d0: 2061 7abe 6e77 053e 8562 ba3d 9e8a a1bd
000003e0: 22e2 3fbe 32e6 72be ee36 80bd 9ddc 9fbe
000003f0: d6ff c73d 3745 e7be 05a5 76be 91e2 a6be
0.04635694 -0.18594906 -0.24654382 0.20210029 -0.097673506 -0.34658068 -0.13833782 -0.055720136
-0.27566314 0.18150127 -0.22261773 -0.10831531 -0.25413555 -0.10849607 -0.24538381 -0.08038861
-0.2197726 0.26960737 0.004899737 -0.19792964 0.11225035 -0.27665618 -0.374577 -0.09562342
0.03127857 0.10003192 0.049653873 -0.11993767 -0.18320934 -0.1089175 -0.22346357 -0.12860493
-0.38199124 -0.034127116 0.016040513 -0.15864107 -0.18527894 -0.04533496 -0.07673037 -0.5935368
-0.070920125 0.2648977 -0.19395344 0.015409162 -0.07847306 0.12925863 0.17590898 -0.18310155
-0.14837019 0.18351102 0.14264907 -0.39985785 -0.16215718 -0.49540865 -0.11072023 -0.16146812
0.006935274 -0.092513174 -0.15287921 -0.11208177 0.08627346 0.21985917 0.16561204 -0.18350647
0.047887508 0.18424083 -0.083529145 -0.4160255 0.31395984 -0.21869326 -0.07255342 0.07777236
-0.26467788 0.06702764 0.23275787 -0.5058275 0.074801855 -0.09794507 -0.12934259 0.13943969
0.32816845 -0.115184635 0.0074081114 -0.20072556 -0.35081026 -0.30034742 -0.12540358 0.296215
-0.050817136 0.06483847 -0.027787276 -0.45930472 0.19180168 -0.37753052 0.028714616 0.14092588
-0.09510932 -0.21749328 0.0052183415 -0.2776878 0.0770091 0.023767881 -0.013882231 -0.048657645
-0.25180137 -0.059899174 0.1346914 -0.18861477 0.10638743 -0.24473518 0.042863972 -0.043597672
-0.30569944 -0.02607468 -0.41061074 0.24132483 -0.5492388 0.20004734 -0.21048698 -0.5116766
0.059137814 0.008653709 0.04492309 0.190135 -0.18705255 -0.26199797 -0.6564416 0.014223839
-0.17105027 0.040925246 0.15666883 -0.08938995 -0.0952592 0.12129714 0.13798411 -0.06281294
0.18060751 0.13583694 0.18863995 -0.18007788 0.06802779 -0.17934853 0.12981175 -0.023874592
-0.20543164 -0.050454628 0.051070258 -0.10782056 -0.07335801 -0.041774683 -0.0021315878 -0.2625917
0.00031085082 0.1129036 0.05300169 -0.00511751 0.17533569 -0.354824 -0.19762106 -0.068757065
-0.12390223 0.1734839 0.14005446 0.041298985 -0.108622946 -0.15615489 -0.39808822 -0.25202623
-0.073573865 -0.24594678 0.057930134 0.16681153 -0.28139523 -0.13196203 0.0102101145 -0.058567204
0.0006887284 0.27068835 0.13456596 -0.045339756 -0.2071694 0.005361782 -0.10629707 -0.021273915
-0.06798731 0.21644802 -0.34746546 -0.15393686 -0.061345685 -0.14827806 -0.27742046 -0.2215518
0.031997588 0.16345674 0.17301297 0.07448069 -0.21112373 -0.18352187 0.08801092 -0.012868516
-0.19024777 0.05974621 0.006920738 -0.016781084 0.005890905 0.14051816 0.02253631 -0.07266941
-0.53507847 -0.0010464069 -0.12678234 -0.14423032 0.12892458 -0.000913027 -0.37593174 -0.33769366
-0.019922612 0.09707339 -0.13811427 -0.291736 -0.009170768 -0.13080874 -0.11900618 0.04509074
-0.06040248 0.05806221 0.060593277 0.034596354 0.2473998 0.17418735 0.15491416 0.090730034
0.1369199 -0.30605385 0.08928096 0.004866415 -0.092918016 0.048026748 -0.06560531 -0.09293101
0.0479921 -0.30423552 -0.0764368 -0.25552493 -0.24451113 0.1303384 0.09100822 -0.07887767
-0.18738607 -0.23720625 -0.06260477 -0.31223002 0.09765594 -0.45169994 -0.24086387 -0.3259473

fc4.bias f4 [10]
00000000: 4c4f 40be 5eb4 773d 73a1 e9bd f834 6abd
00000010: 7b8c 073e 81a0 233e 648a 83bc 63ca 65be
00000020: 3ee7 373e 31a2 a6bd
-0.1878025 0.060474746 -0.11407747 -0.05717942 0.13237183 0.15979196 -0.0160572 -0.22440486
0.17959306 -0.08136404
