MNIST/mnist_net.pth (torch, 239663 bytes, 8 tensors)

fc1.weight f4 [64, 784]
00000000: 8023 893b 267d a33c c3e1 90bc 2080 55bb
00000010: 6874 573c 782d 42bc 8062 f3bb 26de 4bbc
00000020: e09f b03c 3449 013c e2ed da3c 2bd5 02bd
00000030: 300c 133c 66e2 aa3c 80b1 5bba 3168 f5bc
00000040: fe2c e03c f26f e63c 588e 65bc 2ce6 c73c
00000050: 75d3 e0bc b0d6 a1bb 109b de3b 620d bc3c
00000060: a604 f73c 9651 de3c 24dd 643c 1292 f23c
00000070: a394 07bd 00a0 6bbc 48ee a03c 8854 b0bb
00000080: 5295 1bbc 14c6 823c 7c9f 133c 3443 e33a
00000090: 4127 8abd 5f78 a4bd a345 c2bd 7fb9 a9bd
000000a0: a3f8 67bd 9de4 183d ca05 1d3d b300 00bd
000000b0: e660 3cbe f40b f6bd 7974 53be a9c8 efbd
000000c0: fbff 09be 7696 a9bd 191c 05bd dbe1 dbbd
000000d0: ee18 e3bc 900b dcbc f815 7c3c 5e30 e23c
000000e0: d58e f0bc d74a 0e3d 749b 603c fc6c 46bd
000000f0: c84a 57bd 4b4e 17bb b02e 3fbc 63f5 9ebd
00000100: 11ee c2bd 8134 b4bd 5ee9 10be 3113 2dbe
00000110: b647 92be 8c1c 4cbe 0f14 ffbd 1a49 91be
00000120: e557 51be d3b3 2cbe a2c0 41be 76f3 9ebe
00000130: 90d0 40be 54c4 54be 64f4 63be fbce 1cbe
00000140: b671 6f3d ef28 103d c7a3 9fbc b677 ea3c
00000150: 00f5 aeb9 78b4 eabb 4898 953c e4b6 71bd
00000160: dedf 88bd 1ca7 52bd 647c fb3b 8cb6 14be
00000170: 90f6 3abe f67d 99be a7c5 8cbe a216 a8be
00000180: 8bba a5be 6d8e 73be 7c2d 71be 1640 89be
00000190: dc58 64be 5a31 1abe 39d2 803d b08f e93d
000001a0: 7f40 623d 4d31 343d a77c 523e 8520 6b3e
000001b0: f442 e73d 16fb 5c3c 3d93 b3bc c8a2 9c3b
000001c0: aee9 6cbc 087c bb3c cbc2 bd3d 0094 fe3c
000001d0: f4b8 903b b2fe 1abd 1ded 05be 90fb 0dbe
000001e0: 6c60 56be bfae 52be 0ed0 7cbe 13d4 a9bd
000001f0: 534f 21bd d0c1 55bd bb36 f4bc f33f aabc
00000200: 109e 933d 40e5 493d db90 1a3e efc7 0b3e
00000210: 3428 d33c fc5a 07bd aed4 a33d 013e 9a3d
00000220: 9dca 053e e239 f43d b957 c33c eb8f acbd
00000230: 1adb bc3c 4813 123c 35fa 7cbb 078a 12bd
00000240: 1bb9 b2bc b607 dfbc 94f3 afbb 1867 ebbd
00000250: 9aef f8bd d72d d5bd 4885 52be 84b2 9ebd
00000260: 7047 51bc 9cab 28bc eacb fcbd 5dd9 b4bd
00000270: 027a c0bc 73aa c3bc 2bc1 6c3d 57c0 aa3d
00000280: fcbe 2d3c 17cb ed3c d32e c73d 8954 683d
00000290: b6bc 3c3d 45f2 d63d 42f9 07bc fade e9bd
000002a0: e678 37bc c62b d6bb 38ca abbc 75b0 6d3d
000002b0: 8fe4 a23d 5278 943d 396f bbbd 5249 b8bd
000002c0: f97b ccbc 4b86 18bd c65b e0bd d4f2 a9bd
000002d0: fead 1abc 5524 18bd 30cb c7bd 21bf 17be
000002e0: a581 0fbe bf27 e7bd fdf5 a8bd 0655 073e
000002f0: 0246 873a 7af1 163d 6bbf 6cbd 6d8d 223c
00000300: 823d a53c 9c21 e83d daa3 c43d b834 5abd
00000310: 1484 2b3d 1df9 b93d fcea 683d 8ff7 6f3d
00000320: fb74 4b3e d2a3 bc3d 8052 febd ad25 cfbc
00000330: 1e6b 9c3d f70b 953c b4d1 5cbb bf63 f1bd
00000340: 2a72 e9bc 8c91 9dbc 05a9 29be f59d 4ebe
00000350: 0bd0 97be 41a0 81be 8724 efbd 5a49 dcbc
00000360: 437c cb3c 726c 6b3c 5243 7e3d 0334 4e3c
00000370: a927 d63d 6d28 283e 6967 813c 2901 8fbd
00000380: af31 563d b01b 753e 88ba 1f3e 4a7a 4f3e
00000390: 3062 593e 70a9 7f3d 97d0 6bbd 311c 383e
000003a0: c580 c03d 7dfe 483d cc37 b3bc 26ef 713c
000003b0: 2bab 483d 5f0f 79bd f55d 0bbe b291 43be
000003c0: d354 8bbe aba2 14be 7d4d a5bc aedc 6fbd
000003d0: 5b94 163c fcd2 9e3b 6057 a43d 25f7 593e
000003e0: e42f 243e 42a5 f63d 510b a13e d4a9 dd3d
000003f0: bdfc dc3d ca69 243e 2b7c b83e 891f ad3e
0.00418514 0.019957136 -0.017685777 -0.003257759 0.013150312 -0.011851661 -0.0074275136 -0.012443101
0.02156061 0.007890988 0.02672476 -0.031941574 0.008975074 0.020859908 -0.00083806366 -0.029956909
0.027365204 0.028129552 -0.014010988 0.024401747 -0.02744458 -0.004938923 0.0067933872 0.0229556
0.030153584 0.027138513 0.01396874 0.029610667 -0.033100735 -0.014381409 0.019644871 -0.0053811707
-0.00949605 0.015963592 0.009010192 0.0017338754 -0.06745768 -0.080307715 -0.094859384 -0.08287334
-0.056633603 0.037327398 0.0383356 -0.031250667 -0.18396339 -0.12013999 -0.206499 -0.11708195
-0.13476555 -0.08280651 -0.0324975 -0.10736438 -0.027721848 -0.026860982 0.015386097 0.027610954
-0.029364983 0.03473934 0.013708938 -0.04844378 -0.05256155 -0.0023087438 -0.011668846 -0.077616476
-0.09518064 -0.08799077 -0.14151523 -0.16901852 -0.28570336 -0.19932765 -0.12454998 -0.28376085
-0.20443685 -0.16865472 -0.1892114 -0.3104512 -0.1882956 -0.20778018 -0.22261196 -0.15313332
0.058458053 0.035195287 -0.019487275 0.028621536 -0.00033370405 -0.007162627 0.01826109 -0.05901231
-0.06683324 -0.0514289 0.0076747406 -0.14522761 -0.18258119 -0.29978913 -0.27494547 -0.32829767
-0.32368883 -0.237848 -0.23552507 -0.26806706 -0.22299522 -0.15057889 0.06290097 0.11404359
0.05523729 0.04399233 0.20555364 0.22961624 0.11292067 0.013487598 -0.021920795 0.004780147
-0.01446001 0.022886291 0.092656694 0.031076431 0.0044165794 -0.037840553 -0.13078733 -0.13865495
-0.2093522 -0.20574473 -0.24688742 -0.08292403 -0.03938229 -0.052186787 -0.029811254 -0.020782446
0.072078824 0.049290895 0.1509432 0.13650487 0.025776006 -0.033045754 0.0799955 0.075313576
0.13065572 0.11925103 0.02384554 -0.08425888 0.023053695 0.00891573 -0.0038601283 -0.035776164
-0.02181678 -0.027225357 -0.005369613 -0.11494273 -0.12155075 -0.10409134 -0.20558655 -0.07748893
-0.01277338 -0.010294821 -0.12343581 -0.08830521 -0.023495678 -0.023884987 0.057801407 0.08337467
0.010604616 0.029027505 0.09725728 0.056721244 0.046078406 0.10495428 -0.008299174 -0.114194825
-0.011198258 -0.00653598 -0.020970449 0.05802961 0.0795375 0.07249512 -0.091520734 -0.0899836
-0.024961459 -0.037237447 -0.109550044 -0.08298269 -0.009440897 -0.037144024 -0.09755552 -0.14819004
-0.14014299 -0.11286878 -0.082500435 0.13216028 0.0010320547 0.036851384 -0.057799738 0.009921414
0.02017093 0.113345355 0.09601565 -0.053272933 0.041874006 0.09080718 0.056864724 0.0585857
0.19868843 0.09210934 -0.124180794 -0.02528652 0.076376185 0.018194182 -0.0033694329 -0.11786603
-0.02849682 -0.019234441 -0.16568382 -0.20177443 -0.29650912 -0.25317577 -0.11676889 -0.026890446
0.024839526 0.014369117 0.06207592 0.012585643 0.10456783 0.16421671 0.01579638 -0.06982643
0.052293476 0.23936343 0.155985 0.20261493 0.21228862 0.062417448 -0.057571974 0.17979504
0.09399561 0.049070824 -0.021877192 0.01476649 0.048991363 -0.060805675 -0.1361006 -0.19098547
-0.27213153 -0.14515178 -0.02017855 -0.058560066 0.009190644 0.0048469286 0.08024478 0.21285684
0.16033894 0.12043239 0.31453946 0.10823408 0.107903935 0.1605598 0.36032233 0.33813122

fc1.bias f4 [64]
00000000: 8030 03be eb4a 493e 7cbe bb3d 278f 0d3d
00000010: ebbd b33c ad2c a13d cc3b 4cbc 333a 603e
00000020: 8018 1a3d 87c0 f8bc 6126 2c3d 8c63 09be
00000030: d911 28bc 89f1 323e 6c27 ee3d b77f 5abc
00000040: e343 15bd 40a2 b7bd cf57 ef3d b659 2a3d
00000050: 1a8b bc3d 22c1 16bd d651 243e 7f02 a43d
00000060: 12c1 4f3e 9e3e e4bd 4ead 623a c12f 863e
00000070: 3877 623d 93c1 043e 016e a2bd e27a 233d
00000080: 1e5b 0fbd d66c f2bc 6095 2abc 52c0 5ebe
00000090: bded 86bd 0dbe a0bd daf8 4dbd 7421 a7bc
000000a0: 3bc5 b03d cf4a c33b fa81 be3d 94cf 65bd
000000b0: 7bb9 e0bb 173d 04bd b7ab 9ebd 5117 3b3d
000000c0: cd7c 743d 27e5 ac3d d9ca 92bb da4c 6e3d
000000d0: 2cd5 083d 5e8c f63c cd23 80bd ab2f 053c
000000e0: 591d 813d 1e04 3e3d 409d 333c 3748 b83d
000000f0: 6d08 9dbd ccb3 9abd d9f5 06bc d8ef 943d
-0.1281147 0.19657485 0.091671914 0.03456035 0.021941146 0.07869849 -0.012465429 0.21897201
0.03762102 -0.030365242 0.04202879 -0.1341688 -0.010258161 0.17474951 0.11628613 -0.013336114
-0.036441695 -0.089664936 0.1168667 0.04158946 0.09206219 -0.03680528 0.16046843 0.080082886
0.20288494 -0.11144756 0.000864704 0.26208308 0.055289477 0.12964468 -0.07931138 0.039912112
-0.034999005 -0.029592913 -0.01041159 -0.21753052 -0.06588314 -0.07848749 -0.05028615 -0.020401694
0.08631369 0.0059598456 0.09302135 -0.056106165 -0.0068580485 -0.032284822 -0.07747596 0.045676533
0.05968933 0.08442145 -0.0044797477 0.05817876 0.03340642 0.03009623 -0.062568285 0.008129041
0.06304426 0.046390645 0.010962784 0.08998149 -0.07667623 -0.07553825 -0.008237326 0.07272309

fc2.weight f4 [64, 64]
00000000: cb1c 60bb 7f3a 91be 2894 383e 98de cabd
00000010: e422 b13d 18c4 98be 55ee a6bd 4c2b e23d
00000020: 3aa1 0cbd 2732 ddbe fd2c a83d 4565 30be
00000030: ad52 0e3e 8689 913d b798 be3d dbf9 99bb
00000040: 3313 363e 8182 513d 1fa5 c4bc 5054 823d
00000050: 82ad 723e 2887 fb3c 7173 9d3e 7049 e0bc
00000060: 463e 0d3e 5409 88be bd14 0dbe b2a9 843e
00000070: 8a3e 3abe 69e6 233e cdc0 38bf 8334 d5bc
00000080: ece1 a0bd 3e60 f7be 2ffd 133e 48e2 c4be
00000090: c5f3 4bbe 03be de3d 8d71 11bd 2fec 8abd
000000a0: 8d25 3f3e b659 3e3e 9e55 80be c599 babd
000000b0: de94 48be 1765 073e 9591 773e 4a3d 22be
000000c0: 0102 a13d a170 4dbe 7efe 07bf e401 ed3d
000000d0: a850 e7bd 8df0 74be 7624 d5be b208 8aba
000000e0: d2c9 b9be ab3f 4c3e 398d d63d 7542 14be
000000f0: 1afc 70be add3 973c 618b 2a3e a3cf f43e
00000100: dc5d 823e 09db 743e 030c 98bb bf5b 4cbd
00000110: 2c05 42be 06ae 75bd 7620 81bd c1c9 533e
00000120: 078a c23c ddd0 fcbd 21ec 80bd c045 ffbd
00000130: c499 88bd 15e8 1a3e f92b 03bd f851 c13d
00000140: 3f8d c0bc fa02 55bd 6e01 d93c cab9 4abd
00000150: b902 b53e 4e14 a03d 5592 a0be c0ce 843c
00000160: 85f7 113e be9d a1bd 204a 9c3d 99f9 033e
00000170: 7a96 68be 8357 d7bd 480b 593c 538f 823d
00000180: de60 94bd d50c a43d 1830 073d 3c6b 52be
00000190: 1f77 26be 8d40 ffbc a2bd fb3c 04cf a0bd
000001a0: 2dc2 493d 7bd0 50be 2b00 41bd 51e7 8fbd
000001b0: 66c9 9e3d 5a88 0c3e 285d 69bd 9a4c 923e
000001c0: a788 8bbe a600 1bbc ccf4 603d 40a9 b53d
000001d0: 7de7 b7bb 5cb8 e1bc cf5c 803d e30d c6bd
000001e0: 8da8 bb3c b4f5 2f3e 6bb7 2abe c793 68bd
000001f0: 6ad6 8fbe 7330 303e 21b9 7fbd 9ebd d33c
00000200: a0a6 033e 7ca4 32be 0ff0 473e a536 43be
00000210: bf26 a43e 28b4 933d afd4 1b3b d0cb 56be
00000220: 4a22 e9bc 587c cebd 1ef1 893c 56ec 5b3e
00000230: 7c8a aabe e6f9 a3bd b224 b03d 6f64 473e
00000240: 1fbb 2d3e ff17 8bbb aba1 b4bd 888b 7fbe
00000250: 4dec e6be 066a d3bd 4c54 503e 112a 913e
00000260: f41b 4abd 53da 823b bd58 263e 5c39 c2bc
00000270: 5285 babc ce28 0dbe dc8e d63d f9d6 533c
00000280: f3c5 f1bd 102d c3be 4c1a 33be 8a3d 1a3d
00000290: 1a73 a23d 5899 9f3d 3360 a6bd 791e c1bd
000002a0: 83ec 363c a246 10be dbd7 f33d db3f 5e3d
000002b0: 7c72 b03e 5d07 1c3d b469 a4be bb72 7fbe
000002c0: e882 03be 4464 62bd 28c9 cf3d 1f1d 90be
000002d0: 3a5c 4d3e 850c 133e 7558 003d 79a5 093e
000002e0: 324f b93d 61d6 503e b85a d03d f9c3 e7bd
000002f0: 055f 8f3d 2b85 f03d a94a 573e 1306 2fbe
00000300: b01a 013e 6b7c 833e 6903 84bd 501f adbd
00000310: 7e87 2bbe 02c7 f63d 16e2 393d 35a5 453e
00000320: 30a9 313e 4c0b c43c 4185 0abc f5ea c2bd
00000330: f70d 64bd 060d 03be cf9d 26bc b1da 72bd
00000340: 36c8 ff3b 206c 013e 62e8 31bd c7a1 ed3d
00000350: 4a87 ed3e 47b1 003e 3f60 b3bd 141c 11be
00000360: 0a4b 3d3e e358 48bd bbcb 42be 5abf 72bd
00000370: 201b 2c3e 5a7d 2b3e 6c70 26bd bc98 513d
00000380: 141c bcbd e8c3 45bd b7ed febd ac19 1fbb
00000390: deec 85be 5626 5bbd 27d8 933d 73c6 fb3c
000003a0: 9e72 52be 6faf b9bd 6f65 043e 800e a03d
000003b0: 4eb4 ccbe 8e5e 073e 4b6a dd3e 97df 45be
000003c0: 29d4 5ebe ad53 9a3e 2fe5 0e3e cded 063e
000003d0: bcfa 5b3b d376 d7be eb0d 753d 9b26 e83d
000003e0: a7e0 e9bd f593 25bd 654d d33d 8010 0d3d
000003f0: 3550 adbe 758f 183e c04a 63be cc68 4cbd
-0.003419685 -0.2836494 0.18025267 -0.09905738 0.08649233 -0.29837108 -0.08150927 0.110434145
-0.034333445 -0.43202326 0.08211706 -0.17226131 0.13898726 0.07106309 0.09306472 -0.0046989745
0.17780761 0.05114985 -0.024004517 0.063637376 0.23699 0.030704096 0.30752137 -0.027378768
0.13793287 -0.26569617 -0.13777442 0.25910717 -0.1818792 0.16005863 -0.7216919 -0.026026016
-0.07855591 -0.48315614 0.1445205 -0.3845389 -0.1991721 0.108760856 -0.03550868 -0.0678333
0.18666668 0.1858891 -0.2506532 -0.091113605 -0.19588038 0.13222156 0.24176629 -0.15843692
0.0786171 -0.20062496 -0.531227 0.11572626 -0.11294681 -0.23919888 -0.4162938 -0.0010531156
-0.3628679 0.19946162 0.10476155 -0.14478476 -0.23533669 0.018533552 0.16654731 0.47814664
0.25462234 0.2391168 -0.004640104 -0.049892183 -0.18947285 -0.059980415 -0.063050196 0.20682432
0.023747457 -0.12344525 -0.06295038 -0.12464476 -0.066699535 0.15127595 -0.032024357 0.094394624
-0.023504851 -0.05200479 0.02648994 -0.04949359 0.3535364 0.07816373 -0.31361642 0.016211867
0.14254577 -0.07891415 0.07631326 0.12888183 -0.22713652 -0.105147384 0.013247319 0.06374993
-0.072450384 0.0801026 0.03300485 -0.20548719 -0.16256379 -0.03115871 0.030730072 -0.07851985
0.049257446 -0.20392029 -0.0471193 -0.07026542 0.077532575 0.13723889 -0.056973606 0.28574067
-0.27252695 -0.009460604 0.054920956 0.088701725 -0.0056123124 -0.02755373 0.06267702 -0.096706174
0.02290752 0.17183572 -0.16671531 -0.056781556 -0.28093272 0.17205982 -0.062432412 0.025847252
0.12856531 -0.17445558 0.19525169 -0.19063814 0.3206081 0.072120965 0.0023777892 -0.20976186
-0.028458733 -0.100823104 0.016838606 0.21476874 -0.3330878 -0.08006649 0.08600749 0.19471906
0.16965912 -0.004244804 -0.08819898 -0.2495557 -0.45102158 -0.10322957 0.20344657 0.28352407
-0.049343064 0.0039933114 0.16244788 -0.023708992 -0.02276865 -0.13785097 0.10476467 0.012929671
-0.11805334 -0.38120317 -0.174905 0.037656344 0.0793211 0.0779292 -0.08123817 -0.0942964
0.011164787 -0.14089444 0.119064055 0.054260116 0.34462345 0.03809296 -0.32111895 -0.2494611
-0.12842906 -0.055271402 0.101457894 -0.28147218 0.20054713 0.14360245 0.03133436 0.13442029
0.090483084 0.20394279 0.10173553 -0.11316676 0.070005454 0.1174415 0.21024574 -0.17092161
0.12607837 0.2568086 -0.06445963 -0.08453238 -0.16750905 0.120496765 0.045381628 0.19301303
0.17349696 0.023931168 -0.008454622 -0.09517471 -0.05567738 -0.12797937 -0.01016946 -0.05929059
0.0078058494 0.12638903 -0.04343451 0.11603122 0.4639228 0.12567626 -0.08758592 -0.14170867
0.18485656 -0.048912894 -0.1902303 -0.05926452 0.16807222 0.16747037 -0.040634558 0.05117105
-0.09185043 -0.048282534 -0.12447684 -0.0024276776 -0.26157278 -0.053503357 0.07218962 0.030734276
-0.20551535 -0.090666644 0.12929319 0.07815266 -0.39981312 0.13219664 0.43245158 -0.19323574
-0.2176062 0.30141965 0.13954614 0.13176651 0.0033566197 -0.42082843 0.059827726 0.113354884
-0.11419802 -0.040424306 0.10317496 0.034439564 -0.33850256 0.14898475 -0.22196484 -0.04990463

fc2.bias f4 [64]
00000000: c7c2 1e3e aea0 4a3e a140 973c 6688 aebd
00000010: ab22 c2bc fddb 163e 257f 46bd a21f 873e
00000020: 95d3 dabd fcf0 72be 65e6 cfbc 41b7 7cbd
00000030: 41a7 553e e158 00bd e077 043e 0deb 0d3d
00000040: 82fe d43d cce5 183d 164f 4dbe 88c4 1a3b
00000050: 6791 ca3d 453f aebc 084d 643d cff7 bdbd
00000060: d977 31bd 5190 1fbe 8770 c3bd 1769 03be
00000070: 3ea8 cc3d 6eee 583e b417 91bd 8887 2d3e
00000080: 7b88 4d3e cbae f8bd ade7 283d e035 513d
00000090: 76d7 ad3d 93e4 1e3d 6af6 86bd cd61 4e3e
000000a0: 42cc 273c f0df 15bc 8b40 243e 967a 6cbe
000000b0: d137 4c3e 571f 093e a387 4bbe a294 bf3d
000000c0: 550f d9bd d28c 143d a885 723e c2fc 45bd
000000d0: d958 3b3e a01e cbbc 5333 f03d 9856 833d
000000e0: f6e6 0ebb 3924 6bbe b136 2fbd c7b7 363d
000000f0: b3be f1bd 0df7 2e3e f7cf 8ebe 94af e53c
0.15503989 0.19787857 0.018463435 -0.0852211 -0.023698172 0.14732356 -0.0484611 0.2639132
-0.10684887 -0.2372474 -0.025378415 -0.061698202 0.20864584 -0.03133476 0.12936354 0.03464799
0.10400106 0.037328526 -0.200497 0.0023615677 0.098910145 -0.021270404 0.055737525 -0.09275781
-0.043327186 -0.15582396 -0.09542947 -0.12833057 0.09993027 0.21184704 -0.07084599 0.16946232
0.20071594 -0.12142714 0.04123657 0.05107677 0.084883615 0.038792204 -0.065899685 0.20154496
0.01024157 -0.009147629 0.16040246 -0.23093638 0.19943167 0.13390861 -0.1987596 0.09354521
-0.105986275 0.03626711 0.23683798 -0.04833675 0.18295611 -0.024794877 0.11728539 0.06413001
-0.0021805144 -0.22963037 -0.042776767 0.044608857 -0.11803951 0.1708643 -0.2789304 0.028037824

fc3.weight f4 [64, 64]
00000000: addb eebd af20 7dbd 0b4f 16be 7786 2a3d
00000010: 001a 20be 18c9 783e db50 d23d 59c2 7e3d
00000020: 03bd 143e d609 913d 5046 31be 1ba2 f23d
00000030: de92 5dbb 67bb 22be 254f 3e3e e2f4 1dbe
00000040: 7fc5 833e e2e1 533e 5d32 183d ad85 8ebc
00000050: 13cf a6bc a572 ec3d c132 5d3d 4ac6 8c3d
00000060: 1e91 ddbb ac6b 87be c085 613a 7b47 3c3e
00000070: 73b0 cd3d 4116 c6bd 78ba b3be 8c2a 803c
00000080: 697b 993d 41cd 4d3e fd77 f7bc 0437 173e
00000090: b9bf 433d bb40 e93d 9e91 473e 8b34 5fbe
000000a0: 440c 0cbd 3e80 753e 8d19 073e 5d53 a13d
000000b0: d898 173e e06d 12be da9a ca3d 0ead b33d
000000c0: 0ef2 da3d 9a99 9dbe ce8a fc3d abd7 b7bc
000000d0: 0663 ce3d 07e4 08be 15b7 1a3e 8b61 2cbe
000000e0: 99cf 793d 2ead aabd 6a48 9a3d fe25 613e
000000f0: dc66 33be 39b1 81be bcde 743e f784 22bc
00000100: b6a6 3e3d 6352 64be da29 32be 5d6f 90bd
00000110: 07ea e0bd 849a 403e d5a8 cfbd 9fa4 09bd
00000120: 1c72 39be 5a32 a0bd c2e2 4abe 26ae 40bd
00000130: debc 04be e0ae 363e 740d 243c 0dd7 23be
00000140: ed34 1abd 7dd6 d5bd 21c4 f5ba cff4 10bd
00000150: 51ea 70be 043c c4bd f530 4a3e be15 90bd
00000160: 08bb 55bd 6394 4d3c b980 a5bd 5c8b 9d3e
00000170: b88e 0a3e 6d93 cf3d b1f5 a3be b375 343e
00000180: 6681 db3c e03d 1d3d 0b85 9abd e3b8 8a3d
00000190: fdf3 c83c 12f5 093c 6068 a7bd bd7e 0bbe
000001a0: ce0e 5c3d 9505 ac3c 8da3 00be cbce 5d3e
000001b0: be1b 22be efb4 a8bd 6b12 7f3e 3f36 af3d
000001c0: bdd2 ea3d c211 0bbe 1eb7 b53d 70a4 f83d
000001d0: 52e8 2bbe 8568 c8bc ddbb 02be c655 ecbd
000001e0: 61d7 2d3e 353f 6bbe f0ee e6bd fe74 db3c
000001f0: c423 8dbd 5468 d4bd 7580 cfbc ba7f 5fbc
00000200: 65ba e13d 3b4d a0be 40c8 883e b98c ccbe
00000210: 8ce4 4a3e fbbb 453d 8f35 15bd b097 5bbe
00000220: bb62 973c b4d2 0ebe abeb dabe b8f8 843e
00000230: a06d 87be b0a3 20be 6670 2f3d 5069 3bbd
00000240: 8291 183e ee56 6f3d 4489 223e 9fa4 0dbd
00000250: 8c68 003e d28b f6bd 0bb5 8ebe 6567 83bd
00000260: 91ff 763c 548f b93c c460 8c3e 6850 eb3c
00000270: 87ea e8bc 0d22 bcbe e2b8 19be e4d8 babd
00000280: e2de b03d eb7c 743e fb15 603c 3f34 5f3e
00000290: d41c 8f3e 3dfd 0f3d 2062 8b3e 9561 1d3e
000002a0: dd6c 513e 78ae c63d ffc9 38be 1db1 ad3e
000002b0: acd4 c1bd 89b8 f33d 0d8c 913d 3a2a 69bd
000002c0: b86c 483d 49ef 17be a839 28bc a3a9 cabd
000002d0: 9ec1 3b3d bedd a23d 7815 dd3d 9ef3 34bd
000002e0: 5694 5fbd 19be e53c 145c 1dbd 9669 3b3e
000002f0: de15 513e cdf7 c3bc dd9f cf3d 22bc a7be
00000300: 92e4 e03c b81c 80bc 76c5 403d 7a75 e63d
00000310: 3214 5abe fc97 40be 8523 31be f5bb 263e
00000320: 109e 15be 9999 063e e005 8c3c 183c 23be
00000330: 86a1 d7b9 05d9 f33d 6d54 163e 1474 df3b
00000340: ed6c 13bd c452 0dbd cd54 80be cfd4 ba3d
00000350: ce13 96be 6b73 d33d 562b 973d f243 bcbe
00000360: f0fc 17be 76ea 39be a63e 4cbd a8b8 1f3d
00000370: 3f89 ee3d ed64 f13a 3cca 933e 4e07 ba3d
00000380: 130c 113e d3d1 1b3e a8d6 633e 5132 363d
00000390: ad72 62be 1395 6c3e f21e 263e faa9 25bd
000003a0: 7898 983d 72d8 a2bd d736 2bbe 96f1 d0bc
000003b0: 4578 31bd b56f b9be ddc9 4fbc c1a8 7bbe
000003c0: 21af 993d a151 fc3c dd63 5fbe 5856 5fbd
000003d0: 1f50 3b3e 0965 333e e3f6 bbbd c94a 713d
000003e0: fc43 043e d6af ac3c 3322 003e 082e a63d
000003f0: 85dd 583d 3ff8 25be 1726 8f3c 0b17 13be
-0.116629936 -0.061798748 -0.1467859 0.041632142 -0.15634918 0.24295461 0.10269328 0.062197063
0.14525227 0.07081954 -0.17311978 0.118473254 -0.0033809463 -0.15891801 0.18584879 -0.15425447
0.25736615 0.20691636 0.037157405 -0.017397726 -0.020362413 0.11545304 0.05400348 0.06873758
-0.006761684 -0.26449335 0.0008602999 0.18386643 0.10043421 -0.09672213 -0.35103202 0.015645288
0.07494242 0.2009783 -0.030208582 0.1476708 0.047790263 0.113892995 0.19489142 -0.21797387
-0.034191385 0.23974702 0.1319334 0.078772284 0.14804399 -0.14299726 0.09892817 0.08773242
0.106906995 -0.3078125 0.123311624 -0.022441706 0.10077481 -0.13368236 0.15108903 -0.16834085
0.060988996 -0.08333813 0.07533343 0.21987149 -0.17519706 -0.25330523 0.23913091 -0.009919397
0.046545707 -0.22297053 -0.17398778 -0.07052491 -0.10982137 0.18808943 -0.10139624 -0.03360426
-0.18109936 -0.07822104 -0.19813064 -0.04704108 -0.12962672 0.17840147 0.010012973 -0.16000004
-0.03764813 -0.10441301 -0.0018750468 -0.035389718 -0.23526885 -0.095817596 0.19745238 -0.07035397
-0.05218032 0.012547585 -0.080811925 0.30770385 0.13531005 0.10135541 -0.32023385 0.17623024
0.0267951 0.038389087 -0.07544907 0.067735456 0.024530405 0.008420246 -0.08174205 -0.13622566
0.053725056 0.020998755 -0.1256239 0.21660917 -0.15830895 -0.08237635 0.2490937 0.085552685
0.114659764 -0.13580993 0.088728175 0.12140739 -0.16787842 -0.024463901 -0.12766977 -0.115397975
0.16976692 -0.2297333 -0.112760425 0.026789185 -0.068915874 -0.103714615 -0.025329808 -0.013641292
0.1102188 -0.31308922 0.2671528 -0.39951113 0.19813746 0.048274975 -0.03642803 -0.21444583
0.018479696 -0.13947564 -0.42757925 0.25971007 -0.26450825 -0.15687442 0.0428318 -0.04575473
0.14899257 0.058432512 0.15872675 -0.034580823 0.12539881 -0.12038387 -0.278725 -0.06416205
0.01507558 0.022651352 0.27417576 0.028724864 -0.028432144 -0.3674473 -0.15011933 -0.091234
0.086362615 0.23875777 0.013677116 0.21797274 0.27951682 0.035153616 0.272233 0.15369256
0.20451684 0.09701246 -0.18045805 0.3392419 -0.09464392 0.11900432 0.07106791 -0.056925036
0.048931807 -0.14837374 -0.010267653 -0.09895637 0.045838945 0.0795245 0.107951105 -0.044177644
-0.054584824 0.028044747 -0.03841789 0.18301997 0.20418498 -0.023921872 0.101379134 -0.3276072
0.02745274 -0.015638694 0.047063313 0.112528756 -0.21296766 -0.18807977 -0.17298706 0.16282637
-0.14611077 0.1314453 0.017092645 -0.15940893 -0.0004112834 0.119066276 0.14680643 0.0068192575
-0.03599255 -0.03450276 -0.25064698 0.09122621 -0.29311985 0.103247486 0.073813125 -0.36770588
-0.14842582 -0.18155846 -0.049864434 0.03899446 0.11647271 0.0018416919 0.2886523 0.090834245
0.14164762 0.1521676 0.22249854 0.04448158 -0.22114058 0.23103742 0.16222742 -0.040445305
0.07450956 -0.0795144 -0.16720138 -0.025505822 -0.04332759 -0.36218038 -0.012682405 -0.24576093
0.07504106 0.030800642 -0.21815439 -0.054525703 0.18292283 0.1751901 -0.09177949 0.05890921
0.12916559 0.021079939 0.12513046 0.081142485 0.052945632 -0.1620798 0.017474217 -0.14364259

fc3.bias f4 [64]
00000000: 595c 9c3d e62f efbd e6cf 4cbe 0f6d b73c
00000010: c00c 67bd dc17 45bd c871 143e a27f 4d3e
00000020: 1d7a 4c3e 5d8b 66bd 49b4 9abc 2c49 8f3d
00000030: 8d0f 4a3e 18ba 4bbd 0e12 6bbc 39ae 193e
00000040: 0f6a 1f3d 170f 05bc a380 1cbe bd97 abbd
00000050: ebad 1dbe deec a0bb fb3d be3c 6ca3 073e
00000060: ec79 053d 35b3 81be 1e96 0abd a0f7 ce3d
00000070: bd5f fd3d b565 75bd 6074 6c3e 925e a3bd
00000080: e467 14be 3971 5cbd feb2 04be 718b 0c3e
00000090: d489 1bbd 9db3 963d f6dc 143d 4cf4 233d
000000a0: 457a b03d 59a3 37bd e8e0 c8bd 6f03 93bd
000000b0: 1507 673e c91b 47be 28cf c73d ebb7 113e
000000c0: c670 8bbe 5a15 883e 6fbd edbd 90d0 803e
000000d0: b718 6e3d b049 893e a015 653d 6630 ea3c
000000e0: 4ee6 febd 7ae6 473c 213d 463e 6de2 babb
000000f0: d822 ca3d bce0 b63d 7f38 af3e d880 193e
0.076348014 -0.11679058 -0.20001182 0.02239087 -0.056408644 -0.048118457 0.14496529 0.2006822
0.19968458 -0.05628525 -0.018884795 0.06996378 0.19732495 -0.04973802 -0.014347566 0.15007867
0.038919505 -0.0081212735 -0.15283446 -0.08378551 -0.15398376 -0.0049110493 0.023222914 0.13245934
0.032586977 -0.25332037 -0.03383457 0.101058245 0.12371776 -0.05991145 0.23091269 -0.07977022
-0.14492756 -0.053818915 -0.12958905 0.13725068 -0.03797324 0.07358477 0.036343537 0.0400279
0.08617071 -0.044833515 -0.098085225 -0.07178389 0.22561295 -0.19444193 0.09756309 0.14230315
-0.27234477 0.2657879 -0.11608397 0.2515912 0.05812904 0.26814032 0.055928826 0.028587531
-0.12446271 0.012200946 0.19359256 -0.0057032616 0.09869927 0.089295834 0.3422279 0.14990556

fc4.weight f4 [10, 64]
00000000: 107a 083e 6427 ff3b 2690 0c3e 7392 b63d
00000010: d60b cabe 13be 18be 3667 a8be cada 42be
00000020: 483c 95be 03fa 80be d564 373c 38c3 2ebc
00000030: f962 6abe 3046 383e 86d2 76be 0693 00be
00000040: cc95 66be 0612 b4bd d896 09be 8d43 0fbe
00000050: 0fe4 61bd 9783 333d 5a34 81be 0a68 bdbe
00000060: b0f3 a6be 4111 ca3d cdce fa3b 9c8a 6c3c
00000070: a7d4 4fbe 40c0 593e 9e73 83be 2d3e 82bd
00000080: 010c b5bc dba4 95be 996d d3bd e46e 0fbe
00000090: 5e56 9fbc 8065 263c 74ae 21be 5f09 cbbe
000000a0: a91d 87be 7701 29be e2f8 18be 078c babd
000000b0: 2bfd 62be 270d 0ebe 5643 08be a033 4d3e
000000c0: 6e13 8a3e 72f3 b63c 3890 8bbd c808 5cbe
000000d0: f2ea 8c3d d086 2b3e 8e09 93be d07a 9cbe
000000e0: 6e32 cdbd ad7d 07bd 8582 23be 9af5 2dbe
000000f0: f9cc ddbc 964e 433d 8809 f03c ab71 25be
00000100: 9aa3 1cbe 1d09 65be 0e38 a2be b658 b9be
00000110: 49aa 3f3e 1c96 84be c387 afbd 4ec1 09be
00000120: 08bd 9d3d 2bbe 9a3e e527 57be 89e5 943d
00000130: 6daa f5bc 5aef d4be 9a61 3c3d e59f 093e
00000140: 1e8a 843c 962a 443e 5c62 39be 79c7 14be
00000150: ea08 5b3d 7fcf 81bd ec14 9fbd 099f 9bbd
00000160: f458 3c3e 0775 473d 2729 9fbe eaae 3bbe
00000170: 78ef 03be f74c f0be 68a1 6b3e 69b9 06be
00000180: b127 e3bd c4ec c2bd 7ead 0fbe 01e4 e63d
00000190: 0dea 423d bee9 4d3e 9fb7 e33d c9f3 493d
000001a0: 2c3b 333e a570 9bbe 617a a5bd 479e d2be
000001b0: 1153 3abe 723a dabe dfc9 0abd 45df 76be
000001c0: b60b 99bf 321f 533e 5dd0 a1be 0a22 ccbe
000001d0: 9767 a03d 5897 8cbd 941b 193e 8a3f 7d3e
000001e0: 4a1a 3a3c 4f5d dcbe 0ab7 62be ba04 64be
000001f0: e122 45be 0f25 5dbe ffea 73be 624f bd3d
00000200: 2b15 afbd c4f1 1cbe de7e 733e 5a58 20be
00000210: cc5b d83d f6fe 013e 4edc c2bc 0d5e f6bd
00000220: 5993 7abe 17d3 bf3c 4478 0d3c 008d 34be
00000230: 5e68 46bd 99b4 c5bd e377 3b3c 043e cc3d
00000240: a91b 5ebe 615c 63be 0e2b 64be c5c2 573e
00000250: 098b 243d ae21 9d3d ec03 ce3c 8d1c a83c
00000260: a8ff 38be a703 8b3d 6027 363d e115 0dbd
00000270: e237 733e 9aaa f7bd 7450 8abd b493 2fbe
00000280: d083 26bd 85f1 f3bd 71b1 bfbd bce0 c93d
00000290: 71b6 17be 8633 08bd 7d87 5dbc 51f2 9dbd
000002a0: ac5c 863d d45e d73d 4a6a 603e 4ba2 2ebe
000002b0: 5c6f 5abe 3955 08be cdbb 39bd 5053 3a3e
000002c0: e91d 82be d2fb 63be 7b57 4fbd 12ac 0abe
000002d0: 0a9d a0bd 70b9 7b3d 4307 acbe 344a 413e
000002e0: 07a7 29bb abe2 d2bd a9f3 04be c504 9dbe
000002f0: 2f72 cb3d 6ac6 cebe e08d 3fbe 4b5e 5dbd
00000300: 5fa0 2abd 7956 fc3d 0aee 53bd ff6b 8bbd
00000310: 2c0a 8d3d c661 783e fda2 5abe dcd5 053e
00000320: ecfe 8cbe ec35 25be 2c82 4cbe 855f ecbe
00000330: d302 22be 30c5 8f3d e1bc d0bb 81f4 9a3d
00000340: cd60 9bbe fc80 63be 39fb 8fbe 16de 593d
00000350: b377 783d 10fc e93d d114 353d 3f7b cd3d
00000360: 69fe c03d 8307 9dbc ed8c b7be 1648 36be
00000370: 1b85 24bd 7dcc 38be 72bd 68be 2b48 823e
00000380: 16de 0e3d 8d3b b3be 538b ffbe bf6b 5dbe
00000390: 72dc febd 2369 7cbc 3914 90be 82d7 bcbc
000003a0: 9d28 ed3d c02e 093e 7201 283e e1d6 703e
000003b0: ce2d 34bd 8bd4 99bd 5982 7a3e 9afd 74be
000003c0: 571d cfbd 0da4 34be 8a4a 51bd 70ed 16be
000003d0: 36c3 11bd 3929 0bbd aa27 513e e8d4 1f3c
000003e0: fff4 e23c 0635 cdbd af61 ae3d 28a0 24be
000003f0: d56d e9bc 3388 a3be 70a9 42bd e607 71be
0.13327813 0.007786678 0.13726863 0.08914652 -0.39462155 -0.14916258 -0.32891244 -0.19028774
-0.29147553 -0.25190744 0.011193474 -0.010666661 -0.22889318 0.17995524 -0.24103746 -0.12556085
-0.2251808 -0.087925 -0.13436449 -0.13990612 -0.055149134 0.043826666 -0.25235254 -0.36993438
-0.32607794 0.09866572 0.007654047 0.014437344 -0.20295964 0.21264744 -0.25674146 -0.06359515
-0.02210045 -0.29227337 -0.103236385 -0.14007145 -0.019450363 0.010156035 -0.15789205 -0.39655587
-0.26389816 -0.16504465 -0.14938691 -0.09108739 -0.22166888 -0.13872205 -0.13306937 0.20039225
0.2696795 0.02233288 -0.06814617 -0.21487725 0.0688075 0.16750646 -0.28718227 -0.30562449
-0.10019384 -0.03307884 -0.15967758 -0.16988221 -0.027075278 0.047682367 0.02930142 -0.16156642
-0.15296784 -0.22366758 -0.3168339 -0.36200494 0.18717302 -0.25895774 -0.08570816 -0.13452646
0.077020705 0.30223212 -0.21011312 0.07270343 -0.029988492 -0.4158886 0.045991518 0.13439901
0.01617914 0.1915687 -0.18103927 -0.14529218 0.053475298 -0.06338405 -0.077676624 -0.07598693
0.18393308 0.04869559 -0.31086084 -0.18328443 -0.12884319 -0.4693372 0.2301079 -0.13156666
-0.11091555 -0.09517816 -0.14031026 0.11273957 0.04758649 0.20108697 0.11119007 0.049304757
0.17503041 -0.30359378 -0.080799825 -0.4113638 -0.1819575 -0.42622715 -0.033883926 -0.24108608
-1.1956699 0.20617369 -0.3160428 -0.3986972 0.07832258 -0.06864804 0.14951926 0.2473127
0.011358807 -0.4303994 -0.22140136 -0.22267428 -0.19251586 -0.21596168 -0.23820113 0.09243657
-0.08548959 -0.15326601 0.23778865 -0.15658703 0.10564384 0.12694916 -0.02378669 -0.120296575
-0.24470271 0.023416085 0.008634631 -0.17631912 -0.048439376 -0.09653587 0.011442157 0.09972766
-0.21690239 -0.22203209 -0.22282049 0.21070392 0.040171657 0.076724395 0.025148354 0.020521427
-0.18066275 0.06787806 0.044471145 -0.034444693 0.23751786 -0.120930865 -0.067536265 -0.17146188
-0.04065305 -0.119113006 -0.09360016 0.09857318 -0.1481569 -0.03325226 -0.013521072 -0.07712234
0.065606445 0.10516134 0.21915546 -0.17054097 -0.21331543 -0.1331376 -0.045345116 0.18195844
-0.25413445 -0.2226403 -0.050620537 -0.13542202 -0.07842453 0.061456144 -0.3359929 0.18875962
-0.002588691 -0.1029714 -0.12983574 -0.306677 0.09933888 -0.40385753 -0.18706465 -0.054045003
-0.041656848 0.12321181 -0.051740684 -0.06807708 0.06886706 0.24256048 -0.21351238 0.13069862
-0.2753824 -0.16133851 -0.19971532 -0.46166626 -0.1582139 0.070200324 -0.0063701724 0.07566167
-0.3034729 -0.22217172 -0.28121355 0.053190313 0.06066103 0.1142503 0.044209305 0.10033273
0.09423525 -0.01916862 -0.35849705 -0.17800936 -0.040166 -0.18046756 -0.22728518 0.25445685
0.034879766 -0.3500637 -0.49910983 -0.21623133 -0.1244439 -0.015405926 -0.2814043 -0.02305198
0.11580012 0.1339674 0.16406801 0.2351947 -0.043988995 -0.075112425 0.24463786 -0.23924866
-0.10113018 -0.17640705 -0.051096477 -0.14739013 -0.03558656 -0.03397486 0.20425287 0.009755351
0.027704714 -0.10019879 0.085147254 -0.1607672 -0.028494755 -0.3193985 -0.04752487 -0.2353817

fc4.bias f4 [10]
00000000: 141d e8bc 52c9 16be f232 f6bc bc48 60be
00000010: 6351 a73d d744 f93d 3d4b 21be d877 873c
00000020: 6183 763d 20d7 ecbd
-0.028334178 -0.14725235 -0.03005359 -0.21902746 0.0816982 0.12171333 -0.15751357 0.016536638
0.060183886 -0.11564469
