CIFAR10-Pytorch/cifar_net.pth (torch, 251391 bytes, 10 tensors)

conv1.weight f4 [6, 3, 5, 5]
000000 5e 66 b5 ba fd e0 0e be b4 57 db bd fb 87 40 3d
       -0.0013839712 -0.13953014 -0.107100874 0.04700468
000010 fb 66 ea 3c 75 89 da bd 45 9c 88 be 9f 8a 0c be
       0.028613558 -0.10670749 -0.26681724 -0.13724755
000020 70 9b 3b be f4 06 03 be f3 33 99 be f4 96 58 be
       -0.18321013 -0.12795621 -0.29922447 -0.21151334
000030 b5 8d 87 be 61 4e 2d be 55 c5 43 be 62 20 8e be
       -0.264753 -0.1692443 -0.19118245 -0.2775908
000040 c7 0a 23 be 71 90 49 be 74 9a 2b be e5 16 55 be
       -0.1592208 -0.19684006 -0.16758138 -0.20809515
000050 17 df 6c be 64 9f e4 bd 3b 44 d0 bd 6b b4 67 be
       -0.23131977 -0.11163214 -0.10169264 -0.22627418
000060 d9 c3 3c bd 66 fc 93 bb bb 20 9d 3d cc 2f 6f 3c
       -0.046085212 -0.004516172 0.076722585 0.014598798
000070 03 7f 71 3d 65 3e 20 bd d0 cf e2 3d 00 ce 7c 3d
       0.05895902 -0.039122004 0.11074793 0.061719894
000080 d5 ca c6 3c 53 20 11 bd af 84 25 bd 1a c6 d7 3d
       0.02426664 -0.035431217 -0.04040974 0.10535832
000090 50 74 f5 3d 62 57 b7 bc 56 53 47 3d 69 ab 38 3d
       0.119850755 -0.022380535 0.04866346 0.045085344
0000a0 a0 3f f8 3d 08 46 0d bd f0 8f d1 3d b1 6f d0 bc
       0.121215105 -0.034490615 0.10232532 -0.025443884
0000b0 6e 22 04 3e d4 b8 ba bd 2b ba df 3d a6 7e 00 bd
       0.12903759 -0.091172844 0.109241806 -0.03137078
0000c0 e6 41 3b 3d f0 c6 29 be 7b d6 a4 3d ae 8f 3c 3e
       0.045717143 -0.16579795 0.080487214 0.18414184
0000d0 ff 4b 57 3e ee 34 af 3c 4a 12 e0 3d d0 fc dd 3d
       0.21025084 0.021387544 0.10940988 0.10839236
0000e0 d9 42 80 3e 0d 37 30 3e fe 13 1e 3e 81 62 01 3e
       0.25051 0.172085 0.15437314 0.12635233
0000f0 8b 7f 59 3e de 52 43 3e 39 4b 5f 3e 90 4b 42 3e
       0.2124006 0.1907458 0.21806039 0.18974137
000100 b6 51 0f 3e 06 55 9c 3d da 72 22 3e ec c0 27 3e
       0.13996014 0.076334044 0.15864125 0.16382188
000110 b6 cf 49 3e 3d 28 3d 3e b4 79 ae 3d 99 a2 bf 3d
       0.19708142 0.18472381 0.08519307 0.09357185
000120 15 d5 1a 3e f6 51 3a 3e 49 a6 d2 3d 8f 5d c2 3c
       0.15120347 0.18195328 0.102856226 0.023726253
000130 a4 de d1 bb 8d ac 81 3d a0 85 4a bb 7e 8c ee 3d
       -0.0064047147 0.063317396 -0.00309024 0.116478905
000140 30 56 57 bd 99 e5 3f be 84 7e 14 be fe 45 3a 3e
       -0.05257243 -0.18739928 -0.14501387 0.18190762
000150 ba 17 0d 3e d0 01 87 3c ef 0e b7 be 8d 6c de bd
       0.13778582 0.016480356 -0.3575358 -0.10860548
000160 5b 60 ed 3d d2 93 89 3e a7 cf e9 bc c4 0c bc be
       0.11590644 0.2687059 -0.0285414 -0.3672849
000170 4e aa d5 bd ae 54 96 3e 36 50 11 3e c9 84 88 3d
       -0.10432874 0.2936148 0.14190754 0.06665952
000180 7a 5b 77 be 37 fb 66 bc d1 78 1f 3d 0b 7c 01 3e
       -0.2415599 -0.01409798 0.03893358 0.12644975
000190 09 ba 0a bd b3 04 ea bd b9 21 9e 3d 5e 44 b6 bd
       -0.033868823 -0.114266776 0.07721276 -0.08899759
0001a0 9e 8c 15 3d 07 1f fc 3c bb fd 95 be fe 70 0e be
       0.036511056 0.030776514 -0.29295143 -0.1391029
0001b0 a4 de 3f 3e fe 5b 42 3e dd 01 9f bd 42 1e ca be
       0.18737274 0.18980405 -0.07764027 -0.3947621
0001c0 a4 49 5d be 4a c9 3d 3e 33 da a2 3e b9 f1 bc bc
       -0.21610123 0.18533817 0.31807098 -0.023064481
0001d0 58 e8 92 be 75 9d d7 bd 68 87 af 3d a2 f2 80 3e
       -0.2869289 -0.105280794 0.085707486 0.25185114
0001e0 d7 bb e9 bd a1 91 ac bd e8 c1 47 be 5f 49 aa 3c
       -0.11412781 -0.08426214 -0.19507563 0.02078694
0001f0 ac b2 11 3e b5 1f 0c be d1 57 75 3d 9d 92 94 bd
       0.14228314 -0.1368397 0.0598982 -0.07254527
000200 eb e2 08 3e 3e 3d 15 3e 6e 43 cd bd a8 d4 c7 bd
       0.13367812 0.14574143 -0.10022627 -0.09757358
000210 4d f4 04 be 6c 19 0e 3e dd 07 8c 3e 4b 78 13 be
       -0.12983818 0.13876885 0.2734975 -0.14401357
000220 c6 df 47 be 28 6e ad bd ad 75 78 3e 21 6c ae 3e
       -0.19518957 -0.08468276 0.2426364 0.3406687
000230 fd ab d0 bc 7e 29 77 be ac 29 83 bd b0 86 2b 3e
       -0.025472635 -0.24136922 -0.06404433 0.16750598
000240 30 c0 aa 3e bc ab cf 3d 65 36 07 be 20 54 f2 bb
       0.33349752 0.101401776 -0.13204344 -0.0073952824
000250 6d 47 1a 3e f9 da 86 3e fb 99 bf 3d 8c 7d 0d 3d
       0.1506631 0.26338938 0.09355541 0.03454356
000260 1f 6f f4 3d a5 91 6b 3d 38 28 55 3e c9 3e 93 3e
       0.11935257 0.057511944 0.20816123 0.2875884
000270 86 15 a8 3e ff d7 fc 3e 1e 67 c4 3e 6a c5 3a 3e
       0.3282892 0.49383542 0.38359922 0.1823937
000280 1e c5 fd 3c cd 86 da 3e a2 7c 17 3f 45 7e 05 3f
       0.030977782 0.4268097 0.5917455 0.52145797
000290 cf 0e 91 3d 0a fd 97 be b5 af 9d be 3a 2c fa be
       0.07082903 -0.2968524 -0.30798116 -0.48861867
0002a0 95 ee ca be 09 27 8a be 3c 30 b2 be 27 8a a6 be
       -0.3963515 -0.26982906 -0.34802425 -0.32527277
0002b0 9b 80 d9 be c5 4c a8 be e7 34 6f be 0e bc 89 bd
       -0.4248093 -0.3287107 -0.23360024 -0.06725322
0002c0 42 0d 34 be 7f a5 55 be 66 bd a6 be 0f fd 5e bd
       -0.17583182 -0.20863913 -0.32566375 -0.054440554
0002d0 2a 97 ca 3d a8 b4 28 3e d2 24 34 3e 23 7f c3 bd
       0.098921135 0.16475165 0.17592171 -0.09545734
0002e0 dd b2 90 bd 3e 9c ab bd 2f 9b 96 3e 0d 62 a1 3e
       -0.070653655 -0.0837941 0.2941527 0.3152012
0002f0 2a 9d d5 3e cc 15 3a 3e f4 68 61 be 13 9e 41 be
       0.4172147 0.18172377 -0.22012693 -0.18907957
000300 fd 5e fd be 52 29 b1 be 2f 3d 96 be 99 c2 62 bd
       -0.49486533 -0.34601837 -0.29343554 -0.055361364
000310 a2 24 69 be ad 41 94 be 10 6e a8 bd 8e 2a f3 3d
       -0.2276788 -0.28956357 -0.08224118 0.11873351
000320 8e bf 02 bc c0 76 98 be d9 bb b4 be de 3a 9e be
       -0.0079802405 -0.297781 -0.35299566 -0.30904287
000330 dd 0f cd bd 31 34 a6 3d 8b 0c 98 bc c0 c0 37 bd
       -0.10012791 0.081154235 -0.018560668 -0.044861555
000340 cd 01 07 bd 62 42 fc bc f0 77 a9 3c 2f 07 e9 3e
       -0.0329607 -0.030793373 0.020687073 0.45513293
000350 23 f1 f8 3e 16 5b f9 3e c9 30 f3 3d ff 07 14 bd
       0.48621473 0.48702306 0.118745394 -0.03614044
000360 7f de 90 bc 03 63 4d be 80 d3 ef bd 13 52 c5 3c
       -0.01768422 -0.20057301 -0.11710262 0.024086988
000370 c7 57 4b 3e 57 dc 91 3d 4a 89 e5 3d df 5b e0 3d
       0.19857703 0.071221046 0.112078264 0.10955023
000380 34 b3 67 3e 45 a3 8d 3e 57 23 5b 3e 28 f2 a6 3e
       0.22626954 0.27663627 0.214002 0.32606626
000390 ce 7a 2a 3e ea a9 a8 3e bb 42 47 3e 75 cf c0 3e
       0.16648409 0.32942134 0.1945905 0.37658277
0003a0 1a 05 b9 bd 5b 3b 9a bd 8b e4 86 3d ca 98 92 3e
       -0.09034176 -0.075308524 0.0658656 0.28632194
0003b0 2f 0e 5f 3e 11 dc 7f be ff de 2a be 2a 07 1c 3e
       0.21782754 -0.24986292 -0.16686629 0.15237108
0003c0 0b 96 e2 3d 42 06 9d bd ba 71 8e be 16 e1 80 be
       0.11063775 -0.07667209 -0.2782114 -0.25171727
0003d0 1b 1d 2d bd 23 35 0a bc 45 c8 4d be cc 3e 64 be
       -0.042264085 -0.00843552 -0.20095928 -0.2228958
0003e0 f0 f2 5c be a8 4f db bd 8c 32 ea bd c8 53 e7 bd
       -0.21577048 -0.107085526 -0.11435422 -0.11295277
0003f0 22 2f e6 be fc 98 f2 be 7b 7b d8 be a8 38 6d 3e
       -0.44957834 -0.47382343 -0.42281708 0.23166144

conv1.bias f4 [6]
000000 91 50 08 3f 5c d2 30 be 30 f0 f0 be 8a 20 3d be
       0.53247935 -0.17267746 -0.4705825 -0.18469444
000010 87 54 85 be 65 34 9e bc
       -0.26041052 -0.019312093

conv2.weight f4 [16, 6, 5, 5]
000000 3f c9 16 3d 2e 0d 1c bd 71 51 a2 3c 16 24 57 bc
       0.036813017 -0.038098507 0.019814225 -0.013131162
000010 47 f9 74 bc a8 cc ba bd 2c af 0c 3d 05 7b 17 3d
       -0.0149520105 -0.09121066 0.034346744 0.036982555
000020 ae 03 ab bc 34 fd 7b 3d 6b a3 ba 3c 51 ea d1 3d
       -0.020875778 0.06152077 0.022783002 0.102497704
000030 52 f8 9a 3b 2c 13 65 3c c5 15 1f bd c9 66 5e 3d
       0.004729309 0.013981622 -0.03883912 0.054297242
000040 b2 ec ca bc 5c 7b c9 3c 82 b9 9a 3d df ea 68 3c
       -0.024771068 0.024594955 0.07554914 0.014216154
000050 9f 28 2e bd 36 f9 4e bd 5a 72 89 bd 04 34 98 bd
       -0.042519208 -0.050530635 -0.06711264 -0.07431796
000060 e3 90 48 bd 61 91 15 3e 51 c2 b0 bd 79 90 f1 bd
       -0.0489663 0.14606239 -0.08630813 -0.11795134
000070 03 b0 05 be 3a fd 03 3e 91 26 02 3e 76 64 52 bd
       -0.13055424 0.12889567 0.12710024 -0.05136534
000080 d8 cc aa bd b4 44 02 be 18 80 f8 bd 31 4c 7d bb
       -0.08339852 -0.1272152 -0.12133807 -0.003865015
000090 dc 36 dc bd 44 35 27 bd 0d 13 80 bd ef 42 54 bc
       -0.10752651 -0.040822282 -0.06253634 -0.012955411
0000a0 71 f9 72 bc 2a ae be bc e5 f4 d1 bd 11 a9 17 bd
       -0.014829979 -0.023276407 -0.10251788 -0.03702647
0000b0 95 bf c5 bc 0b b1 40 bd bf 2f 27 3b 84 23 be 3d
       -0.024139205 -0.04704384 0.0025510637 0.09284118
0000c0 ba ba 6a 3c 1b c7 84 3d 2a 3f 58 3c 5d 29 65 3d
       0.014326746 0.06483289 0.013198653 0.05594765
0000d0 07 dd d0 3d c8 1f db 3c 60 47 00 3e 3b f9 70 3d
       0.101984076 0.026748553 0.12527227 0.058831435
0000e0 21 e1 0a 3e c6 72 d7 3d b8 8b 8c 3d ec 6f 0f 3d
       0.13562442 0.10519938 0.06862587 0.035018846
0000f0 cc 98 8d 3d a9 8c 4c bc aa 3a 81 bd 71 65 92 bd
       0.06913909 -0.012484708 -0.063100174 -0.07148255
000100 a3 46 c7 3c 0f 71 b6 3a c8 b5 2b 3c 44 8e c0 bc
       0.024325674 0.0013919192 0.010480352 -0.023505338
000110 9d 91 4a bb 66 6d 52 bc 0b 73 80 3d d8 74 3e bd
       -0.0030909546 -0.012843465 0.06271943 -0.04649815
000120 d7 0e 0b 3d 9a 1b 6a 3d 80 ab 53 3c 49 68 43 3d
       0.0339497 0.05715523 0.012919307 0.047706876
000130 b9 29 66 3d 15 26 a4 3d d7 62 5f 3d 59 12 75 3d
       0.056192134 0.08015076 0.05453762 0.05983195
000140 23 17 0d be e9 68 39 be 2e c7 1d be c3 37 eb bd
       -0.13778357 -0.18106426 -0.15408012 -0.11485245
000150 96 8c 35 bd 85 da 28 be a4 ae 20 be 9a a2 60 be
       -0.044323526 -0.16489609 -0.1569162 -0.21937028
000160 bc ea 0c be 22 06 34 bd 38 32 53 bb 28 44 2f 3d
       -0.13761419 -0.04395116 -0.0032225978 0.04278961
000170 6a bc 1a 3d d5 20 f7 bc 42 64 b7 3c 90 6f 51 3e
       0.037777342 -0.030167023 0.022386674 0.20452714
000180 78 8b a9 3d 08 b0 35 3e 4b 70 72 3d 3b 6a b5 3d
       0.08278555 0.17742932 0.059189122 0.088581525
000190 ce c4 99 3e 64 2a 62 3e 75 57 90 3e fe 4b 8a 3e
       0.30032963 0.22086483 0.28191724 0.27011102
0001a0 02 2c f3 3d 71 de 73 3e e1 a1 51 3e 3d 05 52 3e
       0.11873628 0.23815323 0.20471908 0.20509811
0001b0 a9 30 44 3e 7f 1d 15 3e fc a3 fe bc 4d 5c 27 be
       0.19159187 0.14562033 -0.031084053 -0.16343804
0001c0 38 11 12 be 42 5b 80 bd 77 b2 dd bd 93 b7 71 be
       -0.14264381 -0.06267406 -0.10825055 -0.23605184
0001d0 e2 f8 d0 bd dd 71 0f be a8 08 2c be d2 ed 3b be
       -0.10203721 -0.14008279 -0.16800177 -0.1835244
0001e0 ff 9b 6b bd 68 b0 bd 3c fc 66 9b 3a 5e b2 c4 3c
       -0.057521816 0.023155406 0.0011856253 0.024010833
0001f0 aa 09 20 be 25 7d 5c 3e 00 a3 04 3e 15 ae ae 3c
       -0.15628687 0.21532114 0.12952805 0.021323243
000200 6d e3 e3 3d ad a6 9f 3d fc 68 77 bc c9 58 f7 bc
       0.111273624 0.07795463 -0.015100714 -0.030193703
000210 20 71 36 be ee ee e5 bd 21 9b c4 bd d1 44 60 bc
       -0.17816591 -0.11227213 -0.09599901 -0.013688282
000220 51 d3 87 bd d6 0d 65 be 54 75 2b be b9 6b e5 bd
       -0.06632102 -0.22368559 -0.16743976 -0.11202187
000230 d6 a7 37 3d 74 c4 28 bd c9 1d 14 be bc d2 e9 bd
       0.044837795 -0.041202977 -0.14464487 -0.114171475
000240 3e bd 39 bd cb 19 a1 bc 13 18 99 3c ce 79 31 3d
       -0.04534649 -0.01966562 0.018688237 0.043329053
000250 4c 8c 92 3d 6d 95 12 b9 15 d1 5a be b1 6a 0c 3d
       0.07155666 -0.0001397931 -0.21368821 0.034281436
000260 c3 b9 e8 bb a8 9f ea 3d e2 a5 b4 3d ea 46 60 be
       -0.0071022226 0.11456233 0.08820702 -0.21902052
000270 2c 43 eb bd 5b 63 a2 bd 58 56 9f 3d 01 08 82 3d
       -0.114874214 -0.07929107 0.07780141 0.06349183
000280 f7 fd 10 be 09 b4 8b bd 11 ea 16 be 96 c9 1a 3d
       -0.1415938 -0.06821448 -0.14737727 0.037789904
000290 79 e8 2e bc 0c 54 11 be 40 85 e0 bd c8 97 fd bd
       -0.010675543 -0.14192218 -0.109629154 -0.123824656
0002a0 0f 4e 64 bd 07 02 0c bd f2 4f 2a be 90 49 60 bd
       -0.055738505 -0.03418162 -0.16632059 -0.054757655
0002b0 3c 4b 07 bd 3c c3 e7 3c b9 5a 26 bd 9d de 22 3d
       -0.033030733 0.028291337 -0.040613864 0.03976308
0002c0 05 fb 82 bd a9 07 22 bd 0c a3 2e bc c8 b5 f1 3a
       -0.063955344 -0.039558087 -0.010658991 0.0018441016
0002d0 6e a2 ac bc da ba 15 3e 9d fe 09 bd 6e 03 a2 bc
       -0.021073546 0.1462206 -0.033690084 -0.019777026
0002e0 e0 a5 46 3d ed fe 81 3d 1d 09 c8 3c c4 b6 b4 bd
       0.048498034 0.06347451 0.024418408 -0.08823922
0002f0 63 1a 15 3e 5a 19 cd 3b 11 c8 2b 3e 25 c2 bb bd
       0.14560847 0.0062591257 0.16775538 -0.091678895
000300 4a 9f 9f 3c 89 f3 e5 bb 49 d2 20 3c 8f 61 c5 bd
       0.019485135 -0.007017557 0.009815761 -0.096377485
000310 ed 9e 0a be 03 ae df 3c fa 90 26 be 39 ab 4a 3d
       -0.13537188 0.027304655 -0.16266242 0.049479697
000320 50 bb 9b bd 99 44 00 3d 73 a6 44 bd 1a aa 71 3d
       -0.076040864 0.03131542 -0.0480103 0.059000112
000330 7e d6 d1 3d 48 39 c0 bd fe 68 97 bc d6 c2 b0 3d
       0.10245989 -0.093859255 -0.018482681 0.08630912
000340 73 5c 8b bc 5e e6 a3 3c 68 16 56 bd 35 45 cf bc
       -0.017011857 0.020007309 -0.052267462 -0.025301555
000350 9c 40 25 3e 17 7c ac 3d 4c 8c 04 be 36 b3 e3 bd
       0.16137928 0.08422106 -0.12944144 -0.11118166
000360 59 8a a6 3d 85 e1 d1 3d da 7a 82 bd 73 22 e7 bd
       0.081318565 0.102480926 -0.06371088 -0.112858675
000370 13 e5 96 bd 5c b6 81 bd 66 38 f4 bb 1a 2d 5c bd
       -0.07367911 -0.063336104 -0.0074530123 -0.05375395
000380 2f 35 3c be f5 9c 26 3e ce 21 a0 3e ec e0 c0 3d
       -0.18379663 0.16270812 0.3127579 0.094179004
000390 30 05 01 3e d4 d6 c1 3e c4 04 9b 3e a7 27 69 3d
       0.12599635 0.37859213 0.30277073 0.05692258
0003a0 7b f2 b5 3c 13 ab 51 3e ea e9 1b 3e 71 4c 91 3e
       0.02221035 0.20475416 0.1522595 0.28378633
0003b0 0d 07 20 be bf f3 0a 3d a2 e9 0b 3e 61 68 5e 3d
       -0.1562769 0.03392386 0.13663343 0.054298762
0003c0 8f d9 ac 3d cc b9 d8 bc 19 e4 69 3e 68 69 22 bd
       0.084399335 -0.026455782 0.22840919 -0.039651304
0003d0 88 c9 f9 3d ac d8 18 be ef ef b0 3d 17 d4 d8 bc
       0.12196642 -0.14926404 0.08639514 -0.02646832
0003e0 90 57 67 be 6e 34 4a 3c a3 6b c5 bc ad fb bf bc
       -0.22591996 0.012341602 -0.024099177 -0.023435438
0003f0 27 b1 d5 bc 71 8b f4 bd 0e 7e a2 3d 43 f9 ea bb
       -0.02608545 -0.11940659 0.07934199 -0.0071708276

conv2.bias f4 [16]
000000 c5 cf 92 be fa 69 61 be c1 ca 90 3f e9 3a 9b 3e
       -0.2867414 -0.22013083 1.1311876 0.30318382
000010 4a f3 9e be 47 7c 3c 3e 0d 8c 09 3c 48 03 d0 be
       -0.3104499 0.18406783 0.008395207 -0.40627503
000020 94 b4 8c 3e cc 17 aa be cf 40 d2 be 52 f2 a2 be
       0.2748152 -0.3322128 -0.4106507 -0.318255
000030 0f 61 b3 bd 88 0a 7d 3e 51 30 2d bd f3 09 2c be
       -0.08758747 0.24711049 -0.042282406 -0.1680067

fc1.weight f4 [120, 400]
000000 1c 52 fd 3b 06 de ef 3c 27 9c a2 bc 85 83 62 bd
       0.0077307355 0.029280674 -0.01984985 -0.055301208
000010 d3 c3 d4 bc 55 b5 09 3c c5 02 af 3b 3c 96 29 bc
       -0.025972283 0.008405049 0.0053409063 -0.01035076
000020 2d fa 80 3c bc 12 a2 bc 9f db 2b 3c b5 a7 c3 3c
       0.015744293 -0.019784324 0.0104893735 0.02388368
000030 d4 9b 57 37 24 1b 05 bc 85 24 84 3b b7 f3 5f bc
       1.285128e-05 -0.008124147 0.004032674 -0.013668946
000040 db 63 d0 3c ba 68 2b bd 8c 9b 98 3c 64 01 77 bd
       0.02543824 -0.041847922 0.018628858 -0.06030406
000050 9b 3e a8 3c cc b3 50 bc fd 73 94 bd b4 73 eb bc
       0.020537665 -0.012738179 -0.072486855 -0.028741695
000060 d9 5f c7 3c 88 2f 26 3d 74 5e 99 ba da 74 4a bd
       0.024337696 0.040572673 -0.0011701123 -0.049427845
000070 bf 1e 48 bd 3a 29 0c bd c5 df 33 bd 1d 90 07 bd
       -0.048857447 -0.034219004 -0.043914575 -0.03309642
000080 38 fc da b9 58 e8 29 bd bf 91 a0 bc 40 89 a8 3d
       -0.00041768118 -0.041481346 -0.019600747 0.08229303
000090 68 fe fb 3c cd 52 fa bc 89 98 5e bd 1b 60 d3 bc
       0.030760959 -0.03055706 -0.054344688 -0.025802663
0000a0 29 62 06 3c 57 d3 33 3d 64 e1 4e 3d 14 6f d0 3c
       0.008202114 0.04390272 0.050507918 0.025443591
0000b0 b7 d6 1b 3d 70 4d 01 bd 21 64 2a 3d 2d 03 97 3d
       0.038046565 -0.03156799 0.041599397 0.073736526
0000c0 27 b1 87 3d 25 13 18 3c b5 fd 90 3d 6f 9f 3d bd
       0.06625586 0.009281908 0.07079641 -0.046294626
0000d0 a5 9f 2d ba 36 da 39 3c 96 10 b5 bc 2b 17 5b bd
       -0.0006623215 0.011343529 -0.022102635 -0.05348889
0000e0 db 5b 8f bd f5 74 89 bc a1 ef 81 bd 4b 79 a9 bc
       -0.06999942 -0.016779402 -0.06344534 -0.02068772
0000f0 fd 25 39 bd dd ff a0 bc d5 ad 77 bd 98 dc a2 bd
       -0.045202244 -0.019653255 -0.060468514 -0.07952231
000100 1d bf c5 bc 4e ae 50 bd 54 4c 2c ba d1 1f 3a 3c
       -0.024138981 -0.05094748 -0.0006572653 0.011360125
000110 99 98 5d 3c 3c 0b 6f bc 1b e9 1d 3d 7f bb 86 b8
       0.013525152 -0.014590081 0.038552385 -6.424542e-05
000120 07 40 62 3d c0 dc 5b 3d f2 c3 88 3d a8 c7 8f bd
       0.055236842 0.05367732 0.066779986 -0.07020503
000130 ac 9f 76 39 43 6f e0 3c f1 7c 27 3d 35 8d 02 bd
       0.0002351987 0.027396804 0.040890638 -0.031872947
000140 40 d6 80 bd ec 39 a5 3d c0 d2 58 3d 6c 8e d1 3d
       -0.06290865 0.08067688 0.05293536 0.10232243
000150 55 2f 97 bc 2d 01 51 bb aa 1f 6a bc 91 2c 3e 3d
       -0.018455187 -0.003189157 -0.014289776 0.04642922
000160 a4 64 6a 3d 48 15 97 bc 7b d4 8e bc 32 2d 88 bd
       0.057224885 -0.018442765 -0.017435303 -0.06649245
000170 ca de f9 3c 33 ad 16 bb b7 fd 2c bd ee 9c e8 3c
       0.030501742 -0.0022991418 -0.04223415 0.028395142
000180 b0 6e 18 bd bc 44 20 bd 06 44 aa ba 89 16 05 bd
       -0.037214935 -0.03912805 -0.0012990243 -0.032492194
000190 47 c8 b5 bc ff 3e 21 bd 0c eb b5 b9 dc 3c 15 3c
       -0.022190226 -0.03936672 -0.00034698134 0.009108748
0001a0 90 6f 0b bd b0 f0 00 3c c4 ce 27 3c d0 ed 21 3d
       -0.03404194 0.007869884 0.010242168 0.039533436
0001b0 51 ed f5 bc 87 d4 c9 3b f6 2d 3d 3c 1f 2d 40 bb
       -0.030020388 0.0061593684 0.0115466025 -0.002932377
0001c0 21 8d 9f bd 52 35 a9 bc ce e3 d6 3c ac fd b7 3c
       -0.0779059 -0.020655308 0.026231673 0.022459827
0001d0 11 4c 3b 3d ea 1e 59 bc 53 25 c2 3c f5 50 75 3d
       0.04572684 -0.013251999 0.023699438 0.05989166
0001e0 65 d7 dd bc 92 7a 0b 3b a8 44 1c bd 23 7b 63 bd
       -0.027080247 0.0021282774 -0.038151413 -0.055537354
0001f0 2c 1f 99 3c 53 92 90 3c 5c b4 92 bc 85 03 7d bc
       0.018691622 0.017647898 -0.017908268 -0.015442734
000200 39 7f e0 3b ce 57 90 3d 9d 63 8b bd b8 b4 b4 bc
       0.0068511036 0.070479974 -0.06806109 -0.02205883
000210 78 c5 75 bd 3e 6f e6 3c 81 58 7b 3c 6d 86 52 bd
       -0.060002774 0.028129216 0.015340925 -0.05139773
000220 22 b3 53 bc b4 cb 91 bc 9f da 9e bb 4f 9b 49 bd
       -0.012921127 -0.017797329 -0.004847839 -0.04922038
000230 dd 40 b3 3c 2e df 53 3c 72 4f 71 3d 11 1c 34 3d
       0.021881515 0.012931628 0.058913656 0.04397208
000240 0d 12 81 bc 8b bf 13 bd ee f5 0a bc df b5 90 3c
       -0.015755678 -0.03607134 -0.008481486 0.017664848
000250 e2 ce 23 3b 03 4c 07 3d 88 a5 7e 3d f2 99 46 3d
       0.0024995138 0.033031475 0.06216958 0.048486657
000260 1a e9 cf bc 20 c0 0b 3d 94 a3 19 bd c8 65 d8 bc
       -0.025379706 0.03411877 -0.037509516 -0.02641572
000270 08 60 18 3d cb 45 1f bd 8b cc b3 bc b4 18 ca bc
       0.037200958 -0.03888492 -0.02194812 -0.024669982
000280 16 85 08 bd 75 53 47 3b 3c 09 1d bc 61 3d 8c bc
       -0.033330046 0.0030414735 -0.009584721 -0.017119111
000290 a8 0f 3b 3c 02 24 32 bd f8 e0 70 bd 82 55 97 3d
       0.011417307 -0.04349137 -0.058808297 0.07389356
0002a0 f4 1c 74 3c a8 b0 ac bc cd 59 50 bd 1a ba ef bb
       0.014899481 -0.02108033 -0.05086689 -0.007315886
0002b0 4f 47 1a 3d ae bc 19 bb 10 3a 58 bd a3 22 63 bb
       0.03766566 -0.002345841 -0.052789748 -0.0034658096
0002c0 61 92 d6 bc 0f 4e 3f bd 4c 3f 89 3b a0 cd 10 3d
       -0.026192846 -0.0467053 0.004188454 0.03535235
0002d0 72 87 79 3d 20 0b 6c 3d 4a 05 12 ba 23 c5 1e bb
       0.060920186 0.057627797 -0.0005570246 -0.002422639
0002e0 98 23 30 3d 3d f9 1f bd 73 09 1a 3d 17 f3 62 3d
       0.043002695 -0.03905605 0.037606668 0.05540761
0002f0 1d 25 0e bc 14 76 29 3d 7a 11 b2 bc b8 94 ee 3c
       -0.008675841 0.041372374 -0.02173685 0.029123649
000300 ab e3 32 b8 c6 68 67 3c 51 6f 14 3d 1f ed b0 3c
       -4.265054e-05 0.014124101 0.036238972 0.021597443
000310 1c 85 97 bd 21 94 cb bb 8e a8 89 3c 63 be 4f bc
       -0.073984355 -0.0062127267 0.016804006 -0.012679669
000320 07 b9 99 bc ea 6c ad bc 5a c5 df bc a3 fd a8 bb
       -0.018764986 -0.021170098 -0.027315784 -0.005157189
000330 d0 2b 80 bd c1 9d 57 bb d4 f2 9d bc ad 47 ae ba
       -0.062583566 -0.0032900425 -0.019280829 -0.0013296508
000340 a6 b2 88 3d 67 4e 19 bd 73 87 25 3d 7d 5e b2 3d
       0.066746995 -0.037428286 0.040412378 0.087094285
000350 84 f9 c0 3c 66 1f 22 ba df b1 ea ba 7b a8 0e bd
       0.023556478 -0.00061844883 -0.0017905793 -0.034828644
000360 75 58 23 bc a4 ed cf 3c ec 9b ed bb 49 3e e9 bc
       -0.00996982 0.02538187 -0.0072512534 -0.028472083
000370 d2 68 55 bd 6f 8d ef bc e0 63 c5 bc 59 45 1e bb
       -0.052101918 -0.029242245 -0.024095476 -0.002415022
000380 fe d0 ae bd 9e 58 f0 3c 14 49 f9 3b 6f 1d b9 3a
       -0.08535956 0.029339131 0.0076075885 0.0014123152
000390 f1 da 2a 3c 9a 90 ab bc 31 61 af 3b 9b bc 48 3b
       0.010428176 -0.020942975 0.0053521623 0.0030629996
0003a0 14 76 11 ba bd 41 58 bc 43 60 f8 bc 7b a3 9a 3c
       -0.0005548906 -0.013199267 -0.030319339 0.018876782
0003b0 e6 bf 5d 3d 65 2c bf bc dc 3f 41 bd 06 59 e3 bc
       0.054138087 -0.023336599 -0.04718004 -0.02775241
0003c0 ec 21 90 3c fe 07 3c 3d 8e 3f c6 bb 46 2d 45 3c
       0.0175943 0.04590606 -0.006050057 0.01203472
0003d0 44 5f bd bc de 6e b1 bc e6 81 58 3d 5d c5 9a bb
       -0.023116715 -0.02165931 0.052858256 -0.0047232346
0003e0 09 bd 1b bc 7c a8 eb 3c 14 b3 20 3d e4 a7 35 bc
       -0.009505519 0.028766863 0.039233282 -0.0110873915
0003f0 22 90 7e bd 99 73 3e bd 7c a1 85 bd 15 c6 ff 3b
       -0.062149175 -0.04649696 -0.06524941 0.0078055956

fc1.bias f4 [120]
000000 fa 57 30 bd 54 21 15 3c f4 48 7b 3c 5c d8 8d bc
       -0.04305265 0.009102184 0.015337218 -0.017315082
000010 f1 16 be 3c d6 dc 60 3e 0f ab b8 3c 53 b1 cd 3d
       0.023204299 0.21959242 0.022542505 0.100435875
000020 b0 e5 c7 3d 6f 0d 1c bd 33 bc ca 3d c9 f2 db 3c
       0.09760606 -0.03809875 0.098991774 0.026849167
000030 74 78 a5 bc ef 58 16 3e ca d1 12 3d 95 ce 18 3c
       -0.020199038 0.14682363 0.0358446 0.009326597
000040 0e 07 4c bc 2a 52 b3 bb 3c b0 2f bd 11 56 64 3d
       -0.012452854 -0.005472441 -0.04289268 0.05574614
000050 01 2d c1 3c 33 d3 a5 3d fc a9 a7 3c 97 3c c0 3b
       0.02358103 0.08096924 0.020466797 0.005866598
000060 0b ce 06 3c b0 0b 92 3d a8 5a d1 3d d1 17 ee 3c
       0.008227835 0.071311355 0.102223694 0.02906409
000070 3e ba ee 3d 2c 6a b6 3d f4 90 7f bc 4b 25 47 3c
       0.11656617 0.089069694 -0.015598524 0.012154887
000080 d3 38 10 3c d1 6b 28 bd 8b 0a 0a 3d e3 56 0a bd
       0.00880261 -0.041118447 0.03370146 -0.033774268
000090 bc 41 00 3e 5d ae 09 bc 46 75 fa 3c e1 b0 e8 3c
       0.12525076 -0.008403388 0.030573498 0.028404655
0000a0 fb 41 0d 3b 8e d1 9e 3d 5a 45 52 bc 0e 5e 56 3c
       0.002155422 0.07754813 -0.0128339175 0.013083948
0000b0 12 c5 5e 3c 25 72 8e bc ce 11 1b bd d7 9d a5 3d
       0.01359679 -0.017388413 -0.037858777 0.08086746
0000c0 56 ab a5 b7 d4 4e 3c 3c aa a1 1a bd 33 19 03 bd
       -1.9749317e-05 0.011493403 -0.03775183 -0.032006454
0000d0 79 83 48 3c eb a0 bc bc 07 fc 15 bd bc 06 95 3d
       0.012238377 -0.02302595 -0.036617305 0.07276675
0000e0 d3 5f ce bc c4 38 47 3e 88 d9 d0 3d 44 14 a8 3d
       -0.025192177 0.19455248 0.10197741 0.0820699
0000f0 23 4c 91 3d e4 5e d9 bd 52 47 12 bd 9a 8f bc 3c
       0.070946 -0.10613802 -0.035712548 0.023017693
000100 bc d7 1d bc 03 44 54 bd 4e 16 fc bc 33 f4 2a 3d
       -0.009633955 -0.051822674 -0.030772354 0.041736793
000110 8b 6c 17 3d ff 74 30 3c f7 86 84 3c a0 58 5a bd
       0.03696875 0.010770082 0.016177638 -0.053307176
000120 60 75 87 3d 9d 13 2e 3e dc a7 99 3d ce e1 45 bd
       0.066141844 0.1699967 0.0750272 -0.048311047
000130 1e c9 e3 39 dc b7 07 3e 21 0a 7f 3e 50 20 77 3d
       0.00043446658 0.1325373 0.24906208 0.06033355
000140 20 b4 9a 3d 8f e2 fd bd e6 42 7b bd 11 3b 0e 3e
       0.07553887 -0.12396728 -0.061343096 0.1388972
000150 da 05 1e be b3 7b af bc c5 cd 33 bc 75 2f 1d bd
       -0.1543192 -0.02142129 -0.010974352 -0.038375337
000160 71 9d 28 bd 8e d5 06 3d dd b1 28 3d 58 37 c2 bd
       -0.041165773 0.032918505 0.04118525 -0.09483212
000170 18 2b f7 3c 76 bd b6 3c ff 57 04 bd 45 b3 19 3e
       0.030171916 0.022307139 -0.032310482 0.15009792
000180 26 51 9e 3d b2 13 e8 3c 23 ca 9d 3d e1 9d b8 bd
       0.077303216 0.028329704 0.0770457 -0.09014488
000190 d8 b3 33 bd 88 82 b8 bd 44 99 47 bd ba 90 cf bc
       -0.043872684 -0.09009272 -0.04873015 -0.025337566
0001a0 8d 6b 8a bd d1 40 ba 3d 69 ee eb 3b f4 d3 d4 bd
       -0.06758795 0.09094394 0.0072000516 -0.10391989
0001b0 26 3a 6a bd 07 db 58 3e 02 5d bc 3d c6 e4 38 3d
       -0.05718436 0.21177302 0.09197427 0.04514005
0001c0 ed 98 62 3d e1 8e 38 bd d1 b9 15 be b0 0b f6 3d
       0.055321623 -0.045058135 -0.14621665 0.12013948
0001d0 2a 83 01 3d 90 10 4a 3d 87 39 c6 bd 72 1f 6a 3c
       0.03161923 0.0493322 -0.09678941 0.014289724

fc2.weight f4 [84, 120]
000000 8a be 9c bd 40 fd 18 3c df e4 79 bd b8 df 88 bd
       -0.0765353 0.009337723 -0.061009284 -0.06683296
000010 a9 33 b9 3b 80 2c b1 bc 13 92 4f bb 3f a8 88 bd
       0.0056519103 -0.021627665 -0.003167276 -0.066727154
000020 aa 0b ad bd f4 b0 24 bd 05 9a b4 bd 2a b3 4d 3c
       -0.0844949 -0.04020782 -0.088184394 0.012554923
000030 97 3c 4d 3a a4 6a 83 bd 6c ec 69 bd f8 b5 cc 3d
       0.0007829158 -0.064168245 -0.057110235 0.09995645
000040 b3 6e 33 3d 56 2d 39 3c 9c 33 68 3c 99 e6 55 3c
       0.043806743 0.011302313 0.014172461 0.013055467
000050 d0 a5 99 3d 61 b8 1e bd fc ab a3 3d c5 06 88 bd
       0.07502329 -0.038750056 0.07991788 -0.06641916
000060 ab 3f b2 3a f1 d4 10 3c d9 9d 14 3e b1 e5 ce bc
       0.0013599297 0.008839832 0.14513339 -0.02525601
000070 42 b1 e2 3c 32 0c 87 3d 9a 9e 99 bd 85 23 64 3d
       0.027672414 0.06594123 -0.07500954 0.055697937
000080 44 2a b0 3c b6 52 5d 3d 32 40 9f bd 00 17 e1 3a
       0.021504529 0.054033957 -0.07775916 0.0017172992
000090 63 82 e6 bd b8 30 83 3d 2a de 0c bd d9 d5 4f bd
       -0.11255338 0.06405777 -0.03439156 -0.05074105
0000a0 d8 ad fd bd cd 89 be bd 57 1d 7c 3d 71 84 06 3e
       -0.12386674 -0.09303627 0.06155142 0.1313646
0000b0 3d a9 60 bd 03 bc 59 bd 7d 9d de 3b 02 eb 28 bd
       -0.0548489 -0.053157818 0.0067936764 -0.041239746
0000c0 41 46 51 bd 1c 47 98 3c 35 95 2e bd 6a e2 4c bd
       -0.05109239 0.018588595 -0.042622764 -0.050020613
0000d0 de 44 d6 bd 90 fa 82 bc b9 18 27 3c c4 e5 c4 bc
       -0.10462354 -0.015988618 0.010198765 -0.024035342
0000e0 9b 65 a3 bd 17 41 d8 bb e8 d6 bd bd f8 3d 00 3d
       -0.07978364 -0.006599556 -0.09269506 0.031309098
0000f0 0f 2b 8a 3d dd 32 62 3c 51 28 f6 3d d1 a4 5a 3d
       0.06746494 0.013806072 0.120194085 0.053379837
000100 84 e3 1f 3d e9 42 31 bb 13 26 af bd 75 34 ff bc
       0.039035335 -0.0027047938 -0.08552184 -0.031152943
000110 13 57 e6 bd 0e f5 90 bd 10 c7 b3 bd 66 24 44 3d
       -0.11247077 -0.070779905 -0.087782025 0.047886275
000120 31 35 64 bd ee 8d 16 bd 6c 69 94 3d b1 7a 00 be
       -0.05571479 -0.03675645 0.0724667 -0.12546803
000130 f2 9a 00 bd e9 b9 c9 bd ad 98 58 bd 46 d3 72 bd
       -0.031397767 -0.09849913 -0.052879978 -0.059283517
000140 52 7e 3b 3d 56 b4 f8 3b 16 02 8e 3d 66 ad b0 3c
       0.045774765 0.007589857 0.069339916 0.021567058
000150 ad 1f e8 3d c5 36 df 3c 13 9b bf 3d c3 ba d9 3d
       0.11334167 0.027247796 0.0935575 0.10631325
000160 2f 71 b2 bb 43 69 5f bc bf 3b 80 3c b2 a7 13 3d
       -0.0054456214 -0.013635936 0.01565349 0.0360486
000170 c2 36 91 3c 9f 81 dd bd b8 25 12 3e 19 4d e2 3c
       0.017726306 -0.10815739 0.14272201 0.027624654
000180 cb b5 7f bd bd 24 03 3d 3c 74 23 3c b8 72 38 3d
       -0.06242923 0.03201746 0.009976443 0.04503128
000190 28 90 c7 bd f1 e7 ae 3d 47 6e a9 bd d2 f6 b3 3c
       -0.097442925 0.08540333 -0.08272987 0.021968279
0001a0 7d 3b 3e 3c 7d 11 e5 bc 16 88 8b bc 2a 9e f3 3d
       0.011610863 -0.02796244 -0.017032664 0.11895402
0001b0 de 05 ac bc 1f 5a 1c bd 2a 0f 00 bb d7 a8 90 bd
       -0.020998891 -0.038171884 -0.0019540288 -0.07063454
0001c0 33 0a 02 3d f8 44 0e 3b 7f 4f d8 3d ca 7e 8b 3d
       0.031748008 0.002170859 0.10562038 0.068112925
0001d0 32 2d 84 bd 4d 91 dd 3d 79 6f 0a bd 64 38 04 3d
       -0.06453933 0.108187295 -0.033797715 0.03228034
0001e0 08 ab 33 bd 58 fb a1 bd af a6 dc bc 0e 29 47 3c
       -0.04386428 -0.07909268 -0.02693495 0.012155784
0001f0 51 c7 be 3d 48 c9 19 3e 27 77 91 3d cf d7 e8 3d
       0.0931536 0.15018189 0.07102805 0.11369287
000200 dc 90 88 3d 68 c6 73 bc 7e 87 85 bd a9 ea 29 bc
       0.06668255 -0.014878847 -0.06519984 -0.010370889
000210 b5 da 18 3d 85 9b 19 3e 6b 50 01 3d 30 00 0a 3c
       0.03731795 0.15000732 0.031570833 0.008422896
000220 cd 1e 8e 3d 2d 74 ac 3d 06 19 ae bc 40 73 fe 3d
       0.069394685 0.08420596 -0.021252166 0.12424326
000230 5e 30 e8 bd da 0e 6f bd fb 39 e8 bc 00 c1 24 be
       -0.1133735 -0.058363773 -0.02834796 -0.16089249
000240 ee 49 9a bd d1 22 a0 bc 68 1a ec bc 33 ec e3 bd
       -0.07533632 -0.019547852 -0.028821185 -0.11129036
000250 0b 96 fb bd 81 28 e1 bc 90 b7 34 3c 01 68 12 bd
       -0.12284478 -0.027485134 0.011030093 -0.035743717
000260 7f c2 0e bd f9 93 5e bd a1 53 69 bd a3 6e 2c bd
       -0.034853455 -0.054340336 -0.05696452 -0.0420977
000270 63 9c 38 3e 6a d1 b3 3d bd 66 9f bc 3f 4c 88 bd
       0.18028407 0.08780177 -0.01945817 -0.06655168
000280 c0 26 b2 3d 0d 28 62 3d 2a ab 2f 3e eb 1d bf b9
       0.08698797 0.055213977 0.17155138 -0.0003645265
000290 b7 c3 53 3c 2a 1e b8 bd 9c 85 b8 bd e4 fd 6b bd
       0.01292508 -0.08990128 -0.09009859 -0.057615176
0002a0 c4 b5 35 3d de 39 e5 3c a5 12 8f bd 7e a3 2f bd
       0.0443628 0.027981695 -0.06985978 -0.042880528
0002b0 15 c2 df bd b8 33 62 bd 0d 96 a7 bd 78 30 81 3d
       -0.1092569 -0.055225104 -0.08182917 0.06308073
0002c0 df c7 12 3d c4 32 f6 3c 35 94 00 3d f3 de 66 bd
       0.035835143 0.030053504 0.03139134 -0.056364965
0002d0 87 50 0d 3e e2 1d da bd f5 7d 05 3d b4 e4 a3 3c
       0.1380025 -0.10650231 0.032590825 0.020006515
0002e0 5d 03 bc 3d 9b f1 c4 bc 5e 24 65 bd 5b ce 41 3d
       0.09180329 -0.024040988 -0.055942886 0.047315937
0002f0 b8 d6 a1 3d b3 93 84 3d e3 76 ad 3d d0 b8 be 3d
       0.079022825 0.06473484 0.084699415 0.09312594
000300 69 18 4c be 56 13 5c 3d 29 ea 28 bd 28 25 83 bd
       -0.19931187 0.053729378 -0.041238938 -0.06403571
000310 63 57 3c bd ed 90 87 bd 14 b7 ed bd a9 a8 89 3d
       -0.045981776 -0.06619439 -0.11607185 0.067216225
000320 37 f3 b5 bd 1a b7 fd bc 32 b4 e6 3c f7 18 85 bd
       -0.0888428 -0.030971099 0.028162096 -0.06498902
000330 0e 73 a5 3d a7 74 ef 3d fd bc 0d 3c c3 f9 8b 3c
       0.080785856 0.116921715 0.008651015 0.01708687
000340 81 fd c5 3d 43 ec 09 3d c7 a3 30 3d da 14 0a 3d
       0.09667493 0.033672582 0.04312494 0.03371129
000350 bc 7e 66 3d 70 48 e1 3a 1b 36 c7 3d f1 38 eb 3c
       0.056273207 0.0017187726 0.09727117 0.028713675
000360 12 40 df 3c 86 a0 90 3d f4 67 96 bd 4b 43 42 bd
       0.02725223 0.070618674 -0.07344046 -0.047427457
000370 27 56 b2 bc 05 fe 62 bd ec a0 49 bd f8 81 3a 3c
       -0.021769596 -0.055418033 -0.049225733 0.011383526
000380 8a 3a 11 3b cc d5 b0 bd 1b 3a dc ba 52 6e 1e be
       0.0022160136 -0.086345285 -0.0016801985 -0.15471771
000390 94 c3 ad 3c 1d b8 96 bd 49 f9 50 3d ea 3c 19 bc
       0.021211423 -0.073593356 0.051018987 -0.009352902
0003a0 8d 20 39 3e b9 24 89 bd 29 0b 84 3d 87 4f d2 bc
       0.18078823 -0.066964574 0.06447441 -0.025672687
0003b0 8e 08 d5 bd 24 3c a2 bd 92 05 bf 3d 09 ea e7 3d
       -0.10402022 -0.07921627 0.09327234 0.113239355
0003c0 61 a6 95 bd 83 63 5f 3d 24 5e 3e 3d 93 ef a7 bc
       -0.07307125 0.05453826 0.0464765 -0.02049998
0003d0 b6 28 0a bd 39 28 d3 3a 69 72 28 bd 79 ac a3 3d
       -0.03373023 0.001611001 -0.041124735 0.07991881
0003e0 f6 1e 73 3d 39 af 20 3d ab 4e c1 bd 79 51 c1 3c
       0.0593557 0.039229605 -0.09438833 0.02359842
0003f0 94 db c1 3d 1e 5e 94 3d 1f 01 88 bc 02 60 a3 bd
       0.09465709 0.07244514 -0.016602097 -0.079772964

fc2.bias f4 [84]
000000 f1 d8 88 bd 83 df 6c 3e 7a 38 41 3b 7e 06 93 bd
       -0.06682003 0.23132138 0.0029483126 -0.07178973
000010 84 1b 42 3e 8f 8a ed 3d a5 da b5 3d ab d3 bd 3d
       0.18955809 0.115986936 0.08879594 0.09268888
000020 38 de 0b 3e a4 02 9f 3e 56 42 15 3e 4a 21 ab 3d
       0.13658988 0.31056702 0.14576086 0.08355959
000030 ef 7e a2 3c 48 c7 51 3d 57 cd 3b 39 74 58 98 3d
       0.019835917 0.05121544 0.00017910205 0.07438746
000040 bd d7 ac bd 0e 9e 25 bd a9 a7 fa 3c 93 72 a3 bd
       -0.08439586 -0.040433936 0.030597525 -0.07980838
000050 3c 93 7c bd 0f 8d cf bc b1 05 f7 3d 67 3c c0 3c
       -0.06166385 -0.025335817 0.120616324 0.023466302
000060 9a 59 eb 3e ea f5 38 bd c0 74 85 3d 91 0e a9 bc
       0.45966798 -0.045156397 0.06516409 -0.020636829
000070 df 08 fc 3d 67 0d 1f 3e aa d4 c7 3d e3 21 32 be
       0.123063795 0.15532456 0.09757359 -0.1739574
000080 6b 21 45 3e e4 23 d8 3a 8c 5c 5a bc 77 f4 3a 3e
       0.19251029 0.0016490188 -0.013327729 0.18257318
000090 6e 6b 12 3d 4d 98 b8 3d 30 8a 3b be fb fe f5 bc
       0.035746984 0.09013424 -0.18314433 -0.03002881
0000a0 a4 df ee bc 21 83 93 3e c9 4b ba bd fc 73 d2 3d
       -0.029159375 0.2881098 -0.09096486 0.102760285
0000b0 e5 df a1 bd 36 e3 f3 bd 1e 04 90 3e ae cf 8d 3d
       -0.079040326 -0.119085714 0.2812814 0.069243774
0000c0 e3 c0 ab 3e d0 71 e0 bc da bd 2d bd 99 ca 35 bc
       0.33545598 -0.02739802 -0.042417385 -0.011095666
0000d0 98 a1 03 3e 3c 8d 45 3e da 02 0f 3f 81 20 69 3e
       0.12854612 0.19292158 0.55863726 0.22766306
0000e0 f0 5f 98 3d c2 c1 24 bc f6 40 12 3e db 8c 7b 3c
       0.074401736 -0.010055961 0.14282593 0.015353407
0000f0 7d 4e ae bd 61 1d c2 3c 92 ea 59 bc ec e0 a6 b8
       -0.08511064 0.02369565 -0.013300555 -7.957392e-05
000100 f7 e9 02 3d 0d ff 98 3e 67 da c0 3d a6 8e 1c be
       0.031961408 0.29882088 0.09416657 -0.15288791
000110 f2 13 44 bd 53 e1 4b bd bf 2d ef 3b 40 c0 5b 3d
       -0.047870584 -0.049775433 0.0072991545 0.05365014
000120 f0 51 41 bd 57 cf 95 bd bb 82 04 3e e8 eb 3c bd
       -0.047197282 -0.073149376 0.12940495 -0.046123415
000130 82 1a 27 3e 8f b5 4b 3c 86 33 cc bb f0 37 1e 3d
       0.16318706 0.012433424 -0.006231728 0.038627565
000140 09 3a 68 3d 81 d8 40 3c fe 37 fd 3d ed 85 31 bd
       0.05669597 0.011770369 0.12364195 -0.043340612

fc3.weight f4 [10, 84]
000000 08 07 03 3d d5 db 19 3e cf b0 90 3d 1e 3a 93 bd
       0.031989127 0.15025266 0.070649736 -0.07188819
000010 41 35 25 be e6 f7 bd 3e 0f 99 e6 bd 95 d2 81 3e
       -0.16133596 0.37103194 -0.11259662 0.25355974
000020 05 01 d3 bd ad 2b 0c be 18 5a 6b 3e 3c f9 33 3e
       -0.10302929 -0.13688536 0.22983587 0.17575544
000030 90 40 08 3d 80 ec 1a 3d 02 35 b4 bd 66 2d db bb
       0.033264697 0.0378232 -0.08799173 -0.0066887615
000040 4e 4b 92 bd 74 67 e7 bd df 22 b8 bd 5c 1c 0a bd
       -0.071432695 -0.11299029 -0.08991026 -0.03371845
000050 71 df ac 3e 1e 53 b7 bd a6 2b 27 be 82 8d cb 3c
       0.33764222 -0.089514 -0.16325244 0.02484775
000060 23 c3 d4 bc 59 20 0d 3e 9f 05 cf 3c 74 3c f5 bd
       -0.025971955 0.13781871 0.025271235 -0.11974421
000070 45 37 db bc 34 fc 1a be 7b c5 be bd 1f 30 d3 bd
       -0.026759753 -0.1513527 -0.0931501 -0.10311913
000080 69 cb 03 3e 14 55 e0 3d 61 57 d1 3d c2 c5 d3 bd
       0.12870564 0.10953727 0.10221744 -0.10340454
000090 ed de b2 bb ad d6 d0 bc 6d f4 11 3e 4a c4 d9 bc
       -0.0054587037 -0.02549299 0.14253397 -0.026582856
0000a0 f4 0f 9e bc 4f c6 a5 3d ab a8 25 3e 0d 7e 0e bd
       -0.019294716 0.08094465 0.16177623 -0.03478818
0000b0 a0 f6 8d 3d 8a b8 09 3e 3d 3a 5c be 8d 5d cb 3d
       0.069318056 0.13449302 -0.21506591 0.09929953
0000c0 81 96 8a 3e b3 4e 86 3d 59 70 22 3d fd 4f bd bd
       0.2706795 0.065579794 0.039657924 -0.09243772
0000d0 f1 a7 55 3e 5f 84 d4 3d c2 af 38 be 43 b5 3c bd
       0.20864846 0.1037681 -0.18035796 -0.046071302
0000e0 df 0a 95 bc 30 9b 1b be a6 ff c4 3d aa 5e 94 3d
       -0.01819366 -0.15195918 0.096190736 0.07244618
0000f0 f1 8a d1 bd 50 77 41 3e 63 78 bf 3a 5c 59 52 3e
       -0.10231579 0.1889317 0.0014608022 0.205419
000100 47 1e 50 bd 7c c7 59 be 1a 14 9c 3d d6 8b e4 3d
       -0.050810125 -0.21267503 0.076210216 0.11159484
000110 0f 37 94 3c a9 1d 57 3d 32 05 99 3c 22 ad 06 bc
       0.01809266 0.05251852 0.018679235 -0.008219989
000120 f5 75 04 bd 30 be 54 3c 84 22 c0 3c fa 14 c3 bc
       -0.032339055 0.012984797 0.023453958 -0.023813713
000130 67 fb 1f be 55 f2 f6 3c 63 5f cb 3b 52 da 35 be
       -0.15623246 0.03014485 0.0062064393 -0.17759064
000140 cc da 8f bd 11 12 8f bc b2 92 23 3e 9f 07 68 3d
       -0.07024154 -0.01746467 0.15973929 0.056647893
000150 6c f8 30 bc 67 0f aa bd fe fd 3d bd 17 b3 7c bb
       -0.010801416 -0.08303719 -0.046384804 -0.0038558894
000160 eb 73 76 bc 8c 5a fe 3d 0c 50 60 3d 43 35 c4 bd
       -0.015042285 0.12419614 0.05476384 -0.09580471
000170 57 de 0f be 21 6f 07 be 56 f9 84 be 41 f4 26 be
       -0.1404966 -0.13225986 -0.25971478 -0.16304113
000180 d9 9d d3 bd a4 e4 77 bd ce 5d 28 3c 73 f7 1d 3e
       -0.103328414 -0.060520783 0.010276271 0.15426426
000190 f7 fd 81 bd 7a 75 5d bb 09 d6 c6 3c be 9c 81 3d
       -0.06347268 -0.0033791945 0.024271982 0.06328724
0001a0 08 67 51 be 2f 93 df 3d cb 87 f6 bc 44 41 af bd
       -0.2044946 0.10916745 -0.030094048 -0.0855737
0001b0 da d2 8f be ac e5 83 bd 9f ba 3f bd c2 da 59 3d
       -0.28090554 -0.06440291 -0.046808835 0.05318714
0001c0 d5 43 2a 3d 46 59 39 be 42 3a f7 3d cb 7c 75 3e
       0.041568596 -0.18100461 0.12071659 0.23973386
0001d0 42 a0 c4 bd 94 75 be bd 71 f5 bc 3d 54 b5 1e be
       -0.09600879 -0.0929977 0.09226502 -0.15498859
0001e0 47 98 ba 3d b4 3c ea bd 0a 96 17 bd 69 47 a9 bd
       0.09111076 -0.114373595 -0.037008323 -0.082655735
0001f0 2e 47 c3 bd 6b 21 57 be c6 30 b6 3e be ee 8f 3d
       -0.09535061 -0.21008842 0.35584086 0.07027958
000200 17 03 5e bb 54 7e 13 3e f7 23 81 be 62 37 44 bd
       -0.0033876353 0.14403659 -0.25222751 -0.04790438
000210 a0 e2 5e be be 6a 87 bb ce 9f ed 3a b3 fd 15 3c
       -0.21766138 -0.0041325977 0.001812929 0.009154725
000220 c4 8d 9c 3e 9a fc 33 3c 3f 1f ca be 46 c5 b3 be
       0.3057691 0.010985518 -0.39476964 -0.35111445
000230 eb 58 b8 3d dc 52 3c 3e bc ce 26 be 1a 0f ce 3d
       0.09001335 0.18390983 -0.162898 0.10061474
000240 a3 02 1b 3e ab 2f 16 3e 01 1d 8e 3c 14 a1 8b bd
       0.15137725 0.14666621 0.017347815 -0.068178326
000250 93 41 10 3d 64 19 91 bd 29 7d 86 3d f2 e7 2b 3d
       0.035218786 -0.07084921 0.06566841 0.041969247
000260 c9 be 89 bd c4 d8 57 3d 24 6e 3e 3e 60 a2 e1 bc
       -0.067258425 0.05269696 0.18596703 -0.027543247
000270 db 4b da bd d7 8a c9 bc 8d c3 bc bc 02 b5 05 3d
       -0.106589995 -0.024602337 -0.023042465 0.032643326
000280 c0 c8 c4 bd 83 39 e9 3b 30 fc 86 3d fd 16 47 3e
       -0.096086025 0.0071174516 0.0659107 0.19442363
000290 f0 d4 9f 3e 67 e5 65 3e 54 7b c9 3d c7 4e 81 3c
       0.31217146 0.22450791 0.09837976 0.015784634
0002a0 72 47 a8 bd 94 eb ea bd ba 78 a6 3d 44 5c 8d bc
       -0.08216752 -0.11470714 0.081284955 -0.01725591
0002b0 7e 2c 0a bc d1 0d c7 bd eb 7c c8 3d 69 88 57 3e
       -0.008433459 -0.09719432 0.09789451 0.2104813
0002c0 79 68 92 3d a4 c5 14 3e 10 d0 1e 3e fe c2 a6 3c
       0.07148833 0.14528519 0.15509057 0.020356651
0002d0 2b 49 08 3e ad 64 81 bc 0e d3 e3 3d 6e e1 85 3d
       0.13309161 -0.015795076 0.1112424 0.06537138
0002e0 de 91 92 bd df 00 dd 3d be d8 0f 3e 55 0e 4f 3d
       -0.07156728 0.10791182 0.14047524 0.050550777
0002f0 6a 36 7c 3c 68 8c 1b bd 46 11 e1 bc f3 f3 dc 3d
       0.015393833 -0.0379757 -0.027474057 0.10788717
000300 ca 7c 99 3e 3b c8 16 3e 7d e6 13 3d 4a 2f 02 be
       0.2997802 0.1472482 0.036108483 -0.12713352
000310 d8 ad 17 3e de 97 33 3e 28 e4 31 3e 83 f4 91 bd
       0.1481241 0.17538401 0.17372191 -0.07126715
000320 31 87 2f bd bf 34 0f 3e 09 5a fe ba fc 08 27 bd
       -0.042853538 0.13984965 -0.0019405495 -0.040780053
000330 84 41 9f 3c a7 fd 3d bc e3 a8 90 bd 02 c5 c3 3d
       0.01944042 -0.01159612 -0.070634626 0.09559061
000340 c0 45 cf 3d 24 3c 50 3e 42 c8 b1 bd 00 ac 74 be
       0.10120726 0.20335442 -0.08680774 -0.23893738
000350 8f 45 36 3d 2a d9 a5 3d 19 63 fd 3d c5 c5 63 3e
       0.04449993 0.080980614 0.12372417 0.22243412
000360 96 ba ac 3d ce 4e 3b 3d e4 b4 a4 bd 85 8b 1b 3d
       0.08434026 0.04572945 -0.08042315 0.037974853
000370 09 19 f8 bd cb c3 86 3d 3f cc 64 3e 14 3d 4e 3e
       -0.1211415 0.06580313 0.22343539 0.20140487
000380 3f 94 6f bd 4f b8 e2 bd d1 4d 2c bd 68 95 95 3c
       -0.058490988 -0.1107031 -0.0420664 0.018259719
000390 bc 3b 86 bd 5d 42 09 3e 60 c9 b3 3d e7 f3 dc bd
       -0.06554362 0.13404222 0.087786436 -0.10788708
0003a0 44 9f 87 3d 78 1b a1 bc e1 2f 86 bd 93 cc 0c 3d
       0.066221744 -0.019666418 -0.06552101 0.034374785
0003b0 6f 9d 1b bc 83 b1 05 3d db 9e b4 3d 63 e3 10 3b
       -0.009497984 0.03263999 0.08819362 0.002210819
0003c0 23 02 30 3e 21 2a 84 bc 82 7a 83 3c 71 5f d1 3c
       0.17188315 -0.01613337 0.016049627 0.025558205
0003d0 a8 ac 45 be 1d 2f 0c 3d 0f ca 32 be 63 8c b9 bc
       -0.19304144 0.03422462 -0.17459892 -0.02264995
0003e0 a6 90 c6 bd a0 69 2f be fb 35 99 bd 0f 45 4d bd
       -0.09695558 -0.17130136 -0.07480999 -0.050114688
0003f0 a0 66 14 3d ec dc 16 be 77 5a bc bd c2 05 1f 3a
       0.036230683 -0.14732713 -0.09196942 0.00060662266

fc3.bias f4 [10]
000000 94 2a 68 be 14 e1 17 bf 90 39 a8 3d 8f 0d d4 3e
       -0.22672492 -0.59327817 0.08214104 0.41416594
000010 98 f0 f5 3e 19 3d 70 3c b1 7b 05 3e a8 e9 76 be
       0.4803512 0.014663004 0.13035466 -0.2411257
000020 c7 4d b6 3e 92 1e d4 be
       0.35606214 -0.41429573
