MNIST-Noise-Reduction/MNIST-denoising.pth (torch, 230527 bytes, 10 tensors)

encode1.weight f8 [32, 1, 3, 3]
00000000: 3c5c 6ccd 833c ccbf af4e 0e92 1bde c73f
00000010: d3b4 9724 554a ccbf fe70 f79d ceb0 b0bf
00000020: b761 8a6d 91d3 b03f 4f8f 1641 8698 973f
00000030: e6bb 7b3e 71f5 c7bf dc44 4fe5 80ed b6bf
00000040: b803 83d5 c261 ccbf d472 4fe8 5d0a c93f
00000050: edac 576a 78fb d03f 1e56 589d 8d93 b73f
00000060: 11a9 7cfa 7391 ca3f ded6 d0fd df15 c3bf
00000070: 090e e427 7256 d1bf 85a0 8ab7 1a1d d3bf
00000080: 5233 b32b 1033 a63f 41dd be1e 3493 d1bf
00000090: eca4 700b 800f c23f b741 48aa 92e0 d43f
000000a0: ad82 9184 51c6 cb3f 1899 f881 da5b c43f
000000b0: 6dd9 3cc5 d2d3 95bf 681d 9702 0eca aa3f
000000c0: 5609 257a 08e4 d43f 2193 21e9 e66d bc3f
000000d0: c729 2507 9417 bebf 272e 809c f005 c0bf
000000e0: ebf9 43a6 b39d a1bf 2f12 d7fe 14d4 bfbf
000000f0: 0087 ff35 c886 b23f f1f4 6f88 3cdd c7bf
00000100: fa93 7038 5e39 b53f e57a 9022 10d7 d4bf
00000110: 55a3 7ca1 8fcc a63f db7d be09 25c3 b4bf
00000120: 363d 80ab 6797 c53f 9a2e bd82 0932 d3bf
00000130: 5376 bf73 e023 bebf 53b0 0a8f 0007 c1bf
00000140: 06e5 5ee9 80ab ab3f 7ee8 6a0b 7fa7 d23f
00000150: 571a 18bc 2bc7 c2bf 693b 7684 4638 afbf
00000160: fb95 6cb2 1db3 8b3f fb94 2937 26f6 cc3f
00000170: c5f4 7cb9 64f6 bb3f 4366 b78e 9441 afbf
00000180: a204 071d 8dce 8d3f 56ac 3e73 74e8 d2bf
00000190: ee8e 19d6 052e cbbf ef32 f7a9 0cd2 aabf
000001a0: b9f9 6550 3353 c0bf 4271 248a b892 ccbf
000001b0: 0b0b b0de 47c8 c6bf 1b3b eea4 b215 ca3f
000001c0: dd38 65e3 3f8a c8bf 8084 790f b9d6 b63f
000001d0: c1e2 c679 3cff d53f 4a05 c909 db97 c93f
000001e0: 9590 ab2b 3d95 c73f 6236 1133 19cd cc3f
000001f0: b5ef 19c6 a267 bbbf e95d 97ae c94e af3f
00000200: 8bd9 2f3e 0208 ca3f 21ab 3d73 cb7a c8bf
00000210: 0de6 c66d b066 d5bf e80e e499 2938 c13f
00000220: a796 3889 7907 abbf e5a9 82b1 3af1 7c3f
00000230: c66f 8ea6 8afc 95bf 140c 3ca8 5d20 cb3f
00000240: cc39 3dbe ce4f cb3f dff3 2351 c774 a63f
00000250: 0bd5 7d91 bba5 d03f 08d2 bfef e2c2 c93f
00000260: 5998 ad22 0716 bc3f 0513 5f0e 770e bebf
00000270: e8dd 037d 6511 c9bf 1c9a c646 d5ef d1bf
00000280: 4bf7 6eb0 ed29 bbbf eda8 2011 f18e d13f
00000290: 885e 18e5 7441 cdbf ba6f a3d2 3ac4 d63f
000002a0: 1d75 cd2e 77cf c83f a1c1 7129 3f46 c9bf
000002b0: 8010 98b8 6075 d03f 1b5e 689d 2fb1 b0bf
000002c0: 9ec9 0218 583b be3f 4cdc 710c 2e21 cf3f
000002d0: fd3b fd21 2cdd d0bf b1fb b9a8 52ee c93f
000002e0: 9630 b81d 9590 b03f efa8 c5a2 6f86 c73f
000002f0: eee2 0b83 7258 d33f 4972 ed79 c9f2 c7bf
00000300: c3c7 78d6 ccc4 ccbf 7746 bd21 1f65 c43f
00000310: 2e93 1395 8eb1 cabf aa9a 0747 2e9f d0bf
00000320: d9bf a742 ed32 d33f fca3 a08a 0bdc d03f
00000330: 1139 be97 bca5 cdbf d69c d846 ed3a c13f
00000340: e499 f153 6e27 c3bf aa21 6504 d159 c8bf
00000350: c2a5 510b 2c1e cdbf bef1 977e 8d02 d1bf
00000360: 868a 90e3 71a4 c83f 6c42 893a cdc5 c3bf
00000370: e5ab 94a5 e2f7 acbf 8f99 dfef 0c22 d33f
00000380: 537d 1d69 725b c9bf 9b39 bdb5 d9b0 c1bf
00000390: 1660 3e4c 644f d3bf 747e 9a3d 80d1 9c3f
000003a0: 5dba 2d93 f89f bc3f 6cdc cd60 671e c03f
000003b0: c5cb 25c9 06e2 ce3f 044a 2c37 215d c53f
000003c0: 591f 1203 45c2 bdbf a52f ebb1 b641 c13f
000003d0: 2d37 91a1 4bbf c83f d36a 95ac cb91 d53f
000003e0: dcb8 bfdf 8ddc c0bf 62a9 273c 6858 d03f
000003f0: e587 e435 42d9 d2bf 46d0 cc66 ed42 a7bf
00000400: 1907 d900 c261 cc3f ae66 8c6b 8439 cbbf
00000410: 508a d0e3 79af b43f 8ea6 9527 d5cc b9bf
00000420: 4383 5e4d 6f72 c93f 7c2c a2e6 d41b cc3f
00000430: c487 4c17 3d77 c4bf f88f 0306 4ce6 c03f
00000440: 132d 124a 504f be3f 3282 98ab c947 c6bf
00000450: 237b da61 07cc b2bf 360f 45ef b4cd c1bf
00000460: 8d4a 91eb 87de c13f 15fe 177e 0adc c13f
00000470: 42ce f391 d5a3 d1bf 2904 f163 a53f b8bf
00000480: f63a 6996 fdfa c43f ad4c 788b 32fc d63f
00000490: 2870 a2d1 03c5 d03f db22 0900 77cd b03f
000004a0: b5a9 1bd2 f487 d0bf 8f79 137e 786c c2bf
000004b0: 251b 0608 a0c0 c23f 2f5a 8b05 0275 c03f
000004c0: 4840 f765 9a6e d33f 6c38 c171 5f3c b6bf
000004d0: 54c3 0441 8fa2 bf3f 84cd d6bd 591b c5bf
000004e0: 68ae 81c2 741c d1bf f511 7edf 4ddc cb3f
000004f0: cc14 277b eadd d4bf 7d99 f45d 454a be3f
00000500: daf7 3d5e f6df b43f 03f7 b70b 1457 bfbf
00000510: 0c9e 35b0 ddd5 b9bf 8c31 05c5 5d27 d63f
00000520: c225 3ea1 3724 ce3f 10a3 f220 cd51 cd3f
00000530: de7a e4fb 2353 d83f 4661 f6e9 a5b2 b83f
00000540: 2f90 b5c5 ce8a b73f 1374 ad28 b05a d43f
00000550: badf a637 7874 bdbf 6b46 4787 e130 d33f
00000560: 5bef 2541 3979 c8bf 58e3 6a81 be6b d23f
00000570: 3831 932a f0c5 d4bf 1a66 7c04 6e59 bebf
00000580: 7ea0 c0ac c965 c8bf a5c6 f24d 6f15 d03f
00000590: ecd7 c872 57c9 cabf d249 fcaa a3a7 cebf
000005a0: 75d0 6f36 d7d6 ac3f 307e 3344 a937 b1bf
000005b0: ed9f cf6e a370 b3bf 4241 0e53 84a8 d03f
000005c0: b303 df2f 095a d13f 67d4 58cf 7164 c73f
000005d0: 2049 c18c dc82 b23f 10d0 9323 4312 d23f
000005e0: f905 f74b 68c5 c63f e900 076b 09fe d33f
000005f0: b4d5 cc4b 8d05 cdbf f393 7501 0f75 c63f
00000600: bb5e fcda 54d8 893f b2c8 9bbd 3b77 c33f
00000610: cfdc 1c81 1d49 bc3f 5fec b70e 488e c6bf
00000620: 0b7d 065b 9c76 cbbf 836d a5f4 88f1 c83f
00000630: d964 64a8 65f0 ca3f b0cc 89ba ceae c5bf
00000640: c1da 8bec 452d bf3f be7d c580 7969 be3f
00000650: 5a7c f6f5 6082 bd3f 4366 2adb c0e7 d33f
00000660: 8c90 fbaf 29d9 ce3f 49c1 3bdc ecbb c6bf
00000670: 6525 2c40 44fb c03f c45b 3a94 c54c d43f
00000680: 520f 71f5 0b0c 863f 2ae5 57d1 95a9 ccbf
00000690: fdfc 31e0 5f61 c5bf e8d3 d265 2814 86bf
000006a0: 3a91 a7eb 1034 b3bf 589d eb3b 5a3d c93f
000006b0: 6373 ff20 b8d1 b13f 983c 07de b32e c1bf
000006c0: a156 7ebf 515d d23f 71a2 1f39 6c4d c43f
000006d0: 6c47 7f8d afc5 d0bf 32fe 5542 a4ec c03f
000006e0: d553 231c 0270 d43f f0d5 5773 4911 a33f
000006f0: 826d 8318 2aa7 cf3f 5c3d d994 4513 d33f
00000700: fff4 4c30 366b b83f dc78 37a2 2e69 cb3f
00000710: 80f2 e3b4 b1a8 b4bf 60f8 f50e a4fd b23f
00000720: eeac ba12 8100 aa3f f790 1b83 968d d53f
00000730: 21af d63e c37b b73f 17ad c5bd 5a6c c9bf
00000740: b821 1a58 b9a6 cdbf 1ef2 f6b3 7a72 c7bf
00000750: 44b5 e18e ed98 a4bf 08ba 79d5 0f32 d1bf
00000760: 61b0 9d3c 15d4 d1bf afbc 8952 2e7f d13f
00000770: 11d3 5ea4 0916 c93f e693 b094 278e 423f
00000780: 7d1a 02bb 084f d03f 69e9 2ffe 64bc c03f
00000790: 76d8 3c06 55a2 87bf 6c64 c169 7aa7 d4bf
000007a0: 515f 749e e77a ccbf 775f c87f a859 d13f
000007b0: bafd 2459 32e0 9cbf 1190 3877 b995 c43f
000007c0: 0822 ce1d 0d68 d4bf d702 7ff6 0100 d0bf
000007d0: c70a fcea 99f9 93bf a35a fc23 ffe0 d23f
000007e0: 9ab7 7317 c356 8e3f ecd0 6691 3ede cf3f
000007f0: e7b2 f773 34ae 95bf edfa 79ad 5f2f c4bf
-0.22059676676210127 0.18646568900714075 -0.2210184506106204 -0.0651978622112814 0.06572827267007751 0.02304277202860244 -0.18717780638641485 -0.08956151579265587
-0.22173343110446608 0.19562887042311294 0.2653485334873967 0.09209523288185337 0.20756387453850114 -0.14910507100437703 -0.2709012403067566 -0.29865138935066
0.04335833104560173 -0.2746095943689007 0.14109802778811031 0.32620684270025485 0.2169896981531755 0.1590531477570003 -0.021315854347642316 0.05232280522937566
0.3264180367297248 0.11105197135618684 -0.11754727529947849 -0.12518127099643658 -0.03440629391296909 -0.12432986470873496 0.07236911123575496 -0.18643910085658136
0.08290661695407656 -0.32562640548159855 0.04452942701602206 -0.0811026715077711 0.16868301271504443 -0.29992902533988686 -0.11773493600727507 -0.13302618965588184
0.05404284333003244 0.2914731608867739 -0.1467032116344906 -0.06097622267690534 0.013525230414937353 0.22626187985876087 0.10922841576116855 -0.06104721300262075
0.01455412144503249 -0.2954379201352756 -0.21234200433820355 -0.05238380026603361 -0.1275390760965374 -0.22322756524307336 -0.1779870831815845 0.2037871651959556
-0.19171904185572589 0.0892139113216377 0.3437033833720698 0.19994676568789266 0.18424191124279746 0.22500910752789866 -0.10705010734994753 0.06114797836533709
0.20336940800161715 -0.19124739768025115 -0.33439264984517153 0.13452644361688404 -0.052791402817360215 0.007065991660207581 -0.0214711822660403 0.21192522730424967
0.21337303437253607 0.04385969987377058 0.2601155205550902 0.20125996309765548 0.10971111866601414 -0.11740821934570185 -0.19584339718106425 -0.2802632514161887
-0.10610852773149053 0.27434946701636315 -0.22856007753647511 0.35572691507490684 0.19383134637147573 -0.1974562599530261 0.25716417338140474 -0.06520364373169978
0.11809301935389846 0.2432000695004909 -0.26349929160363655 0.20258553732489085 0.06470615363667984 0.18379016349655994 0.3022733955145175 -0.187096771750378
-0.22475586387878196 0.15933598658971324 -0.2085436084663796 -0.25971562324995523 0.2999833250933058 0.2634304860862924 -0.2316203823979284 0.13461080512317974
-0.14964083765808234 -0.1902409812412434 -0.22748327782328032 -0.2657808052315679 0.1925184594302502 -0.15447392805301108 -0.056578715050214425 0.298953279734996
-0.19810323841646013 -0.13820954679472383 -0.301720690209096 0.028142932662943612 0.11181596368053577 0.12592785097851633 0.24127278157865653 0.16690459436411242
-0.1162455685135887 0.13481792151867214 0.19333787335420408 0.33702365735886736 -0.1317307798885342 0.2553959453058693 -0.2945104147239575 -0.04543249015696964
0.22173333207506898 -0.21269278766049154 0.08080255329017771 -0.10078174797458869 0.19880477216522693 0.2195993543758482 -0.15988887441295507 0.1320281056752035
0.1183977299535182 -0.17406578901956632 -0.07342573298454318 -0.13909017260641016 0.13960360529252505 0.13952761799735983 -0.2756246495548319 -0.09472116174676216
0.16390962452211227 0.35914291019544003 0.2620248362743518 0.06563514471885006 -0.25829811590542856 -0.14393526226099282 0.14650345222272523 0.12857079764099086
0.30362567861175593 -0.08685871627059932 0.12357421243065164 -0.16489717263685233 -0.267361822078533 0.21766065037458274 -0.32604467417361316 0.11832078498682637
0.08154239464599247 -0.12242245946978518 -0.10091958572376586 0.34615272751104764 0.23548026440793818 0.22905887707499817 0.38007449721219 0.09647595369313419
0.09196178748021631 0.3180351636163447 -0.1150584350460794 0.2998584576681426 -0.1911994522196164 0.2878261817782479 -0.32458118589126483 -0.11855208978195045
-0.19060631690195246 0.2513082753385823 -0.20926945786203477 -0.23949094628240047 0.05632660426627548 -0.06725557246272085 -0.07593747573230276 0.26028545485407417
0.27112035441319476 0.182752825015686 0.07230928837205797 0.28236463999132955 0.17789939603066765 0.3123801751317062 -0.2267319316976405 0.17544734545950255
0.012619650776783833 0.15207621343831118 0.11049065019766434 -0.17621708601641026 -0.2145572132548995 0.1948710627137694 0.2104613373019564 -0.16939720257105284
0.12178456330353084 0.11879691499551989 0.11527067189170861 0.3110201015748297 0.24100228398231527 -0.17761002305588594 0.13266804822368808 0.3171857783831309
0.010765164783272194 -0.2239253303703575 -0.16703413435968875 -0.010780635459335344 -0.07501321557316923 0.19718482900428103 0.06960631185161285 -0.13423775044654884
0.2869457597783854 0.15861275471913275 -0.26206578081211407 0.13222172965105156 0.3193364405427109 0.03724126370427061 0.24728895375197274 0.2980512574767624
0.09538592032636826 0.21414740486847605 -0.08069906870145793 0.07418275227789328 0.050785096679954 0.336766841921658 0.09173221859117266 -0.19861921564311366
-0.2316505127130435 -0.18318113124213736 -0.04022924775277173 -0.268680532905734 -0.2785695163681848 0.27338750896792424 0.1959850361432918 0.0005662625566215079
0.25482385885735664 0.13074934398157304 -0.011540092709406684 -0.3227220566528277 -0.22250075566329966 0.27109730223445844 -0.02819899243445232 0.16081922837577214
-0.31885078344979023 -0.2500004679859961 -0.019506840674703676 0.2949827052520197 0.014813923028181897 0.2489698610276102 -0.02117235143480203 -0.15769573183566568

encode1.bias f8 [32]
00000000: f5a0 d292 3075 c2bf ca70 ed2b 8d77 d63f
00000010: 8e2b e179 87a9 c5bf d663 7a4d c1ef d13f
00000020: a4e6 6613 7d63 c5bf 7195 eb8f 49d5 d33f
00000030: 7b33 11d9 799a c9bf 6318 2a70 e08f d93f
00000040: e5e7 940a 8e2c aa3f 30d3 e915 2324 c03f
00000050: 9e9f e3aa 3b47 c93f bb7b 870e 5056 b1bf
00000060: 7867 4d29 c4f1 c2bf 3262 a072 0866 d2bf
00000070: 9cd2 4b01 d754 d23f 4e1f 253b fbdf a9bf
00000080: 61ee 2392 0145 a2bf 4320 acd8 6dbb d1bf
00000090: 78fb 890f 487a cfbf f7e9 fa2c c127 c33f
000000a0: 4e75 afed b913 c6bf 1425 9cf9 2562 cc3f
000000b0: d147 5121 f7b3 ce3f 9e2e 9bf9 a670 b23f
000000c0: e2b7 8fef d238 c0bf 7af0 8e8c 2d33 ce3f
000000d0: cfb8 da64 2af7 be3f 2044 304f a032 c93f
000000e0: b2ea 1c96 f840 b9bf 7908 1922 218e adbf
000000f0: 5f92 1f70 0f72 b83f 7d7b 3ed5 21af a0bf
-0.14420134705620283 0.35104684152407784 -0.1692361207118122 0.280258489286607 -0.16709865043030903 0.3098930268737013 -0.2000267324350736 0.3994065375667388
0.051121176521021806 0.12610281534184642 0.19748636097142208 -0.0677232776138074 -0.1480031205817871 -0.28747760004037837 0.28642821432667076 -0.05053696724877331
-0.03568272503795523 -0.277064763635739 -0.2459192348360053 0.1496507138852647 -0.17247699838382363 0.22174524963364972 0.23986710669356495 0.07203143686200028
-0.12673412988027538 0.2359368263549902 0.12095894777550885 0.19685748926761537 -0.0986476294028005 -0.05772498646958097 0.09549042212854307 -0.03258615234448479

encode2.weight f8 [32, 32, 3, 3]
00000000: 13ca 3493 2dcc 963f 3eea 1f9f e2cb 623f
00000010: 475a 914d 4668 923f a508 39d5 3230 863f
00000020: 6ef4 1479 cf8f a13f fd9f 3b57 a245 96bf
00000030: f606 665b 006e a43f 6db1 30d4 f916 9b3f
00000040: 22c9 f175 a6bd 963f ef60 c181 02e0 92bf
00000050: 9948 fa8c 1c03 a13f 3bd2 16b9 26da a33f
00000060: 81fc 4487 4476 80bf f9a7 e4e1 c63f a33f
00000070: 92f1 af89 5f70 96bf b067 ef6e 37ae a2bf
00000080: 44f7 cbac 4e4a 93bf 8776 284b 2036 883f
00000090: 1f54 0949 a41b 70bf 6843 6f8b 217c 9abf
000000a0: 2222 534c badc ab3f ca80 8de3 2455 90bf
000000b0: 61f7 52f5 6a44 7fbf 466f a947 379e abbf
000000c0: 3871 42f7 a92e a63f 03ff 96c9 1124 a33f
000000d0: 2d56 0f56 917d 96bf 79a7 bc6c 668a 6ebf
000000e0: 881b bd6a eb77 9b3f ceec 5c18 02c9 ac3f
000000f0: 8adf 7fad 5b65 9c3f af7e 7eff 61a3 793f
00000100: 8064 e4b8 5e41 a8bf 3f10 d39f f5fd 97bf
00000110: 896c 3aa9 4aa8 ad3f b0a3 e316 7be6 803f
00000120: 8926 99b2 8e98 abbf 0e6e 8068 dc09 ad3f
00000130: bcd4 d5be 53b8 a1bf 886d 0557 702a ab3f
00000140: 6d06 ec2f 6480 8c3f 3906 f19a a6c5 a5bf
00000150: 522a 4701 7852 61bf 0f4c 0802 2e7c a13f
00000160: 8bf8 291a 732a ab3f 6151 8131 9b82 a1bf
00000170: 5317 999b 0e55 a73f 4b43 b47b 23c4 93bf
00000180: aec5 a105 2542 a3bf a1c2 8a26 7b59 9ebf
00000190: e1f3 3c87 bbeb 9abf 049c 8b93 dd55 adbf
000001a0: 66d2 1411 4755 7dbf f46c a962 22c4 6bbf
000001b0: 259f de47 1e27 9c3f 4e60 a277 55ba 95bf
000001c0: 0bd9 6139 1a4e 833f 3a1f cb4c 4bd9 773f
000001d0: 82f2 6fe1 e30f 93bf ef26 1e75 691a ae3f
000001e0: b840 5744 6760 7cbf a136 d7b2 6716 85bf
000001f0: 00f7 15b2 f030 713f f955 29d2 7620 a23f
00000200: 7332 dab8 c376 55bf 32b5 6c90 4bc5 9fbf
00000210: 95fc 3d29 ff04 abbf 3f69 ce19 3e7b adbf
00000220: d49a 1536 ff3f 793f 4d41 da91 c9cd a73f
00000230: 86d3 5dad 4318 aabf c7ea 957d 7078 893f
00000240: e21c aff9 bbd3 97bf 04ae ad85 4823 a5bf
00000250: 570e 5c9f 1473 8b3f 3247 ad0c c493 65bf
00000260: 24d5 1fcb 0db8 adbf 9188 4fbb ce68 6cbf
00000270: 3643 d79d 0c53 99bf 9e8c e4f8 8533 743f
00000280: 0cd6 c534 e2a8 a6bf b25e e8c0 d3ff 81bf
00000290: c917 f70b e858 4cbf 024b 004d d838 97bf
000002a0: 1b08 bc56 3f30 8bbf 968e 8908 e12e 93bf
000002b0: 9d58 fcc0 b35c a83f b6f7 90c6 8472 9dbf
000002c0: b7ca 10c3 e929 a03f f5b7 bdec 10e9 a6bf
000002d0: aaa8 f546 f621 ac3f 48fe dbcf 5154 82bf
000002e0: db23 49bd a555 9cbf 43d0 f651 33a9 a7bf
000002f0: fe64 7845 7f03 9dbf 7b75 dba8 e06b adbf
00000300: 9a29 60d0 a7cb a63f 0d14 69e5 49c0 a1bf
00000310: d9c9 f2a2 ef83 a03f 8abc 8bc8 1344 71bf
00000320: 9031 4457 b53e 933f 6fe7 e95c 0545 9a3f
00000330: 9442 2f08 fa82 9ebf f5d4 cde4 de72 773f
00000340: 7310 36f5 0fd7 a03f 09dc cf81 470f 913f
00000350: 2e50 d181 b9b4 a73f db71 5a88 7e2f a33f
00000360: 3844 2d86 fbd3 aabf 1daa 3b1a 05c9 a93f
00000370: 47d9 4f38 c126 6bbf 50eb 629a 6a14 86bf
00000380: f909 e13d 7723 84bf 6d74 7ba1 78fe 753f
00000390: ffae 4990 7d01 97bf df0c 9b01 4044 a43f
000003a0: a5ab d586 7a0a 933f 0def add5 3544 953f
000003b0: a3b4 724b 7334 91bf 189a df13 623d aabf
000003c0: cf57 0358 05de acbf 604c c3c0 4478 96bf
000003d0: b196 ea22 c5fa 90bf e546 f3b7 9a63 a63f
000003e0: c37e 1df1 1adc 7c3f 7876 f3ba f243 ac3f
000003f0: 4379 b587 fc7e 963f efcc 7efd 82c5 aebf
00000400: 0df1 01aa 9198 753f f2b1 3652 e8a6 a43f
00000410: e770 d257 7602 9ebf e352 7f50 135d 9fbf
00000420: e7e9 d400 b074 a73f 05e4 f888 fc54 923f
00000430: fe3e 0fe5 81d6 8cbf ac98 38f5 0fa0 84bf
00000440: 269e 92df dae4 83bf a322 a38c 1f82 8ebf
00000450: e195 6204 08e8 a2bf bb27 e81e eb90 ad3f
00000460: 64eb 2028 2646 a53f b353 9704 fcc6 aa3f
00000470: 7049 66ee a634 a7bf 85b8 97cc cd1c ae3f
00000480: bb91 148b 3088 a73f 1adc ebdc 15f5 a43f
00000490: cfa2 4bf7 4818 a1bf e0b3 7dea 64af 9c3f
000004a0: e91a ac52 4d3f adbf 6895 dbc1 b490 a03f
000004b0: c170 8205 0df9 9b3f 3907 d32f 5109 ac3f
000004c0: fbae 6498 1489 9dbf a95d 4b19 9bed aabf
000004d0: 81a1 1f03 863e 933f c956 43ee 0413 abbf
000004e0: 416c ff7f 327e a43f e352 2234 dbc8 693f
000004f0: 8fc5 d8ba 1565 94bf 4f2f abe1 a260 ab3f
00000500: 6774 11d4 6974 ab3f 0e51 e0f6 bf51 a4bf
00000510: 6971 3dd1 1aaf 97bf 5fad 0ec3 9bf4 883f
00000520: bd20 51c1 9bd4 a9bf 466e 1a08 a367 9abf
00000530: abbe d4d0 80ed a7bf 7092 1187 e4a3 aabf
00000540: 0d1a d4be 9369 92bf 2bd6 c006 b911 a7bf
00000550: aac1 743d 9a26 a03f cfca 0657 ef9f ab3f
00000560: b539 f105 a131 ab3f 406e ad0e 3a8f 803f
00000570: fe22 64ab 2da7 89bf ac01 913a e484 acbf
00000580: 3994 e8fb 8855 783f f126 57bc a698 9f3f
00000590: c59d 5a25 af9a 90bf 4469 d8c9 9e0b 82bf
000005a0: d90f 2445 b8aa 7fbf c333 7e86 5610 a63f
000005b0: f82f aa70 7d09 ae3f 893d 6607 0469 a03f
000005c0: 89d2 51aa 8475 983f 2a19 867b 53d0 a3bf
000005d0: 1599 e186 6759 84bf ae0c 1cf7 d971 953f
000005e0: 2cd1 9d7a c199 a4bf 8e34 f94d 0cf5 aabf
000005f0: abf6 7ed0 1605 863f ae9f fb4e ed92 9d3f
00000600: f721 9141 3aee acbf 1157 c6e8 76c5 973f
00000610: 777a 1949 f3cf a5bf 5bdc 90db fa3f a4bf
00000620: 1a33 172a f6ce 64bf 3018 ac6e 495c 893f
00000630: 1138 c6c6 cb05 9d3f d984 a0d0 45c9 923f
00000640: a00c 5a0f a91a aebf e2be ed2a 4048 4e3f
00000650: 410b 3f12 cf32 ac3f 9d42 3f3e 295e 9bbf
00000660: aabf ddb5 bff3 a1bf aaf0 bdb8 1d0c 7d3f
00000670: b40d 307a 7775 a43f 567e 603a f77f 9d3f
00000680: 6b7d 5340 891c 983f d11c d57c 2be9 88bf
00000690: 6fe2 de2d f687 a6bf 644c 98a2 cfec a5bf
000006a0: 7a25 3f0d 1db7 a1bf d30c 6e15 9f24 aabf
000006b0: f738 e94b 5ca3 5ebf 948b 3b0d 533b 9c3f
000006c0: 44f1 5858 510e 9bbf 960b c7d5 eb75 99bf
000006d0: 2d43 0c8b 527a 95bf 9439 d645 95d7 a2bf
000006e0: 6c8e 8505 a4a9 a23f 1907 a831 a00c 9bbf
000006f0: 95e2 2b0c 433c 643f 64e4 d2ab 36e6 9c3f
00000700: dba0 4a93 45ff a2bf 098d 32c6 3913 a53f
00000710: 38e5 8b13 b34d 91bf 6de1 ffbb 58d3 a73f
00000720: e5d7 be4d 5791 92bf 40dc f944 febb a63f
00000730: 0a4e 472b 6bc1 a2bf 7c39 983a e38d acbf
00000740: bfef 9513 c130 a3bf 4fe9 bea7 919c a73f
00000750: ad4b c1fd c844 a4bf f9de e6ef 0920 9bbf
00000760: 6f43 f55e caaf 9e3f a794 1985 710f adbf
00000770: a22e 2fda ef9a 9bbf 1f2a 5556 5ebd 753f
00000780: 1f09 5410 ae0a a83f e6ae 51ec d1e2 a13f
00000790: 8a22 280c ab9f 9dbf 6245 9dbc 7701 a33f
000007a0: 5e38 3ffe 9fe0 853f 9d8e 8b07 eefa 713f
000007b0: a436 9ad9 4f10 a03f 6013 3063 6670 a73f
000007c0: b67a 5a7b 61ae 9abf b572 3cc6 45f2 81bf
000007d0: 14d9 1408 d93d a4bf 862c d4a9 7a4b acbf
000007e0: 06d0 7fa8 72e7 853f 29f9 b0d8 914f 933f
000007f0: f7a3 55ae 3cf4 a2bf fffe 04dc 114d a4bf
0.022263252362970287 0.0022944856837033003 0.017975901111947825 0.010834118969004722 0.034300311594486085 -0.021750008177065173 0.03990174403862838 0.026454833580076654
0.022207833241233328 -0.01843265454257986 0.03322686406058146 0.038773737043275656 -0.008038077715012417 0.0375959540127297 -0.02191304471851791 -0.03648541669072303
-0.01883814744632352 0.011821987432138371 -0.003932611216971998 -0.02586414731542011 0.05441839391420823 -0.015949798954694207 -0.007633607679222582 -0.05394146680620664
0.043324767525719954 0.03738456331075037 -0.021963377835922216 -0.0037281036838025497 0.026824644460500063 0.056221070741651155 0.027730400528497103 0.006259329609661953
-0.04737373358711583 -0.023429715995703978 0.05792458835386422 0.00825210727312417 -0.053898295690101135 0.05671585822730317 -0.034609429402658404 0.053058157561021224
0.013916762077772671 -0.042523580945737334 -0.0021145194861891614 0.034150541065308564 0.053058239883271595 -0.03419957141219033 0.04557080888166234 -0.019302896905233607
-0.03761401838063293 -0.029638218142909015 -0.026289873246458376 -0.05729572702494326 -0.007161405186071867 -0.0033894225683020977 0.02749297441155742 -0.021218619753739447
0.00942631232849724 0.005822462215924246 -0.018615303644752952 0.05879525713596744 -0.006927874933765725 -0.01029664053467211 0.004197063653348598 0.03540393176505669
-0.0013100539539749017 -0.031026058855038126 -0.05277249697155032 -0.05758089127557974 0.006164547842991214 0.04649190812517876 -0.050966372406867896 0.012436751205986763
-0.023268639673713738 -0.04128481513802387 0.013403092492359976 -0.00263393679544146 -0.05804484467072715 -0.0034679448822184174 -0.024730870374529 0.004931948975612914
-0.044257229749671806 -0.008788732838225986 -0.0008650906601637083 -0.022677783679749382 -0.01327561839525875 -0.01873351683242549 0.04758226137907793 -0.02875716649963752
0.03156977182552139 -0.04474690332322943 0.05494660965162386 -0.008949889331687846 -0.027670468977053147 -0.046212772136101886 -0.028333653082971637 -0.05746366559263102
0.04452251833579908 -0.03467017102642709 0.03225659240833396 -0.004215314177357441 0.018793900920216766 0.02565391902542252 -0.029796511411236695 0.00572478359105343
0.03289079540539399 0.016659848497479177 0.04630069455802786 0.03747172750920288 -0.052398548249251 0.05036178536632383 -0.0033143781497485844 -0.010781128727435224
-0.009833270622157097 0.005369635786078947 -0.022466623241071734 0.03958320636368184 0.018594660262731506 0.020768014113385514 -0.016801644783005398 -0.051249566007573744
-0.05638138484361798 -0.02194316317111278 -0.01658161187756119 0.04372867103087489 0.007045846215845311 0.05520590335957548 0.02196878984738616 -0.060100644535305274
0.005272454262122983 0.040335903201910286 -0.029306267843467373 -0.030628492153328756 0.04581213007118717 0.017902322635766427 -0.01408101539882933 -0.010070919676831679
-0.009713849971674082 -0.01489662788334673 -0.03692650846032187 0.057746264956292724 0.04155081977702116 0.052299380836906016 -0.04532357845450263 0.05881350634068475
0.04596091935880816 0.0409323532275538 -0.03338840502494166 0.028012825786777884 -0.05712358125861334 0.032354019798541966 0.027317241154933173 0.0547585841063793
-0.028843232919071742 -0.052594038808531814 0.018793195667883737 -0.05287948044285213 0.04002530872795563 0.003147533542753643 -0.019916858224126307 0.05347165112252005
0.05362253869746141 -0.03968620194078386 -0.02312890913104707 0.01218530358331432 -0.050450198505644896 -0.025785968179304918 -0.04673388051230395 -0.05203165196215742
-0.01798086979126805 -0.045057088922856835 0.031544513704264546 0.05395458161674115 0.0531130141977089 0.00808568341533722 -0.01252589873594578 -0.055701381825659396
0.00594094762212643 0.030855756039989527 -0.016215073256402385 -0.008811226401168278 -0.007731170468336012 0.04309339896926858 0.058666152956988016 0.03205120649647159
0.02388579644726233 -0.03869877703532361 -0.009936150363682597 0.02094212122666466 -0.040235563485938236 -0.05265081836533013 0.010751894223968014 0.02888079447339436
-0.056505032066130605 0.02321420474762365 -0.04260216014221368 -0.0395506279968962 -0.002540093221546147 0.012383054437588553 0.02834242249223712 0.01834591947420425
-0.058797152637475536 0.0009241402930068832 0.05507514093144162 -0.02672638361383638 -0.03506278128668268 0.007091632938564777 0.03995869986104186 0.02880846303753367
0.023546356726794764 -0.01216348623951405 -0.044006054973071744 -0.04282235011864868 -0.03460017000868283 -0.05106064926715139 -0.0018700028737331212 0.027570054705289573
-0.026421805398272782 -0.024863896296448106 -0.02097443555527716 -0.036801018500329935 0.03645050589946383 -0.026415350943358982 0.0024701413652759665 0.028221945035259557
-0.03710381911270285 0.04116230530169147 -0.01689796263506091 0.04653432173649006 -0.01813255702992213 0.04440302459709544 -0.03663191703131126 -0.05577001657740063
-0.03748134006579517 0.0461164014117964 -0.03958728883357963 -0.026489405887075688 0.0299674625833321 -0.056758449075269106 -0.02695822495642964 0.00530754900439459
0.04695648145026809 0.0349336243606027 -0.028929398171416078 0.03712057282849447 0.01068234438562515 0.004389695932988905 0.03137445002822162 0.045779418571362696
-0.026055834916969466 -0.008762879478632394 -0.03953436111116751 -0.055263360243849965 0.010695358054341863 0.018858221865451306 -0.037019630700179045 -0.039650495632029596

encode2.bias f8 [32]
00000000: cd45 79a9 4c8b 97bf 3db1 e0b8 83b9 b23f
00000010: 326e febd 09a2 66bf 079e 6927 78c2 84bf
00000020: a2ee b969 b6b9 9c3f 3906 7db9 2486 9b3f
00000030: efcd 1eca 2d2c 8abf a58d 3f2a 3be0 b13f
00000040: 3147 c588 33cf b83f 1747 aa74 faf3 8c3f
00000050: cd0e 907e f2bd 753f 4049 4cd1 e4a2 b23f
00000060: 22f9 6943 59d1 b43f a790 2e03 616e 8d3f
00000070: 6ec5 23af 3251 8a3f 2f9c a483 e6ca 97bf
00000080: 2eb6 141a a4ed b03f d9fc 09cd 6803 a63f
00000090: 9baa 4045 78bb ac3f bd03 d3f2 5ab0 903f
000000a0: ec18 666c 4922 933f b4d1 305c 83be ab3f
000000b0: f805 b928 6771 a93f c2e1 62ef 35ca a83f
000000c0: 58fb 78e1 5628 953f 64c5 56c2 b503 a43f
000000d0: ca7f 8f0a cdc6 973f de66 0e2b 8b67 a43f
000000e0: 723f cf02 44c9 97bf 474b 40f0 562a b53f
000000f0: bb65 c9d5 2b86 72bf 2096 1820 dd6a 49bf
-0.022992322772841512 0.073143227230223 -0.0027628126408225867 -0.01013654585149394 0.02805218715955838 0.026878904172241234 -0.012779576998446422 0.06982774526073017
0.09691164101721196 0.014137226758325334 0.0053081009327830666 0.07279806241812015 0.08131940742348268 0.014370687398532601 0.012850185365524704 -0.023234941277362416
0.06612611424198953 0.04299476149480492 0.056117781118094366 0.016297741957490553 0.01868548130144003 0.05418787479758028 0.04969332096198892 0.04841774508662723
0.020661695014719456 0.039090805027977266 0.023219302911343033 0.03985247517193867 -0.02322870509288983 0.08267730107790526 -0.004522486906887331 -0.0007756786073442358

decode1.weight f8 [32, 32, 3, 3]
00000000: e016 9310 37e6 a33f 8b2a 57ef fcc6 a4bf
00000010: 6437 cf83 dff1 a93f d30c 2052 86e1 9c3f
00000020: 2706 721c d1fd 9dbf f025 30b3 2525 8c3f
00000030: d5f1 fee2 6671 93bf 77b9 9575 478d a2bf
00000040: 6859 5be8 f924 a1bf 8466 5881 eeca 7ebf
00000050: ea78 a87a d5a0 a63f 4c95 1110 c88e 8c3f
00000060: 2cdb 2aee 10ba a7bf ea04 6a79 21d2 b13f
00000070: dd3b 4866 3347 1dbf a503 0d61 8401 a33f
00000080: d61c bb2e 982a 94bf 4f61 9cfa 0a49 80bf
00000090: 5433 7e0c 9bbe 7fbf be23 2419 525a a33f
000000a0: 4e35 db29 ec15 803f b45b bfd0 a7b5 aa3f
000000b0: 604b b4c7 85f0 a3bf 1ebc b129 f764 a6bf
000000c0: df77 27bd 985a 903f 871b c04c e596 b63f
000000d0: 2846 456b 73f1 9f3f fdb4 580a bdb4 95bf
000000e0: c9c5 b9cb b44e afbf 5eae 0bf3 0938 923f
000000f0: a2cf 6aff 74cd 9d3f b77d 1290 f862 bd3f
00000100: fddd 6fa2 d322 abbf 7310 bc68 1adb abbf
00000110: e8fb 5258 1208 85bf a504 f737 58fb a83f
00000120: ce08 c037 53d3 9abf 0b14 3b72 3cdf ae3f
00000130: e6d9 98ff 68a2 643f c0fa 852a 6220 b13f
00000140: 2bbd 3c34 8c99 ad3f c1ec 3264 01dc b03f
00000150: 827f df0a a5f6 9ebf 9cb0 f26e 5153 a6bf
00000160: c99d e0c1 1da3 9c3f dedc c29b e5b4 a0bf
00000170: 7d85 f0b4 a6bd a43f ea7a 3307 f48e 963f
00000180: bea7 d189 d3ee 503f f481 8c56 b9a6 b0bf
00000190: b2fb d179 daa8 9bbf fae6 ae56 a459 a63f
000001a0: 72aa 9bd8 da8d ad3f eb5e 4631 91db 8f3f
000001b0: 61bb 1310 6e81 a3bf c8ca da46 9e77 963f
000001c0: 5ab5 2deb 49cf 993f 1928 026e cd9c a03f
000001d0: 5fb2 8065 845c bbbf 7907 b943 95c3 a7bf
000001e0: 908a eefb 2da7 833f 15b3 989b a30a b03f
000001f0: 93c8 dc19 663e ae3f 6f24 edfc af4d 6c3f
00000200: 5c71 995d d4b5 a8bf e3df 4826 bfa2 b1bf
00000210: 1b6a 3e7a fc84 7ebf 5a34 a6de ad3c b33f
00000220: eed8 fb79 2b45 a33f 0f72 52fd f89a 993f
00000230: b923 2d3c c42e 84bf 86c0 c9af 33c6 a9bf
00000240: 50c4 db9e 320f a53f 3c14 1253 3c7d a73f
00000250: c206 d5ac 48b6 8ebf bf4e f895 4885 a1bf
00000260: 805e f7d7 71b3 b93f 1b72 073d a310 a73f
00000270: 19bd b19d 94e4 a1bf 6f3d d518 c37b 983f
00000280: be17 d350 7058 6f3f c88e cc19 a0c9 a83f
00000290: 4d3e 3a1b 0caa a9bf 1fc9 c294 2124 8f3f
000002a0: 25ad 086f 0ec6 73bf 764e a6a5 2a45 aabf
000002b0: 4cd7 3fa0 25eb ac3f f38a bdb2 3111 a3bf
000002c0: e0e2 2bfe 2ec7 a23f 6b36 3b5b 8307 a13f
000002d0: be5d 6342 ef84 813f 3b01 6801 b9fd a93f
000002e0: f5d3 3ed5 6792 b3bf fb88 c4cb aa4b 823f
000002f0: ce8d ff42 6d68 9c3f 1973 1f2e 0550 a8bf
00000300: c3b6 9d0b a9bb b0bf 00e3 70b2 f488 96bf
00000310: 0baf 3711 a628 aabf 3fce 4feb beed 77bf
00000320: 1e38 8bf6 4c11 b03f e118 da47 e2ed afbf
00000330: 2616 6c36 33ce b33f 7dbb 254a 6a66 a9bf
00000340: 7e2c 2b2b 784e 933f 007c 57f8 1f9c aebf
00000350: 526a 31df 9be8 76bf 123b b56f 7657 903f
00000360: be25 c9ff 1b6d a73f 59e7 a045 8e5d 833f
00000370: 4d65 bdf6 718b a2bf 50e0 3f90 f381 a1bf
00000380: 94bd aba4 af64 b13f 1774 2af7 c70c a73f
00000390: 1b3c 9372 1602 99bf 963a df9d 1f7d a7bf
000003a0: 2684 54be 51a5 a1bf 3e36 b7d8 0079 543f
000003b0: d2f9 5534 ff38 abbf 9bd9 5583 fbe5 933f
000003c0: 1181 aeec 30c1 813f 52cb 8a95 a3da b83f
000003d0: 80e3 bc6d ec48 94bf f3d9 7898 6542 a5bf
000003e0: ef5c fb78 2d76 a13f 6395 052e 8425 9cbf
000003f0: 0ce2 352a c337 94bf b60b 7663 39a2 923f
00000400: 7c5f aaa6 9cd6 a53f 555a 1836 3982 98bf
00000410: 685b 56a8 3aa2 973f 04a8 387a 1583 8d3f
00000420: 892a e6c8 bc19 a53f 4bed 537b 1854 a93f
00000430: af44 b138 bc73 7f3f a823 a51d 37d2 8e3f
00000440: 24b3 8254 66ba a8bf 6654 0049 a9f4 743f
00000450: 0b57 71c4 b782 94bf 41b0 b4f8 dcc7 8e3f
00000460: 668b 4739 25d6 a63f d84a 2ccb 6da2 98bf
00000470: 37fe 03c4 1ed4 a33f 6c3e 3353 9a39 93bf
00000480: 6591 48de f34b 7d3f c292 d9ae 5d2a 9abf
00000490: c06a 583b 12be a13f ebfc 829f 4d21 a9bf
000004a0: f244 7379 363b ae3f eca5 3d4c 3917 a03f
000004b0: aa95 8955 7f2c 933f 3c28 8807 3249 adbf
000004c0: ceea 11a5 4b12 9e3f d187 1f0d ae43 9abf
000004d0: 4059 6133 f85e a6bf 4f0c 5e50 c8b1 89bf
000004e0: 0893 98c4 17cf 82bf 6fd8 d83f 44ef 873f
000004f0: 0cbc b82d c835 8dbf f1e0 e63e 6719 a63f
00000500: 1fae 0d26 343f 9a3f 7af7 ec3b 43d4 6f3f
00000510: 967b 21ce 8193 ac3f cb15 c6bc f429 78bf
00000520: a49d f177 bbdd 973f 0ada 2ed5 56f6 99bf
00000530: 5b0b 7a6b 2bbc a0bf adb5 0a65 ec36 9bbf
00000540: 2f21 1092 20f1 96bf b9c2 1466 27d2 683f
00000550: 8f7e 5867 ae16 a1bf c75c ade1 13a6 ab3f
00000560: 4cd3 0f40 0410 a2bf 1c15 38f9 ec17 a83f
00000570: a7a4 d7bc fef8 9e3f fb25 2345 e1f9 68bf
00000580: 8812 9217 da46 a33f 18cc 671c 9727 8f3f
00000590: 4cb4 a21b 712d 72bf 64bd 4218 f6a6 943f
000005a0: 24d3 f2fe d539 96bf 638e ed27 8743 893f
000005b0: 5e22 ea01 6c4a 993f b377 5084 a6f4 94bf
000005c0: 14ad 7143 fb1d 7e3f 5e7e c8d3 1200 b4bf
000005d0: be3a a1d7 d7d6 993f 676a 9af6 b37f 8d3f
000005e0: af1d 8a40 ca76 883f 7214 edcd 7de9 84bf
000005f0: 3df6 2d6a 0329 953f 58e5 895a 8070 8a3f
00000600: aad5 e425 26f0 a6bf 4959 9466 f9ec a73f
00000610: 4833 bfcc 7b46 983f 4773 df38 f2b9 70bf
00000620: 156e 4a8e e433 93bf 6752 d2da c3c8 a3bf
00000630: 5d40 c51e 6c3d 9c3f 8762 cc9f 083c 803f
00000640: 1254 21da d791 82bf 4fec 8e7e 3016 95bf
00000650: a886 4c3e ec74 a0bf 84ca 033c 6863 ae3f
00000660: f476 5af3 68de a23f 085b fcbe eeed 8f3f
00000670: 58b3 4a94 f071 55bf 64d9 1df9 56d2 acbf
00000680: 862f 5658 9e0a 933f 96d1 7555 4b72 a8bf
00000690: 65ef b9f5 0291 963f 8c3c 856a 5bb4 abbf
000006a0: b7ab ff31 fa89 973f 0541 2ed5 41f2 753f
000006b0: 5ab5 1759 9e8f 7cbf 3262 123c db6c a3bf
000006c0: 6e08 39ba dff6 a13f d3c6 944d bbb1 a83f
000006d0: c10f f88b 6607 20bf ad11 fad0 67d1 af3f
000006e0: 1a3d 4870 648e b53f 4c42 fa1a 8b88 b03f
000006f0: bb9c 7a3a fbff 8fbf 745f ea61 339f a1bf
00000700: 35d7 216f 0367 77bf 667e 31b3 31f6 a3bf
00000710: 334d b1c1 f0cb a0bf 8e3e f2e7 2b80 8fbf
00000720: c0e5 1df7 b6bb a7bf 577b 76be 7147 b03f
00000730: 0e09 7de7 a521 463f e351 4a5d c558 9e3f
00000740: be91 8152 a653 a1bf 7cc5 c1a6 4dbe 87bf
00000750: 4f5c 3683 8afa a6bf d456 84a5 3d8b 9f3f
00000760: 5a42 4e0c a692 a83f d9df 5f0c 59ec 7fbf
00000770: 5f9e f851 6bbf aabf efc8 ccc6 05ff aa3f
00000780: d492 725c ea1b ad3f e1ac 958e 1154 a7bf
00000790: 205a bc00 4a2f a4bf 1877 1c9b 8eb1 a9bf
000007a0: 33fb d85d 11f9 a83f f200 7ce6 117d 8c3f
000007b0: d6cc 5c58 6b1c adbf 0685 7101 6c89 753f
000007c0: d99b 3f79 201e 863f 2df4 b1fc 2e6c 953f
000007d0: 1240 1118 679e 913f 298f d401 871a a4bf
000007e0: 90e0 a713 0888 873f 858c 1da6 ab51 a53f
000007f0: dcd4 987e aa61 9dbf 6335 ca39 a4f2 aabf
0.03886577679945247 -0.04058065816532971 0.05067347034456196 0.028204058420681143 -0.029288546906633208 0.013742727785955616 -0.018987281422356467 -0.03623412428247524
-0.033485231031295026 -0.007517749463227145 0.04419581529895018 0.013944209089639024 -0.046341446946306014 0.06961259092533437 -0.0001116871949948662 0.03712094959929083
-0.019693734981754606 -0.007951818249737256 -0.0077501350969101 0.03779846722506573 0.007854313876488075 0.05216717169940158 -0.03894441664501502 -0.0437390554806074
0.015970598740629668 0.08823998569287826 0.03119449941852373 -0.02119727492952438 -0.06114735590825721 0.017791896304443326 0.02910406884139117 0.11479142682445952
-0.053000081614239726 -0.05440599945544102 -0.010269301720084514 0.048792607146887414 -0.02619676616451088 0.0602969064180244 0.0025188494444379093 0.06690038240592866
0.05781210076963313 0.065857016527775 -0.030237749851834923 -0.043604416650255134 0.027965989073121898 -0.03263013388043999 0.04050942381605702 0.022029698314208902
0.0010335031322718925 -0.06504400599488475 -0.027011312184636878 0.043652663785406845 0.05772289175168489 0.015555509868860415 -0.0380968470216121 0.021940682482361834
0.02520480630794473 0.0324463078296306 -0.10688045003980438 -0.04641405536359761 0.009596213579986995 0.06266233967535258 0.0590698153086048 0.003455013014364065
-0.04826224939890508 -0.06888956722912058 -0.007451044311802347 0.07514464078686114 0.03763709892329979 0.02500523611216648 -0.009854825102267971 -0.0503402855000568
0.041131574527647374 0.04587734712644262 -0.01499611642305199 -0.03421999769866834 0.10039435885061643 0.04504881019576975 -0.03494705605487009 0.023909614935573694
0.0038263505617548146 0.04841327967576842 -0.050125482867880856 0.015205633499452418 -0.0048275531594683995 -0.05130894920435207 0.056481529056255114 -0.037240555828949605
0.036675900007997475 0.033260445486672584 0.008554333890443352 0.050763875409759206 -0.07645272213160566 0.008933386176583449 0.027742106642006985 -0.047485505943518365
-0.06536346944423159 -0.02200682009808741 -0.05109137497114887 -0.005841966417381494 0.0627639867700229 -0.062361785193432835 0.07736511305491742 -0.04960949092025311
0.018854024538808016 -0.05978488832965212 -0.005592926859288543 0.01595864350138771 0.045754313443989045 0.00945578718175326 -0.036220132226569925 -0.034194575651725345
0.06794259805950836 0.04501938717042025 -0.024422026389228173 -0.045876491567118524 -0.03446441124311432 0.0012495525614783089 -0.05316922677865289 0.019432001010011395
0.00866926405234428 0.0970861663907219 -0.0198094312647501 -0.04152219282370941 0.034104748743340234 -0.027486863430927665 -0.01974396653301551 0.018196961112618225
0.04265298399440007 -0.023934263159470188 0.023079792522902848 0.014410178940199365 0.04121198608762195 0.049469723753612437 0.007678733100946618 0.015049391357608702
-0.04829711705801845 0.005116139669572117 -0.020029898991501798 0.015029646243952867 0.04460254978382387 -0.02405711700982746 0.03872772352951553 -0.018774424865851833
0.007152512178923186 -0.02555223827075071 0.03465325331145186 -0.0490822083679577 0.05904550774142504 0.03142718368219363 0.018724431606093418 -0.057199061793725
0.02936666674620874 -0.02564880328271341 -0.043693310043340094 -0.012546124413125663 -0.00918406075204238 0.01168683357091657 -0.014262737174332706 0.0431625618252286
0.025631728003118078 0.003885394398280559 0.055812889492464254 -0.00589938736482538 0.023306779094495092 -0.025353771936091042 -0.032685620183676455 -0.026576703707794348
-0.022404202380159773 0.0030298966891212057 -0.03337616931480369 0.054001447008596375 -0.0352784469795667 0.04705753843522073 0.03024671580889007 -0.003048839550591207
0.03764993226744645 0.015212231211057456 -0.004437867954192386 0.020168156843906174 -0.021705001531432747 0.012335830598835423 0.02469795953450881 -0.020464517427278128
0.007352811334480753 -0.07812612219321965 0.02523362401580686 0.014403730357391354 0.011945324034299569 -0.010210974547258032 0.020664265971836782 0.012909891856213093
-0.04480094158717958 0.04672984482947357 0.02370637356925734 -0.004083582096396316 -0.018752642807710346 -0.03864109083329908 0.027578057649691668 0.007927005173358438
-0.009067236275010191 -0.020592458462243276 -0.032142050366258446 0.05935216648676536 0.03685310335752759 0.015590539172575926 -0.0013089036375888066 -0.05629226485227681
0.018595193997995384 -0.04774699609962167 0.02203755020899169 -0.054110390427575344 0.022987279225997272 0.005357987555626891 -0.006972902819581373 -0.0379398833112571
0.03508662365176539 0.04823098489795332 -0.0001222908667700678 0.06214451242434236 0.08420398465408532 0.06458348663932972 -0.015624964449058578 -0.03441773004777718
-0.005713475622646948 -0.03898768722933425 -0.032805942196001324 -0.015381186500490498 -0.04635402456819859 0.06359015369387798 0.0006753978804925635 0.029635509318341035
-0.033841321536587796 -0.011593443538205454 -0.04488022662842949 0.030804599025109194 0.04799384021965088 -0.00779375824458125 -0.05224166274666397 0.0527269177604398
0.056853603158094096 -0.04556326737914574 -0.039423287000478036 -0.050182777819129665 0.04877523680305842 0.013910426946950303 -0.05685744718211942 0.005258008858704649
0.010799649906358443 0.02092049996689498 0.017205820888477837 -0.0392648877844109 0.011489928340765482 0.041638721492540255 -0.02869287870108371 -0.052632457785061225

decode1.bias f8 [32]
00000000: f9dc 15d8 15cf b63f 4d84 e799 6f2e bc3f
00000010: 72fe d7f3 6581 92bf c6f9 95c2 f486 7fbf
00000020: 3014 7873 ffb5 ae3f 748c a848 ff69 75bf
00000030: 8e29 9c41 79c3 b13f 9296 c66e d2da ad3f
00000040: 56b1 0969 16d6 a3bf 40eb 041a 881b b1bf
00000050: bbd4 43fc 2e3b b33f 68e4 5d08 df23 aa3f
00000060: 2f59 09b5 9128 80bf e636 396d f1ee 953f
00000070: 2cbb ab93 a5d7 66bf 9d4e 2e99 ea60 853f
00000080: 7bd0 5ab6 9b4e 94bf 5169 c28b 0aeb b03f
00000090: 21ef f7a1 7659 b53f 1620 048d 55ba 6ebf
000000a0: 0b20 7f78 bea1 b03f 1d93 7bce 2f14 a0bf
000000b0: 854d 5ce2 f545 763f c7f8 fff0 8542 7abf
000000c0: 3b17 c0db 7e00 73bf 4cc5 be28 afb8 a63f
000000d0: a3c9 9b35 31d1 a93f d6cd 0878 a3a9 9fbf
000000e0: be1b 4e73 c9db 823f e836 1af1 927a 883f
000000f0: f0a2 6a53 b512 9bbf 04c9 7735 ec87 a9bf
0.08909737134478125 0.11008355624609685 -0.01807174015811914 -0.007697063535827947 0.059982283444732665 -0.005228039934567542 0.06938894130522597 0.05831010439150676
-0.03874273330879656 -0.06682634959444744 0.07512181910336128 0.051054925700506015 -0.007889879548355154 0.021419307986710566 -0.002788375274909957 0.010438759612760246
-0.01983111668114688 0.06608644401641085 0.08339635328587437 -0.0037509604372907386 0.06496801797686673 -0.03140401263752877 0.005437813267934803 -0.006411097725502474
-0.004639144459366136 0.044377778743533186 0.05042413501168432 -0.03092055721408634 0.009208272773106315 0.011952541334973657 -0.02643855401643952 -0.04986513283428631
