MNIST-Noise-Reduction/MNIST-denoising.pth (torch, 230527 bytes, 10 tensors)

encode1.weight f8 [32, 1, 3, 3]
-0.005027633861896982 0.1423684867848755 -0.06591039358546465 -0.049703715725422495 -0.09627839706768843 0.21711568095263192 0.2936731961618501 -0.20812189368415324
0.0731589706784321 -0.31747087836265564 -0.2607908844947815 -0.11269891262054443 -0.17979022860527039 -0.1300995796918869 -0.32193273305892944 -0.025404691696166992
-0.20537178218364716 -0.25493621826171875 0.05465514528968242 0.09963300336918432 -0.07164075446656046 -0.27166441109487355 0.23234005593006754 -0.0342259048004143
-0.16656779358543625 0.1012340977124402 -0.10080864950914468 0.14363690189404138 -0.0932685548355689 0.15781485274945944 -0.13055406887982499 -0.05782156898999844
-0.14199539170985095 0.09358730369279733 0.18389024219207933 0.08367918068462142 -0.04789305614541596 -0.15713495139957523 0.20937723509471987 -0.1577534707790864
0.16062709245863635 -0.032117197442012975 -0.19652895139290505 -0.16773190777408684 -0.1426703478727081 0.3399372841801092 0.26658183160926163 0.15383244207406116
-0.06416872531186744 -0.042902425963819595 0.10756203224556804 -0.13158556673063335 -0.044983308445991584 -0.23741136947670546 0.13558414136920388 0.07438739080606158
0.1750941184403057 -0.12123435318528983 -0.14390715688296712 -0.15841294717616416 -0.20686515644230133 -0.28917195319678646 0.19931116513400624 0.018972826749237708
-0.3104983845155854 -0.25955886591772015 -0.012501099679515367 0.2744299531193242 0.1765404817691206 0.284135448076207 0.03132801466519932 -0.0024151017655380724
-0.12026372202211082 -0.04155266016723118 -0.12348212188470202 -0.26643456423500533 0.14248960499954397 0.32930414625864296 -0.10314651901124762 -0.3104542329249823
0.13857980462780342 0.21353676814169606 0.21355287646904728 0.2694169011715136 -0.20400832374517222 -0.2625595663489116 -0.23614293816862963 -0.051583969068902044
0.1980367126524961 -0.2803177994880256 0.27504204376584523 -0.09518631749410486 0.057991516651698195 0.012768210297281712 -0.2784557151221368 -0.01944440155030973
0.1627659643466078 0.1808539723420114 0.2203532623150318 0.3077434143299355 0.27216641832716815 0.14948170907973427 0.3165988555796741 0.01077085726984405
-0.23424275389509938 0.054147751713078854 0.3321636690819173 0.039262718694067125 -0.32421808013019404 0.041975440636550454 -0.26122801008418817 0.09166172206682113
0.21902629120311057 -0.07845364955101357 -0.22611629646124823 0.014545326117964979 -0.0074078100835357034 0.26039366619359994 -0.16289531516548636 -0.08554526163089823
-0.03615819186044827 0.17667501595369903 -0.08109319828055653 -0.07713841241742628 0.00879424797597655 -0.30140896703463915 0.3186077300065998 0.15729787753419708
-0.2794947610744882 -0.08939181349214265 0.3478206561977819 -0.18787692436181203 0.3246206668154344 -0.21265608768694874 -0.06253723499219536 0.07138067999109624
0.3621020425245803 0.2567892379229127 0.21572710873206208 0.22107204644772235 0.006489621711277354 0.11797559001027758 0.2350073213615988 -0.11619558047068757
-0.09021874123223002 0.11597770837676576 -0.010421001990831995 0.17907489834966192 -0.28366574937762506 0.27394254817835634 -0.172845374070185 -0.01769453047222241
-0.31899366960256226 0.22757426974758635 -0.04616365810112516 -0.3230025807191643 0.12219789891956101 0.27966934009357425 0.20409551201397338 0.32636506913781876
-0.17581921722908642 0.016210720253082872 0.025865958364898328 -0.2910749957833122 0.14855013582416945 0.01634545094798091 0.2124572606161186 -0.014458526097575223
-0.09824857095572417 -0.27237610305856186 -0.22909416958743434 0.2837469638591997 0.3053320999521719 0.14187734671127641 -0.22166548354949625 0.24917494999571418
-0.16930333998452965 -0.2653915197295268 0.047858978411307776 0.17566039190820532 -0.1919183887433825 -0.13957548323778637 -0.14105042682744687 0.0014662810940976342
0.1181425186236539 -0.13964120544631012 0.27110773028491064 0.32539513395524355 0.032367265045225774 0.08214367904751094 0.24730275190833467 0.35052135856118727
-0.01930054817610187 -0.10300196373520921 0.3692451681841785 0.3090454795545719 -0.06430292366115782 0.18971973305828418 0.11441689909029258 -0.04048045008092315
0.3078303427097932 -0.18908975225053554 0.20723852871173248 0.2612493333474957 0.07435777176916045 -0.032368291011685445 0.10550676040618988 0.3003250312298554
0.25560043544893835 0.1600792129087891 -0.0508182594468354 0.23040397279039962 0.20449790532439224 -0.0902143592731589 0.05922953138643986 -0.010041972975127853
0.0011241894003019843 0.24159344365667246 0.23117747747001957 0.1243202025252449 0.0413580493552158 0.3160056268258289 -0.16621575059534108 0.04190393725595689
0.2898795047010774 -0.14315416809344853 0.2940684980671807 -0.3113731162408874 0.03919064529182682 0.05798908962559295 -0.021634865595652572 0.10833905121971753
0.23099624327300589 -0.32687363909984357 0.24966863368290151 0.18208330016178081 -0.12935751600478965 0.039401792253834014 -0.10385292961972996 0.1640334304421524
0.0799278765982803 -0.017525118056138742 0.1787514623782288 0.21233775837762497 0.24123806959581562 0.31114829282008155 0.11087302134213545 0.16783688340209513
0.07286354140314022 0.11640976470026454 0.16593684013688176 0.01809658140648198 -0.29643799629110834 0.0037748182712165797 0.04044519542223189 -0.11784705515709838
00000000: 89b2 3530 db97 74bf 156c 5c6d 2139 c23f
00000010: d582 eae8 80df b0bf ba8c 0ff3 c372 a9bf
00000020: e48e b776 b3a5 b8bf 25f6 9156 72ca cb3f
00000030: 2b86 4ea9 8acb d23f 543e 7afb bca3 cabf
00000040: 3e0f 79da 8bba b23f 0000 0060 7151 d4bf
00000050: 0000 0040 ccb0 d0bf 0000 0000 d6d9 bcbf
00000060: 0000 00c0 5d03 c7bf 0000 0060 1aa7 c0bf
00000070: 0000 00c0 8b9a d4bf 0000 0000 b003 9abf
00000080: 0000 0060 9f49 cabf 0000 0000 e050 d0bf
00000090: c295 275b c2fb ab3f dea9 126b 8c81 b93f
000000a0: eea0 7e69 0c57 b2bf e7ee 4820 f362 d1bf
000000b0: 239e e2a6 51bd cd3f 7d6b 96cb 0e86 a1bf
000000c0: 0317 02ed 1752 c5bf 613d ea52 7aea b93f
000000d0: 2fb3 cb7c 98ce b9bf 0a1c 11aa b162 c23f
000000e0: 4c92 c3b0 72e0 b7bf dae4 b0ef 4633 c43f
000000f0: 0f6b 19e8 feb5 c0bf cd82 a1e7 c99a adbf
00000100: 63cb c9ad e72c c2bf 386f ae68 56f5 b73f
00000110: 365e 2228 b789 c73f 9782 65b0 ff6b b53f
00000120: 323a b34b 7085 a8bf c0ec a882 ff1c c4bf
00000130: e91d a18c dfcc ca3f 40d0 e906 4431 c4bf
00000140: 870f 7bb6 6d8f c43f 4924 4e51 aa71 a0bf
00000150: cc8f 7955 dc27 c9bf 7f54 3139 3d78 c5bf
00000160: da71 1c9f 0543 c2bf f9a7 8f4f 88c1 d53f
00000170: 3c0d 1e3e ad0f d13f dacd e20d c8b0 c33f
00000180: 5ff6 a390 5c6d b0bf 8709 de88 4ef7 a5bf
00000190: 1838 c972 2f89 bb3f bfe9 ddbc cbd7 c0bf
000001a0: 7967 485d 0d08 a7bf 4fee cce9 7e63 cebf
000001b0: 7abb 8436 d25a c13f a62e bf52 0d0b b33f
000001c0: f226 36ec 7b69 c63f e620 15ee 3609 bfbf
000001d0: f280 3cba 8c6b c2bf 983a b11d e046 c4bf
000001e0: 7d01 cdb4 8e7a cabf 18a4 7914 cb81 d2bf
000001f0: 0f36 fd3b 0783 c93f fb43 9ad9 9c6d 933f
00000200: 2e23 bd9d 34df d3bf a438 20ca 9c9c d0bf
00000210: 6be9 4c32 2d9a 89bf 0d2e 6ca6 4290 d13f
00000220: 9b29 cfe5 e098 c63f 8bc8 4772 462f d23f
00000230: 230c dfbc 390a a03f 2e16 2fe3 d5c8 63bf
00000240: 73ee fa70 9ac9 bebf 66ca f5e8 6346 a5bf
00000250: e3ae 223b 869c bfbf 7a74 fa8e 430d d1bf
00000260: 9b1a bf70 193d c23f 7f8e a7b2 5113 d53f
00000270: 297c d96d cf67 babf fe52 546e 7bde d3bf
00000280: 1d99 61a8 fbbc c13f 53c0 d43d 2c55 cb3f
00000290: 575d 335e b355 cb3f 3a5d e162 203e d13f
000002a0: 2974 4cdb f11c cabf f51c aea3 c6cd d0bf
000002b0: 74cc 4e8a ee39 cebf ce30 4cc8 3669 aabf
000002c0: 1bfa 1f5a 4459 c93f 966a 5211 baf0 d1bf
000002d0: a1f4 bff1 499a d13f 46f2 a968 215e b8bf
000002e0: bdd0 ed66 10b1 ad3f 0601 3e2d 3826 8a3f
000002f0: 215e 75eb 37d2 d1bf 4cd8 feb2 3be9 93bf
00000300: 73a2 e2de 83d5 c43f a4c2 4714 3926 c73f
00000310: 53e0 9a23 8934 cc3f 17d0 066f 11b2 d33f
00000320: 9437 72b2 2c6b d13f a17f ec75 3722 c33f
00000330: 479b aad8 2743 d43f 3b79 cafd 070f 863f
00000340: 83f7 a6a3 aafb cdbf 82ea 840d 41b9 ab3f
00000350: ae13 e867 2b42 d53f 2a73 7c39 3e1a a43f
00000360: fe96 bb30 fdbf d4bf 20d1 8911 ce7d a53f
00000370: 7816 07b0 f5b7 d0bf 1a71 9282 2477 b73f
00000380: 743c d7b2 0d09 cc3f 83cd 12d3 8915 b4bf
00000390: d164 32f9 60f1 ccbf b6f8 e39f f0c9 8d3f
000003a0: cc42 b3e0 a657 7ebf 78c5 1832 4aaa d03f
000003b0: 1f58 a7f1 c0d9 c4bf 0e50 0855 4be6 b5bf
000003c0: 37d6 0b97 5383 a2bf 1b4d c573 499d c63f
000003d0: 4204 8b1a 86c2 b4bf 0a24 99ce 57bf b3bf
000003e0: dd0d 99fb b702 823f 7ca2 08d6 484a d3bf
000003f0: aa64 28ad 1164 d43f dfaa de3b 5622 c43f
00000400: fbf7 8dfe 3de3 d1bf 2898 7ac3 61e2 b6bf
00000410: f088 cf91 b142 d63f 5c4d e7de 590c c8bf
00000420: 01fe e4c2 95c6 d43f 8f93 f48e 5038 cbbf
00000430: 03e1 12b3 7002 b0bf 9ac4 2016 0146 b23f
00000440: cd4d 9d0b ae2c d73f bdfe b520 3c6f d03f
00000450: 2ab3 6e26 f29c cb3f dbc0 c6bc 164c cc3f
00000460: 2cac 3690 dc94 7a3f c808 d2f4 a533 be3f
00000470: d6c8 c84b b814 ce3f f0b3 0f5a febe bdbf
00000480: a526 144f 9318 b7bf 6511 8b10 b7b0 bd3f
00000490: 16f9 ef35 9b57 85bf 1721 f91f edeb c63f
000004a0: 739f 2463 9427 d2bf 272c 5a53 4688 d13f
000004b0: f9ba 7216 cc1f c6bf 2ffb c8d6 831e 92bf
000004c0: fabc a46c 646a d4bf 350d fd56 2721 cd3f
000004d0: c8b9 9d53 c3a2 a7bf 2498 2d04 13ac d4bf
000004e0: 88da 7f8b 5c48 bf3f d654 593b 1ae6 d13f
000004f0: 4921 ae3e cd1f ca3f cb3c a050 2ae3 d43f
00000500: 6fed 007e 3e81 c6bf d88d 5305 8b99 903f
00000510: 381a 0715 9b7c 9a3f 86a6 e404 f9a0 d2bf
00000520: 7130 97db b003 c33f 6330 0aa5 dcbc 903f
00000530: e16d 12ad cc31 cb3f 2f4b e685 6e9c 8dbf
00000540: b231 227f d126 b9bf fc4c b62d 9c6e d1bf
00000550: 1489 0a2f f552 cdbf e554 8706 e928 d23f
00000560: 52ab eda5 8f8a d33f 1987 1572 0929 c23f
00000570: 61a1 3fd9 885f ccbf 4365 9bfa f6e4 cf3f
00000580: e126 2b5a bbab c5bf 8af0 77b6 2cfc d0bf
00000590: 4a6d 31d6 f880 a83f 6661 392b 0a7c c63f
000005a0: 1bb1 9321 c890 c8bf 3d33 ea03 9cdd c1bf
000005b0: d9c5 27bd f00d c2bf 091a 2356 0706 583f
000005c0: 3973 c18d 963e be3f 0970 4855 c3df c1bf
000005d0: 020e d13c d459 d13f 3e61 a71c 46d3 d43f
000005e0: 1c11 a931 7192 a03f be09 153f 5e07 b53f
000005f0: d21b d4d7 9da7 cf3f 6c77 e422 f16e d63f
00000600: ac4c d8dc 85c3 93bf d99f aa31 565e babf
00000610: faa6 637c b6a1 d73f 2977 eab0 66c7 d33f
00000620: 7d6f 290a 2876 b0bf 3512 7278 bc48 c83f
00000630: 95d9 b307 6d4a bd3f 6f29 7382 dab9 a4bf
00000640: 13ec a909 7eb3 d33f 9a5f f6ce 1734 c8bf
00000650: c2de a4c7 ca86 ca3f 3113 b51f 4fb8 d03f
00000660: b6b4 f365 1c09 b33f cb2b a59e 9392 a0bf
00000670: 0f95 73b5 7d02 bb3f a55a d37a 8638 d33f
00000680: dd2d c6ed c15b d03f c738 1bc4 797d c43f
00000690: 2344 bad4 d904 aabf 2d6a 009c e07d cd3f
000006a0: 9f00 bcc3 fc2c ca3f 2833 b5ca 4918 b7bf
000006b0: 753a 8648 5553 ae3f 32b9 1fcc e290 84bf
000006c0: 8317 5d2d 316b 523f 887a b7b1 88ec ce3f
000006d0: fb1a a73c 3997 cd3f 58f9 13e4 72d3 bf3f
000006e0: 0f63 d0da e12c a53f 1c69 24aa 6f39 d43f
000006f0: eb8b 71c6 8e46 c5bf 830a 2dd0 6e74 a53f
00000700: 1032 1ec4 628d d23f 61ac 1f33 e052 c2bf
00000710: 52df 7ead 04d2 d23f 0bed c681 89ed d3bf
00000720: 12d1 acd7 cb10 a43f d7f7 eef6 beb0 ad3f
00000730: ec29 bf40 7327 96bf 8f4c dea9 1bbc bb3f
00000740: 2e9f 2def 4891 cd3f f6ee 7669 7feb d4bf
00000750: 01a6 404c 24f5 cf3f 52da ab6d 814e c73f
00000760: 3dbe 5d7e c98e c0bf 129c 44c2 782c a43f
00000770: e37e 4f08 1b96 babf ee90 9925 0cff c43f
00000780: 2241 0740 2776 b43f 997c a3c3 1af2 91bf
00000790: d469 83f2 53e1 c63f 720b f837 e22d cb3f
000007a0: e86a bb99 e3e0 ce3f 3595 7787 dae9 d33f
000007b0: a455 aca0 2c62 bc3f e824 a3d2 ad7b c53f
000007c0: d0b0 655f 2fa7 b23f e89b 52c4 07cd bd3f
000007d0: 5274 cb1a 6b3d c53f 06b0 3d05 e987 923f
000007e0: 502c d712 d7f8 d2bf a834 be20 5eec 6e3f
000007f0: 4ed5 3c8f 3bb5 a43f a963 d47f 392b bebf

encode1.bias f8 [32]
-0.04574184771101007 -0.03840970993041992 0.3290515573852666 -0.11208520852393936 -0.027836174628312817 -0.22854876398280713 0.08392039698391394 0.26834720123334754
0.2025986623081645 -0.18133735339355533 -0.20330748746268543 0.01868025456021155 0.30528659944118813 0.008049490290584266 0.2867666835228358 0.30801688007955463
0.18156765513632067 -0.3153025001062479 0.0737331074374528 0.2197303955554836 0.27967739045318485 -0.2544009543074558 -0.08934397841673024 -0.20413244716602488
0.19969445632886404 0.26533716280763076 -0.12881809830474888 -0.2879458294452091 -0.25794642524493205 0.2714638721986347 0.21995734581889848 0.17307556973295612
00000000: de6d f4b7 796b a7bf 0000 0000 70aa a3bf
00000010: c0b9 6a43 2e0f d53f dac4 f9c0 9db1 bcbf
00000020: 6a88 b20e 1681 9cbf ed76 6cfd 1541 cdbf
00000030: 2f64 83a0 ce7b b53f 8e4d 51bd 992c d13f
00000040: 55d8 69c2 c0ee c93f 7e2b 2ff9 0f36 c7bf
00000050: af92 d7d0 fa05 cabf b012 aba9 ea20 933f
00000060: f371 20ce d089 d33f dd56 614c 407c 803f
00000070: 9107 d4a5 625a d23f 64b0 a36e 8cb6 d33f
00000080: 2434 69e2 9b3d c73f 6f6a 9389 ea2d d4bf
00000090: 5389 1345 2ce0 b23f 7d89 6c27 2020 cc3f
000000a0: d054 5bff 3be6 d13f f296 b4f0 1a48 d0bf
000000b0: 7ff6 6439 3fdf b6bf 09b5 5014 0321 cabf
000000c0: 0fff 8f83 968f c93f 5a05 2bb9 48fb d03f
000000d0: 1808 ad87 1c7d c0bf 3027 1f58 b46d d2bf
000000e0: 8e03 23b9 3182 d0bf cddf 4801 aa5f d13f
000000f0: 1450 67f3 8f27 cc3f acab de1b 5727 c63f

encode2.weight f8 [32, 32, 3, 3]
-0.030217738386745966 0.0018573777828273191 -0.02015207566532812 -0.03844836012423701 0.02623408640845329 0.013833102330017192 -0.030511948911699144 -0.012716573837061098
0.02910786830255804 0.025734495371580124 0.03380202129483223 0.0028526969254016876 -0.023729518055915833 0.042434047907590866 -0.04989798367023468 0.0029499344527721405
0.050842251628637314 -0.037985507398843765 0.00031024214713862953 -0.038884604348332893 -0.04035492564636949 -0.0104115321240223 0.04692022121833008 0.015395551668547685
0.04649801312535812 -0.032963506409255425 0.04493151096390834 -0.011845046391664714 -0.013328675455791925 -0.034864739837041234 0.016878178371924065 0.058425729122421916
0.012707694756543776 -0.010477578695441176 -0.04080284048321092 0.038048729863695965 -0.03432322773384339 -0.0007475359485262473 0.007832384975723444 -0.00588224609413247
0.03290040440583345 0.030818213205173025 -0.03022117176114752 -0.03509721718951414 0.04665746105990167 -0.047584862112039744 -0.0034988782739474875 0.007923379342811973
-0.0522100384549326 0.051195933301310455 -0.03508606512148368 0.0389401882835121 0.002963310418623248 -0.029738850139322513 0.05776660924141328 0.03618581164035746
-0.05245466021446705 0.009594303856270258 0.056421373595010885 -0.0064387704692395195 0.021163760709256383 -0.0234866393011787 0.05547848800539655 -0.0071856481185638916
0.03759293746131396 -0.045670657709282615 -0.035718184328375216 0.03259119811682199 0.04980408107003376 0.020989183283987446 -0.04983931548305572 -0.053942923076634404
-0.0497746183372138 -0.056299934678176816 -0.05321781227621729 -0.019781352493376925 0.03825697578794699 -0.04252658628473877 -0.05078052679704562 -0.031162526081445218
-0.034717308819974216 -0.003048812717104751 0.013787571324764686 0.042180669289152935 -0.02679107373834209 -0.01725588117582367 0.05782435512160711 -0.014905588755751088
0.01741195583628033 -0.044197595263582225 0.0002509380700844143 0.058385304462744876 0.021819566560340564 0.02771048489052006 -0.04409518815162749 -0.03217832316326938
-0.03718974637640642 -0.019071754273391046 -0.009584436706561814 0.003539121151726718 -0.031068631700191186 0.001891731066513921 -0.03908353530722788 0.010698409870574665
0.036916104422695266 0.028575830124427434 -0.02649767054067369 0.049457556570028045 -0.007428955467218694 -0.01367099685052637 0.027894043642454923 0.005931950481970958
-0.0033538351999743044 0.0271440109315598 0.05436080673434085 0.028327206020400574 0.0003107704903462141 -0.022975739753849228 -0.01553356214066002 -0.002742380314770358
0.015613213993406693 0.03703532505312391 0.04831679480118955 -0.012246474932385041 -0.006697995012830782 0.04816613898280407 0.03242478786189746 -0.027475504201082107
-0.03607047071978603 0.05194854285126936 0.0007027121337268195 -0.055775575527614744 -0.02176249847206019 0.010610838153561251 0.026406316184248216 -0.015815324173245635
-0.018508983087207 2.7768123002800937e-05 0.051302523237264704 -0.05021261131266366 0.037629973716007785 -0.05290444027621855 -0.053046104748467916 0.04676335448616443
-0.014831723998985483 -0.02743888374902705 -0.0285052542423765 -0.054839704486296804 0.05622138043724438 -0.05818561765447855 -0.037101049480814156 -0.040230999321859966
-0.0056260639146366795 0.019771224046255514 -0.021055855456778214 0.033491055659924183 -0.032619368818165885 0.01865111308124553 0.04352129241338216 -0.00593074840162481
0.03218208871819429 0.009945755697340129 -0.03556604754323584 0.05057358465774217 0.054991042631030926 0.029843325916925147 0.0310897145482557 -0.05786391240092178
-0.015982058491077474 -0.0012521139193495232 -0.0027914632197735007 -0.030515183156351995 -0.04571864544190665 -0.023196330701887275 -0.014355211799103233 0.011656342844532609
-0.008436954451978134 -0.0410127708619317 -0.056244562710263006 -0.05212287134750152 -0.017249374295518545 -0.043459208692381235 -0.001633800138115006 0.05515724202546496
-0.021248839094172876 0.013591760352764971 -0.005284560986489022 0.000369372754971521 -0.03688245435602878 -0.010372326065925827 0.005126488942486536 0.0073133199593625065
-0.023261337569018645 -0.049319099213554415 -0.05460169824742516 -0.03188635583395407 0.04316091001803894 0.016989980194848226 -0.0341155611270735 0.005306516080360071
0.03113936911639496 -0.03102170911830685 0.02865904752954882 -0.0469343602565071 -0.009224799448682559 0.057123950379988665 -0.03571541228891646 0.031009525238685297
-0.001835136828158139 -0.05022970137336042 -0.049781006789809144 -0.04814463760904037 0.04006038431727031 0.03803022227459428 0.041400988421106344 0.032058122589309714
0.0018431781159916239 -0.01199865041886479 -0.044828110569175406 0.00543589480452974 -0.005059183317465687 0.05238133571519051 -0.003302811134746288 -0.012628071312321238
0.03034649832759957 -0.04067665203789137 0.02967904720848621 -0.03560729716018524 0.016856735843065948 0.05082245830777483 0.008853303323714245 0.017778384879706205
-0.014548686721944641 -0.004102640895098869 0.05865344467437154 0.01260656375263275 0.025653945274025643 0.017987167728027262 -0.018523605548088174 0.03327103226102401
-0.005360156915402178 0.03510580908464824 -0.008365084947434924 -0.012709782414709731 -0.03801432736594277 0.056870934563644004 0.03095650329851681 0.020315267240369816
0.047061730829165906 -0.011177069185507763 -0.047153574610549885 0.027340119525960594 0.012855301833439083 0.016819929370591395 -0.04692704636943394 0.039813994781868964
00000000: 1148 8518 66f1 9ebf 690d 5935 686e 5e3f
00000010: 7166 b7e7 bea2 94bf 0e09 a3e2 80af a3bf
00000020: e8b2 a8bc 1bdd 9a3f af8d e090 8754 8c3f
00000030: f814 da3a 863e 9fbf e190 faa5 250b 8abf
00000040: 77bd a9f9 73ce 9d3f 0000 00c0 245a 9a3f
00000050: 0000 00a0 7f4e a13f 0000 0000 8a5e 673f
00000060: 0000 0000 8d4c 98bf 0000 0060 eab9 a53f
00000070: 0000 0080 3a8c a9bf 0000 0000 762a 683f
00000080: 0000 00e0 fe07 aa3f 0000 0020 d672 a3bf
00000090: 7982 34e0 ff54 343f 26ec fccf aee8 a3bf
000000a0: 3770 c49b 66a9 a4bf 649b ca2f a452 85bf
000000b0: 93c0 4e5f ed05 a83f 49c1 5cf7 b387 8f3f
000000c0: e89f 676b 96ce a73f 767d fabb 97e0 a0bf
000000d0: 5fb9 4c54 4301 a73f b973 f936 3742 88bf
000000e0: 65f7 7389 104c 8bbf 866c c48a cad9 a1bf
000000f0: 7f6e 7e60 8348 913f 9cc9 a627 fae9 ad3f
00000100: 4762 18eb 7d06 8a3f f79a b4ce 4475 85bf
00000110: d028 eb22 1ce4 a4bf ba7b d684 1f7b a33f
00000120: 3854 3869 d092 a1bf dce6 ca39 c97e 48bf
00000130: 3035 90ea 6c0a 803f 8c04 9f69 fb17 78bf
00000140: 457e e561 52d8 a03f 6f78 5947 cf8e 9f3f
00000150: ef96 7181 4cf2 9ebf a8e6 0430 43f8 a1bf
00000160: 53bc bb9a 7ce3 a73f 549c 1c05 0b5d a8bf
00000170: 4219 4cf8 ada9 6cbf 8b9d 35f9 213a 803f
00000180: 37a9 5f2f 46bb aabf 5145 6f76 5a36 aa3f
00000190: 5bf4 7bfc ccf6 a1bf 4204 5be6 f7ef a33f
000001a0: 898d bf2a 8346 683f f97d 1373 dc73 9ebf
000001b0: bd40 fcc2 9593 ad3f 9a2b 265b f286 a23f
000001c0: f9b0 4954 56db aabf 0615 53aa 2da6 833f
000001d0: d29d c524 43e3 ac3f 4127 7849 8a5f 7abf
000001e0: 592f 6df0 f3ab 953f 691b c4ae e10c 98bf
000001f0: ceba 3a27 ad67 ac3f d97b b7ba b26e 7dbf
00000200: fdf0 e9a9 613f a33f 5511 7ffa 2462 a7bf
00000210: aa30 2063 a749 a2bf b131 1924 cbaf a03f
00000220: c066 cea6 eb7f a93f 3a10 193f 307e 953f
00000230: 4b08 1cec 8984 a9bf c1f8 ed24 689e abbf
00000240: 17c2 db0b 0f7c a9bf 8c5e 6b54 58d3 acbf
00000250: a600 9576 5d3f abbf 306a 1e18 9041 94bf
00000260: 05c9 b417 6b96 a33f 1961 9b72 0bc6 a5bf
00000270: 85e2 bbbb e7ff a9bf 03b0 85b9 11e9 9fbf
00000280: ca4d f993 77c6 a1bf c6c6 2bdd d2f9 68bf
00000290: 30f5 727f a83c 8c3f 6998 3d66 b498 a53f
000002a0: 3ba5 1f86 1e6f 9bbf 425b 4195 86ab 91bf
000002b0: 20b6 5164 279b ad3f 3a5d de41 d286 8ebf
000002c0: e83f 8193 70d4 913f 9d17 7034 11a1 a6bf
000002d0: d6d3 e8cd 0a72 303f 590f 78ba ade4 ad3f
000002e0: e081 2853 de57 963f 7ac0 7129 2360 9c3f
000002f0: af5e 0bfe a493 a6bf 6cb2 405b ad79 a0bf
00000300: 67cc ddd0 880a a3bf 65b8 86c3 8b87 93bf
00000310: f261 a451 01a1 83bf face 4d33 13fe 6c3f
00000320: 0dcd 5594 74d0 9fbf 2475 10c4 7efe 5e3f
00000330: 23c8 e9d3 c102 a4bf 7348 1b44 0ce9 853f
00000340: 97e4 61ea aae6 a23f 7fa3 5c7f fb42 9d3f
00000350: 0dcb 9191 3422 9bbf 3145 0438 8052 a93f
00000360: 1ffe 660c d36d 7ebf e48a 0323 8aff 8bbf
00000370: 1648 ca94 4190 9c3f a418 25d5 194c 783f
00000380: a984 0090 8079 6bbf 59ea eebc a3cb 9b3f
00000390: 2062 37fe 2dd5 ab3f d358 c79d ce01 9d3f
000003a0: 4c8f b417 dd5d 343f 3873 60cb f386 97bf
000003b0: 757e 136b 0fd0 8fbf f0f7 7b38 3077 66bf
000003c0: 19a5 e51b d2f9 8f3f 41bf cc4b 4bf6 a23f
000003d0: bf8c 099b fabc a83f b265 9b0a ae14 89bf
000003e0: 264a 7658 5b6f 7bbf fe55 696f 3ba9 a83f
000003f0: 19a7 e456 fb99 a03f 7864 f0df 8922 9cbf
00000400: 5884 2f28 d477 a2bf 1efb 3dd9 ff98 aa3f
00000410: a586 01d1 c606 473f 9705 9dc1 9d8e acbf
00000420: 51f3 dd8c e848 96bf 8c51 d296 22bb 853f
00000430: f13d ade1 410a 9b3f 291f 6670 e431 90bf
00000440: 11c6 2ad4 04f4 92bf 4131 f8e1 f21d fd3e
00000450: f13d 0307 5344 aa3f 748a dea6 77b5 a9bf
00000460: c74f eb64 3c44 a33f d15d 9971 4a16 abbf
00000470: 0d54 26ea db28 abbf 91b2 56cc 5df1 a73f
00000480: 88ca 264c 1860 8ebf 25ff 5c51 f018 9cbf
00000490: 04d1 f03a 7b30 9dbf 4df7 9422 f313 acbf
000004a0: 96bc a07c 0cc9 ac3f f8da d859 81ca adbf
000004b0: 1fb2 55a4 e8fe a2bf e7dd be54 2899 a4bf
000004c0: 5810 4c08 5b0b 77bf bbe3 b862 e83e 943f
000004d0: 59fe 4d8a aa8f 95bf e328 8959 bd25 a13f
000004e0: 1593 9464 7cb3 a0bf 972d df02 4719 933f
000004f0: c9b4 303f 6c48 a63f a901 d026 d74a 78bf
00000500: 028c 1fb5 2b7a a03f 7ff5 a1bb 705e 843f
00000510: c9a4 1786 b635 a2bf bc00 4be8 c7e4 a93f
00000520: 3eb0 5833 c927 ac3f 17ac 44b3 3f8f 9e3f
00000530: dd2c e86c fbd5 9f3f cbd9 c2b6 56a0 adbf
00000540: 7ff1 2aca 995d 90bf b2ff 6715 bf83 54bf
00000550: c4cc 9467 1fde 66bf 527e c046 5f3f 9fbf
00000560: d416 fb2d 6f68 a7bf 95d9 0167 c7c0 97bf
00000570: ef68 a2e9 4366 8dbf e741 77da 47df 873f
00000580: 49bb 97db 6447 81bf 6403 243b a0ff a4bf
00000590: 9f38 d65a 16cc acbf 054d 9f57 d9af aabf
000005a0: e221 e7e9 d1a9 91bf 186f 1610 4940 a6bf
000005b0: 6c72 548a a7c4 5abf 881b 46ed 913d ac3f
000005c0: 2623 f373 41c2 95bf b47a ae31 ffd5 8b3f
000005d0: 9f60 c589 43a5 75bf e328 13e7 0b35 383f
000005e0: 11be 82ce 41e2 a2bf 6b8e e409 163e 85bf
000005f0: 55dd 9e65 83ff 743f 3272 cf60 92f4 7d3f
00000600: ec08 7bf0 d1d1 97bf 867b 615c 5a40 a9bf
00000610: 87b8 8ef8 c0f4 abbf d3ab fd8e 6853 a0bf
00000620: 7674 fcd1 2f19 a63f a5ad 2f45 d265 913f
00000630: f3a3 a646 9877 a1bf 2961 5510 49bc 753f
00000640: 2b57 e4af ffe2 9f3f a940 84a8 27c4 9fbf
00000650: 5ae5 7e1f cc58 9d3f c083 b8cc c707 a8bf
00000660: 2ad3 8d9f 73e4 82bf f597 66b5 593f ad3f
00000670: 7af4 7c5f 4a49 a2bf c6fd 0e03 f6c0 9f3f
00000680: 7aab 472a 1f11 5ebf a973 5f19 b5b7 a9bf
00000690: 1395 3f68 e57c a9bf 3967 04f8 69a6 a8bf
000006a0: 2e07 0471 cb82 a43f fea4 db81 b278 a33f
000006b0: 18da 94a6 8232 a53f 9d3a 2f18 ec69 a03f
000006c0: 5215 a66e d932 5e3f 284a 2999 bf92 88bf
000006d0: b812 acc9 b5f3 a6bf 5a29 8fe6 f243 763f
000006e0: 7fa9 492e f0b8 74bf 9b94 a2f7 b9d1 aa3f
000006f0: 040d e039 7f0e 6bbf fd40 620a bfdc 89bf
00000700: 33ec 7507 2713 9f3f dd51 6df4 91d3 a4bf
00000710: 772c 8c24 2f64 9e3f 1999 9aa1 1e3b a2bf
00000720: ac32 a764 e442 913f 691e abb8 6605 aa3f
00000730: b936 e541 ae21 823f 8841 8936 7f34 923f
00000740: fc2f 5dad b3cb 8dbf 3902 8c47 eecd 70bf
00000750: f52c 5905 d307 ae3f a18d 4258 78d1 893f
00000760: 3f7b dc1f 0745 9a3f 8ce4 8e64 3a6b 923f
00000770: fdd5 2120 daf7 92bf 6f36 ee96 e608 a13f
00000780: a304 732a 88f4 75bf 331c d67b 63f9 a13f
00000790: 3c4f 38b2 b621 81bf 6acf 7b1e 9607 8abf
000007a0: fddf a129 9d76 a3bf e06d 16e8 2f1e ad3f
000007b0: 7505 10c5 0fb3 9f3f 63a7 a081 86cd 943f
000007c0: 45dd 9ba5 7918 a83f 8261 efd4 00e4 86bf
000007d0: 6b01 af69 8324 a8bf 3d51 ee5c 0cff 9b3f
000007e0: c17d a367 e153 8a3f 5e58 455a 3e39 913f
000007f0: 96c0 e862 d206 a8bf 7ec1 05fb 7f62 a43f

encode2.bias f8 [32]
-0.037671425393023074 -0.015540825404879601 0.10192620131685974 -0.023701956688016498 -0.015589049863809613 0.02075790211632741 0.03887603260085307 0.020429002314839247
0.041419951539407376 0.0405029681648992 0.0024976727484785645 0.05694659543988877 -0.01023734060668243 0.07099710796013385 -0.0029210887696491297 0.0160154320550863
0.06937075483009048 0.000526078870424179 0.026906133909180337 0.06646428535364594 -0.018790868672940043 0.07118526099778563 -0.0013016888831101742 0.10253776852475747
-0.018311599072191154 0.002446293998720923 0.07424525960652739 0.041848040157220795 0.04247306552037618 0.002854551874333986 0.02889550357860869 -0.010742580498134776
00000000: c50c 1d48 ab49 a3bf db36 ef46 ded3 8fbf
00000010: bbec 42e5 d517 ba3f af11 4e63 5345 98bf
00000020: 87e8 b9da 26ed 8fbf 578d e43a 8f41 953f
00000030: a4df 3c31 8fe7 a33f 421d 5423 57eb 943f
00000040: 62fe 86f2 fe34 a53f e37e 5117 cebc a43f
00000050: 039b aad8 ff75 643f aed3 10aa 1a28 ad3f
00000060: eb67 d498 50f7 84bf 9ba2 ccd0 dd2c b23f
00000070: ecd7 7f97 f7ed 67bf 0ab2 a173 5966 903f
00000080: 5848 4b23 48c2 b13f 984e 94c5 113d 413f
00000090: 4f91 ce14 488d 9b3f e327 f2ab cd03 b13f
000000a0: 2da3 a7d9 e93d 93bf ae55 f17f 3239 b23f
000000b0: 317d aecb ad53 55bf bf2c 6b4a ea3f ba3f
000000c0: 802f 9c9c 46c0 92bf 75ac 1117 400a 643f
000000d0: e89f e4c1 bc01 b33f a400 c137 1b6d a53f
000000e0: 1ae4 bd96 07bf a53f 9570 3dde 6d62 673f
000000f0: 3c7e 7c6b c896 9d3f ab26 50bf 3400 86bf

decode1.weight f8 [32, 32, 3, 3]
0.04389830232598402 0.04870790512977419 -0.04757653733100142 -0.055674355703242195 -0.04026651956727122 0.026298050413595297 0.04855126610004183 -0.015138658783278598
0.041094186569965864 -0.0020565012910167576 -0.010189685616605647 0.055797277917572156 0.014560110059924525 0.03909987522698675 -0.05100741179194015 0.05195382619289007
-0.008458077238234264 0.013397404406736256 0.0159742526657782 0.049697854679970434 -0.015330520159599874 -0.021648072004780788 0.07938466539319373 0.04901282075272575
-0.044658631590425414 0.05657264299642698 -0.08252902054482182 -0.046322104358389925 -0.01860674631079061 -0.051492841249512714 -0.012516394429815413 -0.05162788743703978
0.05457913136693196 0.03585682681458678 0.045250137362997586 -0.029758551565813172 0.06186808700119059 -0.029498545013723197 -0.002122208925861575 -0.01279048346441863
0.016603626201614125 0.03827786092739598 -0.007400994994602242 -0.007676720400494891 0.034826855693419256 0.020747041613977033 -0.052952251539551944 -0.028166735187857343
-0.02534024966320051 -0.0014845366208910376 -0.03142079805880852 -0.029791971071639913 -0.03175385243514456 0.04434528124411948 0.05256676766205975 -0.02035615761908257
0.03692074898519603 -0.014459995312222721 -0.016759041450374865 0.04034052187959953 -0.017286553625426623 0.044766921312010155 -0.018705986692526898 -0.06598249118018974
0.03450973691584941 -0.007028142333699791 0.0044460123202767175 0.05230846514540933 0.016797959854299292 0.005003162023342007 -0.042997839763688 -0.013366890590252175
-0.04951422033373116 0.04942162403089983 -0.026422871587482532 0.06818105289547467 0.0750327644543707 0.05680474662452034 0.04138527728501451 -0.01845000407787104
-0.06147663272216986 -0.034268277023252976 -0.02833724829080957 -0.05217750373185967 -0.013670201103430231 -0.042617226726305045 0.02111854286214992 0.002970863323823457
-0.048898340082541805 -0.04180255451795599 -0.013569881673454317 0.03218782788147762 -0.04787657676853703 0.0193422355529712 0.04311248121652353 -0.034751456229816846
0.008162015900567615 0.002290148536320628 0.00823864800070193 0.006803339096618038 0.05731966588928314 -0.04514945138189556 0.004654863253796323 0.0736242341678281
-0.037934553645654935 -0.02487255410305083 0.031574320862898825 -0.04650564925610341 0.03385901435882574 -0.04882776443568356 -0.02366038242743615 0.03581301427614254
-0.033540815343167996 0.033375711198820684 0.007055836428510938 -0.07538415398880638 -0.055881451649676554 -0.047737732184874364 0.03488036479958181 -0.057610112691392074
0.06789313336768595 0.050182067304315535 0.03128101419550699 0.04637018007670447 0.007775563807208628 0.022944513185669455 0.03085805067981128 0.07409595684404477
0.0046345959812747325 0.06026531113926368 0.029009750697473177 -0.002392738514844522 0.05132149095494554 0.0036155476955796505 -0.014211559143918548 -0.030967119037560508
-0.03773160579517722 -0.013161428719766001 0.022456736293318347 0.00474887374948864 0.06135509086271206 -0.07560553380254861 0.01794224942451258 -0.07380462602070618
-0.03157834132422479 0.02317668656905624 0.040870470174068425 -0.028461329486915297 0.06520344509186175 -0.015896582973858014 0.04410589489818565 0.007388526757512338
-0.043665162978507886 0.015676560188247934 -0.051695738670052206 0.03261597621501748 0.048813953906149635 0.029559181502056574 0.014293855170973514 0.05615734871402392
-0.0016561464984024663 -0.04139505620302569 0.03852487888821947 -0.01415002868206027 -0.0032758178476414474 -0.031024232171729258 -0.005814310332337726 0.02407999233115057
-0.034793706949564816 -0.03126660749971023 0.006080577126053021 -0.035356526343333486 -0.006884022421051332 -0.03025263015052273 -0.04740540039777578 0.03611909008971388
0.031488651584310696 -0.003402212822257407 0.012307557487040507 -0.046014431303048275 0.036557516187757905 0.008677423967282842 0.025047345219324998 0.047821205839317434
-0.050777576840460734 -0.01953694279190076 -0.003722649081819142 -0.041774646693290875 0.03475684627240406 -0.0335205381053635 0.006311792283053073 -0.0435241565859947
0.05967262607688074 -0.022751498651993524 0.03687456242842311 0.060717017505488975 -0.004083112525425477 0.023052666813264466 0.03304981111589582 0.03223353374032586
-0.048852385747638685 0.04579239170645807 0.06210218446715335 0.01278423878558416 0.051644275854968266 -0.020865475456932518 0.05681026359871292 -0.026002577547366786
0.036184031674453394 -0.06933470637145588 -0.08148245983372591 0.02546582738209217 0.05627599447420377 -0.06370211573854767 -0.031351690457555835 0.053071791199052934
-0.03381672382798827 0.031076485848785813 -0.013289133365905405 0.040476275725696786 0.016178685756104743 -0.0313491251911071 0.05254967910368649 0.03882372970862857
-0.01023608137974585 0.02851765788767974 -0.0003214044894623574 -0.035685613255732135 0.052987342336464675 -0.035240726268744235 -0.04849297201588253 0.04715287191118376
0.0076425614237905955 -0.012322899513174959 0.029737660950001188 0.035999802354137425 -0.06878343614192162 0.06166913538183713 0.0476793248926497 0.0342494687023943
-0.013848966455970547 0.012208445834014894 -0.009757065424083784 -0.01109172342005696 -0.00376983805707553 0.019840317298337136 0.05431770609037648 -0.02935958574830207
-0.06295968173718218 0.038121624797975644 -0.019448705103969306 -0.0599913642743248 0.0076285065518068235 0.017404199867233707 -0.03131821773238256 0.0493776562216014
00000000: 6017 ae99 d679 a63f 1098 2d17 3ef0 a83f
00000010: 9082 c9af f35b a8bf c04d f161 5981 acbf
00000020: ae91 5431 d09d a4bf 9359 e649 e0ed 9a3f
00000030: 467c 2828 b6db a83f 4a2f 0963 0401 8fbf
00000040: fd58 bf16 4c0a a53f 074c 40b9 cbd8 60bf
00000050: d9b7 d673 54de 84bf 3f3d b9f7 7591 ac3f
00000060: c0ae 44e4 b0d1 8d3f 4d53 c11a e604 a43f
00000070: 63fe ffba a41d aabf 6712 cd20 b199 aa3f
00000080: 5a87 00e9 7752 81bf 9fca 392e 1970 8b3f
00000090: 3738 1cf3 8d5b 903f 7d4c 1049 ff71 a93f
000000a0: efac ba95 9b65 8fbf 1bc1 2085 e92a 96bf
000000b0: 6dec aaad 8d52 b43f 1372 6f5c 3518 a93f
000000c0: 8579 5404 7fdd a6bf 152f 09e7 16f7 ac3f
000000d0: f9fe 3534 9f20 b5bf c334 9ae6 87b7 a7bf
000000e0: 7c2b 8f9b a50d 93bf 3220 4a0a 455d aabf
000000f0: 6c4d eb05 32a2 89bf 4812 3570 f86e aabf
00000100: 04b6 87c0 cbf1 ab3f ae93 0375 d35b a23f
00000110: 7627 3aa8 062b a73f 7988 0197 0679 9ebf
00000120: ec21 ac84 2cad af3f e63f 74d8 dd34 9ebf
00000130: 0fc1 d13d 9862 61bf 1e0a 70a1 e531 8abf
00000140: 18af 1f7e 8a00 913f 0721 b0e1 2799 a33f
00000150: 90d5 5a77 8150 7ebf 4778 f8f0 9f71 7fbf
00000160: 2095 735c d3d4 a13f c914 e264 b63e 953f
00000170: 5d50 39b9 8e1c abbf 7125 de99 bdd7 9cbf
00000180: 4abe 4d5e cbf2 99bf eeda 210f 9952 58bf
00000190: b552 2708 6316 a0bf 8789 be55 c981 9ebf
000001a0: d83f 767b 0a42 a0bf 0bd0 59b9 6cb4 a63f
000001b0: 7711 ee07 08ea aa3f d616 fc9c 3ed8 94bf
000001c0: 0fd8 dec2 46e7 a23f af00 bbb7 339d 8dbf
000001d0: bc44 c43b 4829 91bf f957 5a4c 83a7 a43f
000001e0: dc51 edf9 90b3 91bf a893 f49d b0eb a63f
000001f0: 66d3 5584 a927 93bf f93e ba81 3ae4 b0bf
00000200: 28ef e49e 42ab a13f 3015 9997 8ac9 7cbf
00000210: dc12 3658 fb35 723f 81fc 34d6 2cc8 aa3f
00000220: b6dd da00 7c33 913f 48fd 4414 327e 743f
00000230: 32d9 2a17 d003 a6bf f188 79af 1960 8bbf
00000240: 8966 0a8a ed59 a9bf a718 db85 ca4d a93f
00000250: 33ad 56e5 980e 9bbf bd95 6440 5074 b13f
00000260: 21c2 75e5 5835 b33f 280f 0502 8315 ad3f
00000270: 0037 f378 7330 a53f 0989 80d0 8ee4 92bf
00000280: a114 057e dd79 afbf e1d4 3592 9c8b a1bf
00000290: cdae ab8a 7004 9dbf bc02 3b80 02b7 aabf
000002a0: 1110 5a55 1fff 8bbf eb46 12d6 ecd1 a5bf
000002b0: 8f7a ba6b 19a0 953f fd77 221a 5a56 683f
000002c0: 6266 f706 3409 a9bf 2e77 16f9 2467 a5bf
000002d0: 4b0f fcaf 86ca 8bbf 0913 2948 ec7a a03f
000002e0: ca3b ee56 4783 a8bf 5db2 8674 73ce 933f
000002f0: 1caf bfd1 d612 a63f 28aa fd5f f1ca a1bf
00000300: 3022 e63a 3fb7 803f 5699 2022 cac2 623f
00000310: f266 cf9d 6cdf 803f 1ff4 c66e d1dd 7b3f
00000320: 1c01 d3d4 0059 ad3f e533 3c32 d41d a7bf
00000330: bc19 1457 fa10 733f 4ca1 f1ad 09d9 b23f
00000340: b5c7 9766 286c a3bf 0e2b c3d9 3078 99bf
00000350: 74c6 ff66 822a a03f 4ab7 44a5 96cf a7bf
00000360: 7c20 b1fe f755 a13f dbae c6e6 f3ff a8bf
00000370: 385f f262 6d3a 98bf 39a7 2c5a 1556 a23f
00000380: 40cd f501 432c a1bf 44cb 2808 9f16 a13f
00000390: 0855 4dab 94e6 7c3f c8bf 043c 604c b3bf
000003a0: b7a4 935e 7e9c acbf 17da 097d 1471 a8bf
000003b0: f36a 2cd4 d6db a13f b457 db9b 127f adbf
000003c0: ddea 6fc3 7161 b13f 93dd d5c3 76b1 a93f
000003d0: 0f2c e9a9 1004 a03f a2ce e00d d5bd a73f
000003e0: 4ba4 2804 45d9 7f3f 9936 0537 c47e 973f
000003f0: 7ed0 f3b9 4099 9f3f 4637 69df f3f7 b23f
00000400: af49 b7e2 b9fb 723f 5d51 da48 18db ae3f
00000410: cc04 0b6a bbb4 9d3f a691 69b5 ef99 63bf
00000420: e086 777a cf46 aa3f 8a31 8263 5a9e 6d3f
00000430: ab84 fc2d f31a 8dbf d315 122e d8b5 9fbf
00000440: 52ea d499 8e51 a3bf c138 5c0f 61f4 8abf
00000450: 809c d10f e6fe 963f 9272 2617 8e73 733f
00000460: 1f9c 6539 ef69 af3f 161d 145f e25a b3bf
00000470: d7d5 faf9 735f 923f f36c 0d27 dce4 b2bf
00000480: a3ba 7f4e 092b a0bf 1efd 5f1b a1bb 973f
00000490: f11e 8a69 f9ec a43f 294f 637d f724 9dbf
000004a0: 538e 4148 2cb1 b03f c8a6 f69f 3147 90bf
000004b0: e50a 4c40 0c95 a63f 814d a08c 6e43 7e3f
000004c0: 0335 efbd 475b a6bf 2309 4a25 840d 903f
000004d0: 3562 dc25 dd77 aabf b65a 578e 0ab3 a03f
000004e0: 0211 3b7f 24fe a83f b635 6417 c344 9e3f
000004f0: 14da f1c3 1846 8d3f 2448 50f0 a7c0 ac3f
00000500: 32d1 12c3 6122 5bbf e855 3799 bb31 a5bf
00000510: d684 d06d 88b9 a33f 3b50 6ab3 b0fa 8cbf
00000520: 49a7 be50 e3d5 6abf e98d 3efa d0c4 9fbf
00000530: 9c74 9e0b bfd0 77bf 876d 33ee 6ca8 983f
00000540: 4bf4 e812 7bd0 a1bf 5214 5641 2d02 a0bf
00000550: f2f1 5a7e f2e7 783f fa86 b028 401a a2bf
00000560: eb10 9db2 6b32 7cbf e639 75a4 8bfa 9ebf
00000570: 8576 b948 8545 a8bf 9aa8 648d 337e a23f
00000580: a1df 7fd1 471f a03f 2ab3 c719 f5de 6bbf
00000590: 4b2e 3467 b434 893f 3067 2e1b 348f a7bf
000005a0: 2c19 e6b0 aab7 a23f 695b 3921 78c5 813f
000005b0: 0f45 46e2 02a6 993f b932 4566 057c a83f
000005c0: 76c0 ccbf 84ff a9bf bd8e 6b09 7e01 94bf
000005d0: 9ddf f201 f67e 6ebf dd03 b38a 7c63 a5bf
000005e0: 91a9 1a3c a6cb a13f b24f d09d 9a29 a1bf
000005f0: cb2d f5d6 64da 793f 9be3 3e5a cc48 a6bf
00000600: 61eb ee12 698d ae3f 98c9 943a 2b4c 97bf
00000610: 0d68 5eff 38e1 a23f 0154 fe08 4d16 af3f
00000620: fc91 332c 74b9 70bf 83b8 3148 1e9b 973f
00000630: b674 c3a3 e7eb a03f bb98 7fea e980 a03f
00000640: 2a41 3c0e 2e03 a9bf 0bd9 91b1 1972 a73f
00000650: b4d9 9786 dbcb af3f 221e e87b 9f2e 8a3f
00000660: c637 a557 1e71 aa3f 61e3 cf5a c25d 95bf
00000670: e59b 7720 3c16 ad3f 5fe8 b570 6ba0 9abf
00000680: d1c0 5ba1 b686 a23f b7d9 5758 ebbf b1bf
00000690: f7f8 2ed4 08dc b4bf eb2f 16bf b613 9a3f
000006a0: 0617 a207 35d0 ac3f 3877 c827 c84e b0bf
000006b0: 7308 612a 540d a0bf 7284 14cf 392c ab3f
000006c0: 5e53 ccf5 6c50 a1bf 12a0 94a9 83d2 9f3f
000006d0: 3408 9749 5537 8bbf 30f1 0271 4eb9 a43f
000006e0: 6be2 db38 2591 903f 9f74 e816 fe0c a0bf
000006f0: 34cd 54a2 cae7 aa3f 0f8a d032 b4e0 a33f
00000700: be22 1f96 a7f6 84bf 71c4 f19f bb33 9d3f
00000710: 091e 62c5 4510 35bf 5cfd bd7b 6245 a2bf
00000720: e7c7 df2c 2821 ab3f c682 9f8d 120b a2bf
00000730: 0ec2 c921 12d4 a8bf fdc1 8ad5 6b24 a83f
00000740: 7433 f775 ce4d 7f3f 6835 3593 bf3c 89bf
00000750: e08b f5a4 8c73 9e3f 1a06 8ceb 906e a23f
00000760: 486e bc90 ca9b b1bf cc71 46cf 1893 af3f
00000770: c0f4 37aa 6c69 a83f 8edd f677 2589 a13f
00000780: ba27 18d0 d85c 8cbf 2e95 bcdc bd00 893f
00000790: a402 3627 83fb 83bf 906c c3ea 41b7 86bf
000007a0: f1c8 5265 ece1 6ebf e225 c127 0551 943f
000007b0: f4f9 80c6 87cf ab3f 55c7 7372 7010 9ebf
000007c0: ab1b 072e 201e b0bf 1f2d 8e77 ad84 a33f
000007d0: b500 7c81 5cea 93bf 1b88 3327 30b7 aebf
000007e0: 996e 84a2 113f 7f3f d7a4 f814 68d2 913f
000007f0: 45f3 db01 f108 a0bf 11f4 3f35 0748 a93f

decode1.bias f8 [32]
0.06751381150175281 0.01026632037356058 0.008105202711623545 0.07666188072773579 0.039536973157776024 0.0744947803217837 0.0464248416289252 -0.0032016409376309767
0.11533198675906838 -0.003946139643266463 0.051765861506177395 0.010046119668672186 0.0015353792482946124 0.10965137317808088 -0.04301491027901971 -0.0018187753335762054
0.07529511617889603 -0.0009897122608117103 0.0534170823794616 0.12261024145216795 0.03599852147255369 0.034985525462658346 0.014284478582842899 0.020969116797984452
-0.010159822764420422 0.014719472601970691 -0.05706117545370272 -0.044129468483656176 0.035713421661940914 0.025597866603350294 0.05186049762920616 -0.019994405142997204
00000000: 7ea7 6dcc 9548 b13f c8a0 0932 8206 853f
00000010: 114b 97e4 7599 803f 8552 93ee 1ca0 b33f
00000020: ad15 64ad 303e a43f 806b 3405 1712 b33f
00000030: 3a53 0931 ffc4 a73f fc71 dce3 533a 6abf
00000040: 751a 50a7 6586 bd3f c996 69cb d329 70bf
00000050: a7c4 6f14 0e81 aa3f bcdf 6d5b 0f93 843f
00000060: 09f0 22ea d827 593f c4e7 c2c5 1c12 bc3f
00000070: 0f0c c7e1 0c06 a6bf cb11 e524 7fcc 5dbf
00000080: e670 896d 8a46 b33f 858e ba72 2737 50bf
00000090: 4b2c bcdb 7b59 ab3f e214 3181 6263 bf3f
000000a0: 33a2 dbf0 656e a23f a417 646f 9fe9 a13f
000000b0: 8e6c d442 2e41 8d3f cc4e 7e9b ed78 953f
000000c0: 0cfd 0c54 acce 84bf b7c6 842b 3e25 8e3f
000000d0: 42d3 e354 1f37 adbf 80b5 da3f 2398 a6bf
000000e0: 50f1 2194 0749 a23f 0392 a2bf 5336 9a3f
000000f0: ab1f 8b8a 758d aa3f 3cc2 c4d0 6979 94bf
