Lunar Lander/lunar-model.pt (torch, 278879 bytes, 6 tensors)

fc1.weight f4 [256, 8]
000000 12 4b c6 bf 85 27 d9 c0 3f df 33 c0 4c a0 dd 40
       -1.549166 -6.786074 -2.8105009 6.9258175
000010 be 9e e9 3e 86 bd 2a 3f 04 96 8d 3f 1a 7d 14 40
       0.45628923 0.6669544 1.1061406 2.3201356
000020 5d 96 2b 3e c9 fd 66 c0 f6 63 23 3f 39 01 4f 40
       0.16756578 -3.6092398 0.63824403 3.2344496
000030 ff d7 bc 3d 94 1d 9c be ea de 28 c0 35 c6 0c be
       0.092208855 -0.30491316 -2.6386056 -0.13747485
000040 45 bd a0 3e 99 ab 93 be 22 13 e9 bd 45 4c 76 3f
       0.313944 -0.28841856 -0.113806024 0.9621013
000050 cf fb b9 bd d7 e9 01 3e e9 21 a6 be fb ba 93 be
       -0.09081232 0.12686859 -0.32447746 -0.28853592
000060 58 10 59 bc 36 c6 3c c0 f4 35 0a 3f 1d a6 13 3f
       -0.013248526 -2.9495978 0.53988576 0.57675344
000070 47 b5 ea be 4b c9 42 3f 6e ae 67 bf 7f 3f e2 be
       -0.4584143 0.760884 -0.90500534 -0.4418907
000080 38 b7 31 3f 21 e2 3e c0 01 1c 49 3d 40 3e d9 40
       0.69420195 -2.9825518 0.049098972 6.788849
000090 fb 39 0c 40 cb 58 b9 bf 82 b2 1a c0 b3 68 69 c0
       2.1910388 -1.4480222 -2.4171453 -3.6470153
0000a0 a0 71 95 be e8 f6 bd be e8 97 6a 3e 3f 3b 54 3f
       -0.29188251 -0.37102437 0.2290951 0.829029
0000b0 c0 91 12 3d a1 d2 43 3e 7b f5 24 bf 38 b0 a3 bf
       0.03578353 0.19123317 -0.64437073 -1.2788153
0000c0 aa 24 66 3f a6 a0 e1 3e 56 16 57 40 98 ce 06 41
       0.89899695 0.44067878 3.3607383 8.425438
0000d0 09 24 f6 bf f4 8c 98 3f 0e 86 90 c0 6a c9 26 40
       -1.9229747 1.1918015 -4.516364 2.6060433
0000e0 24 bd de be ad 40 a5 bf 95 0d 21 3f 75 a2 22 3f
       -0.43503678 -1.2910362 0.6291135 0.6352914
0000f0 30 9a 02 3f 71 f1 84 3e 51 a1 0f c0 0e b4 a8 bf
       0.5101652 0.25965455 -2.244221 -1.3179948
000100 5d fd fb 3e 5e 06 5d c0 62 63 eb 3f 80 ae 10 41
       0.49216738 -3.4535136 1.8389704 9.042603
000110 1f 2d 89 3f b7 b0 e2 3f aa 43 83 bf 9d f5 8b c0
       1.0716895 1.7710179 -1.0255024 -4.373732
000120 0c b9 d7 bb 30 90 b3 be 68 b0 5f 3e 74 a5 f0 3e
       -0.0065833386 -0.35070944 0.21844637 0.4700123
000130 46 95 83 bc 86 d8 7c bc 28 09 60 3d c9 e5 45 be
       -0.01606239 -0.015432483 0.054696232 -0.19325937
000140 b9 30 57 40 73 06 13 c1 c5 13 eb 3e 13 d3 81 40
       3.3623488 -9.1890745 0.4591352 4.057016
000150 c3 34 d8 bf 14 09 ce 3f 26 b0 0f 3f 88 dc 8a 3f
       -1.6891102 1.609652 0.56128156 1.0848551
000160 6f 60 47 3f 58 80 54 bf d5 38 96 3f b3 e2 bc 3f
       0.7788152 -0.8300834 1.1736094 1.4756683
000170 25 23 eb 3e 55 04 48 3e 34 7f a3 bf 8c 49 4c bf
       0.4592525 0.19532903 -1.2773194 -0.79799724
000180 b0 3f 61 3e 44 f6 20 bd e5 5e d6 be 9f d4 84 3f
       0.21996951 -0.039297357 -0.41869274 1.0377387
000190 99 74 ee bd 35 a9 02 3d 00 31 d5 be b4 ac bc bd
       -0.11643333 0.03189965 -0.41638947 -0.09212628
0001a0 28 a1 8b bf 0a e2 63 3f b4 4a f3 3f fb 2f 9d 40
       -1.0908556 0.89016783 1.9007173 4.912107
0001b0 f7 57 b0 3f c1 c6 b6 3c a9 31 8f 3e c1 47 89 3f
       1.3776845 0.02231157 0.27967575 1.0725023
0001c0 60 f7 db bd 27 a6 0f 3f 05 c6 f1 bd 1e 9f a6 3f
       -0.107405424 0.56112903 -0.11805347 1.3017309
0001d0 79 6c 1e be 50 28 71 3e c4 22 8b bf 08 9e 24 bf
       -0.15471067 0.23550534 -1.0869985 -0.64303637
0001e0 96 3b 16 bd 34 19 a6 3e a7 bb 6c be 46 b8 29 3f
       -0.03667792 0.32441103 -0.23118459 0.66296804
0001f0 e9 28 c8 3d db bd 20 be 51 df db bd 7d 23 99 be
       0.09773428 -0.15697424 -0.107359536 -0.29909888
000200 e4 30 12 40 5f 4d 35 c0 8e 42 9c bf 2d d3 79 40
       2.284234 -2.8328474 -1.2207811 3.9035141
000210 a1 53 c4 be 24 e5 cd 3e 27 98 2b 3e e7 9b e2 bf
       -0.38345054 0.40213883 0.1675726 -1.7703828
000220 a9 36 58 bf e7 bc df c0 8f 8a e8 3f 55 0e 83 40
       -0.84458405 -6.9918094 1.8167285 4.0954995
000230 53 db 19 3e 74 61 c3 3d c4 97 74 bf 25 2b 36 bf
       0.15025072 0.09540072 -0.95544076 -0.71159583
000240 58 22 a7 3f 22 25 af bf a6 1f a3 3f 85 b1 1b 40
       1.3057356 -1.3683207 1.2744033 2.43271
000250 c6 ca c3 bf 20 9e 82 3f 05 4c e8 c0 cd ba 49 c0
       -1.5296257 1.0204506 -7.2592797 -3.1520264
000260 be 5d 03 c0 03 77 88 c1 80 e1 f2 bf bb 8d bc 40
       -2.0525966 -17.058111 -1.8975067 5.892301
000270 a1 42 12 3f 31 4a 8f 3e 52 7c b4 3f 6f 02 15 bf
       0.5713292 0.2798629 1.410044 -0.5820684
000280 75 c4 9d 3d 58 1f 06 be a0 90 da 3c 0b aa 3a 3f
       0.07703487 -0.13097894 0.02668029 0.72915715
000290 14 54 de bd 56 79 d9 3d f3 a9 a7 be 36 91 a4 be
       -0.108558804 0.10618846 -0.32746848 -0.32142037
0002a0 da f4 f5 3e f3 b8 28 bf 3b 5d b3 3e 98 ec b5 3f
       0.4803837 -0.6590721 0.35032067 1.4212828
0002b0 95 df 88 bc a8 32 8a bb 4b b5 51 bf c4 94 7b be
       -0.016708175 -0.0042174645 -0.81917256 -0.24568468
0002c0 57 78 ea bc 63 36 89 be bf 69 20 be 8f 09 92 3e
       -0.028621836 -0.26799306 -0.15665339 0.28522918
0002d0 48 b3 87 3c 51 d6 36 3e 70 55 d9 be f1 9c 46 be
       0.01656498 0.17855193 -0.42447996 -0.19395806
0002e0 28 a7 a9 3f 1e de 82 c0 aa 40 22 3f 95 67 62 40
       1.3254137 -4.089614 0.6337992 3.5375721
0002f0 bd 0e 0f 3d ad d1 0f 40 13 17 11 c0 05 f6 9e 3f
       0.034926165 2.2471726 -2.2670333 1.2418829
000300 e3 f3 c9 3e 47 a1 73 be 9d 72 d4 3e 51 3a 51 3f
       0.39443883 -0.23791991 0.41493693 0.8172961
000310 14 2f f2 3d 97 bc 83 bd e6 80 aa bf d3 89 f2 be
       0.11825386 -0.06432455 -1.3320587 -0.47370777
000320 2a 67 59 3f 8c c9 14 bf 1a d0 90 3e 9c 61 1f 3e
       0.8492304 -0.58120036 0.2828377 0.15564579
000330 54 c3 d4 3e 1d 96 ac 3e 25 dc 4f bf 3e 74 cf be
       0.41555274 0.33708277 -0.8119529 -0.40518373
000340 cc 50 35 3e 2f 0e a9 be a2 22 25 bc 78 9c cd 3e
       0.17706603 -0.33018634 -0.010079058 0.4015844
000350 7e 71 62 3d 75 ed 15 3d 00 5d 54 3b 80 e8 02 be
       0.055284016 0.03660341 0.0032404065 -0.12784004
000360 e7 17 4d bf 6e e1 01 c0 4c 0d d9 3f a8 85 5d 40
       -0.801146 -2.0293841 1.6957183 3.4612827
000370 fb 04 46 3f 19 aa 7c 3e 8f cf b6 bf 79 4f fb bf
       0.7735135 0.24674262 -1.4282092 -1.9633628
000380 25 0f 45 c0 6c f6 f9 c0 0c 2b 30 40 b4 b4 e3 40
       -3.0790493 -7.811331 2.7526274 7.1158085
000390 89 38 e1 3f e7 d5 88 bf 55 25 8e 3f 37 f8 fb 3f
       1.7595378 -1.0690278 1.1105143 1.9685124
0003a0 5e a3 a8 3e 47 aa 77 bd 6a e3 c9 bd 0d 6c 4d 3e
       0.3293714 -0.060465124 -0.09857829 0.2006075
0003b0 94 95 67 bd 30 d1 7d 3d f6 d5 72 bd 87 18 3f be
       -0.056539133 0.061967075 -0.05928608 -0.186617
0003c0 9f 36 9b bf 95 74 e5 be 2c 51 f1 be bd 68 63 40
       -1.2126044 -0.44815508 -0.47132242 3.5532677
0003d0 55 34 7c 3e 00 49 6c be 9b b7 a1 3e 97 a0 01 c0
       0.24629338 -0.23074722 0.31585392 -2.0254266
0003e0 3e a2 aa bf 70 e4 bd bf e0 5d b5 3e c4 43 84 40
       -1.3330762 -1.4835339 0.35423183 4.133272
0003f0 e0 b3 4c be ec d1 34 be 22 32 aa bf 1f 8c 1d c0
       -0.19990492 -0.17658204 -1.3296549 -2.4616773

fc1.bias f4 [256]
000000 a4 2f 5d c0 e9 9b 01 c0 ca 5c 89 bf 49 5f a3 bf
       -3.4560328 -2.025141 -1.0731442 -1.2763454
000010 6f 2f c8 bf cb d2 b7 bf 89 8a 52 bf db d9 83 bf
       -1.5639476 -1.4361204 -0.8224264 -1.0300859
000020 44 ad 18 c0 a9 27 01 bf b0 00 6e c0 2d 12 d8 bf
       -2.3855753 -0.5045114 -3.718792 -1.6880547
000030 e4 8f 95 bf ec 45 0c c0 eb 76 01 c0 c2 22 8e bf
       -1.1684537 -2.1917677 -2.0228832 -1.1104357
000040 30 d8 43 c0 16 3d 37 c0 25 9e 4f c0 63 b4 3a c0
       -3.06007 -2.8631034 -3.2440274 -2.91726
000050 5f e5 73 bf 14 82 c1 bf 1c 27 92 bf 18 39 b6 bf
       -0.9527187 -1.5117822 -1.1418185 -1.4236174
000060 51 e9 97 bf c0 90 28 bf ce c5 4d bf b1 4f 13 c0
       -1.1868078 -0.6584587 -0.8037995 -2.301739
000070 7e 0d 1d c0 64 20 10 bf 6f 71 47 c0 00 95 1c c0
       -2.4539485 -0.56299424 -3.1162984 -2.4465942
000080 8c 58 f6 bf 8b 84 ba bf f7 80 e4 bf 7d 93 13 c0
       -1.9245772 -1.4571699 -1.7851857 -2.305877
000090 24 4e 21 c0 a2 dd 65 c0 6f b6 67 c0 dd ac 19 c0
       -2.5203943 -3.5916524 -3.6205099 -2.4011757
0000a0 16 6d 4f c0 54 1c 71 bf d6 4a ff 3e 8c 9b 79 bf
       -3.241033 -0.9418385 0.49861783 -0.9750297
0000b0 be 6e 7a c0 ba 50 c5 bf fb d2 ad c0 58 fc e0 bf
       -3.9130092 -1.5415261 -5.4320045 -1.7577009
0000c0 a7 a0 5a c0 59 fe 6a bf f8 27 f4 bf f6 f0 82 bf
       -3.4160554 -0.91794354 -1.9074697 -1.0229785
0000d0 ff 5a 10 c0 dc a6 86 c0 0f 66 86 c0 fd b8 3e c0
       -2.255554 -4.2078686 -4.1999583 -2.9800408
0000e0 51 7a d6 bf 7e 31 80 c0 7c 4e 06 c0 72 17 07 bf
       -1.6756078 -4.0060415 -2.0985403 -0.5277015
0000f0 d6 49 48 3d 74 f6 d5 bf 09 b0 1a c0 ba 2f 16 c0
       0.04889854 -1.6715837 -2.4169943 -2.346663
000100 6b af 73 bf 1b b1 2e c0 c9 12 ab bf 9f ef 37 c0
       -0.9518954 -2.7295597 -1.3365108 -2.8740003
000110 99 34 a3 bf 6a 00 cf c0 a5 d2 0c c0 ec af 2d bf
       -1.2750427 -6.4688005 -2.2003567 -0.6784656
000120 94 1f 2c bf 4c ce e7 bf 74 3b e1 bf 15 bd a1 bf
       -0.67235684 -1.8109832 -1.7596269 -1.2635828
000130 41 3a 35 bf 7f 2d d3 bf 11 bb 17 c0 a6 5f b0 bf
       -0.70792013 -1.6498259 -2.3707926 -1.377919
000140 8d f4 ff bf ba cb bc bf 47 3c b6 bf e2 ec d5 bf
       -1.9996506 -1.4749672 -1.4237145 -1.6712916
000150 0b 0e da bf c9 b7 26 c0 a1 c9 b1 bf 76 d7 d6 c0
       -1.7035536 -2.6049674 -1.3889657 -6.7138014
000160 19 23 01 bf 6b 2e 34 bf 3c 9c 02 c0 51 6c ef bf
       -0.5044418 -0.7038333 -2.0407858 -1.870493
000170 04 9d 68 c0 6c f0 6b 3e 04 51 e7 bf 5a fa d9 bf
       -3.6345835 0.23040932 -1.8071599 -1.7029526
000180 05 a6 31 c0 fc 5c af bf dc 67 4d c0 d3 cf 66 c0
       -2.775758 -1.3700252 -3.209464 -3.6064346
000190 3d d3 07 c0 2f a1 60 bf f0 66 54 bf 07 36 87 bf
       -2.122268 -0.87745947 -0.8296957 -1.0563363
0001a0 fb c8 1b c0 e7 bb 01 c0 07 41 af 3d 34 ff ab bf
       -2.4341419 -2.0270936 0.08557325 -1.3437257
0001b0 d1 a0 5f bf 03 91 a6 c0 5a 0b 43 c0 a4 76 b0 c0
       -0.8735476 -5.2052016 -3.0475678 -5.5144825
0001c0 68 06 3a c0 42 49 c5 bf 4a 0a 44 bf 0e 68 b3 c0
       -2.906641 -1.5412982 -0.765782 -5.606452
0001d0 74 6a 95 c0 d6 10 84 bf 35 af 93 bf ff 2c c2 c0
       -4.669245 -1.0317638 -1.1537844 -6.0679927
0001e0 f0 47 39 c0 e4 9b fb bf 9a 03 28 c0 9e 7e 6d bf
       -2.8950157 -1.9656949 -2.6252198 -0.9277133
0001f0 cd e4 33 c0 11 c5 0f c0 be a6 48 bf af b3 63 c0
       -2.81084 -2.246403 -0.7837943 -3.557842
000200 f2 63 53 bf 7c 3d e4 bf f6 ad 01 c0 2e 1d 06 c0
       -0.8257438 -1.7831264 -2.0262427 -2.095531
000210 6f 25 b0 c0 28 c3 d9 bf ed 5b bf bf 67 c0 8b bf
       -5.5045695 -1.7012682 -1.4949929 -1.0918092
000220 c8 90 cd 3e 1f 89 85 bf fa 25 88 c0 b2 dd a8 be
       0.40149522 -1.0432471 -4.254636 -0.3298164
000230 ea b7 8d bf d5 95 3e c0 aa 73 05 c0 db 4b 1f c0
       -1.1071751 -2.977895 -2.0851846 -2.4890049
000240 5b 53 8b bf 85 5c 5f c0 d0 f7 36 bf 33 cb 77 c0
       -1.0884813 -3.490022 -0.7147188 -3.8717773
000250 f5 de a8 c0 de c0 3e c0 72 47 ae be 9c de 0b c0
       -5.2772164 -2.9805217 -0.34038883 -2.185462
000260 de 80 49 c0 be bf a0 bf 88 92 90 bf d9 0a e6 bf
       -3.1484904 -1.2558515 -1.1294718 -1.797206
000270 46 f8 40 3f 34 17 53 c0 f4 7d f4 bf 0f 7e 61 c0
       0.75378835 -3.2982912 -1.9100938 -3.523319
000280 ba 32 82 c0 84 2c b3 bf e7 a1 de be 79 c3 5f c0
       -4.068692 -1.399796 -0.43482897 -3.4963057
000290 bb b9 24 c0 b5 1e 54 bf e5 19 25 bf 0b 0e de bf
       -2.573836 -0.82859355 -0.64492637 -1.7348036
0002a0 67 08 a1 bf 42 4f 5d c0 1c 52 ac bf c2 46 18 c0
       -1.2580689 -3.4579625 -1.3462558 -2.3793187
0002b0 c5 76 11 c0 2e 2d 40 bf 3c 41 3f c0 62 c6 41 c0
       -2.272874 -0.7506894 -2.9883566 -3.0277333
0002c0 99 de 92 bf f6 b2 85 c0 8b ca 07 c0 56 00 e2 c0
       -1.1474181 -4.178096 -2.1217372 -7.062541
0002d0 d9 9e 98 c0 27 d3 ae bf f4 c7 28 c0 ab 4e 08 c0
       -4.7693906 -1.3658189 -2.6372042 -2.1298015
0002e0 e8 20 15 c0 13 ab 3c c0 96 b4 02 c0 3b e6 dd bf
       -2.3301334 -2.9479415 -2.042272 -1.7335886
0002f0 9b 4e f0 bf bb 95 27 c0 50 59 a0 bf 90 14 9c c0
       -1.8773988 -2.6185138 -1.2527256 -4.87751
000300 35 20 9a bf eb 24 a5 bf f7 d3 a6 bf 6b 97 af bf
       -1.2041079 -1.2901891 -1.3033437 -1.3718084
000310 5f 14 a4 bf 46 71 cb bf 4b 8a a4 c0 e0 49 10 c0
       -1.2818717 -1.5893943 -5.1418815 -2.254509
000320 c7 2c 83 c0 eb ca a2 c0 d9 cf 5e c0 72 12 e1 bf
       -4.099216 -5.0872703 -3.481436 -1.7583754
000330 fe 32 83 c0 97 b0 3e c0 12 89 0f c0 9c b2 22 bf
       -4.0999746 -2.9795282 -2.242741 -0.63553786
000340 e0 dd a6 bf cd 39 bb bf d5 e1 7f c0 3d 07 c4 bf
       -1.3036461 -1.4627014 -3.9981587 -1.5314709
000350 bd d3 23 c0 80 40 9c bf d4 96 79 bf 15 b0 a8 bf
       -2.5597985 -1.2207184 -0.9749577 -1.3178736
000360 23 d3 d7 be 29 15 ba bf f4 61 23 c0 06 f7 3d c0
       -0.42153272 -1.4537708 -2.5528536 -2.968202
000370 74 bd 1d c0 54 bd 33 c0 a0 8f c3 c0 6f 69 d3 bf
       -2.4646883 -2.8084307 -6.1112823 -1.6516551
000380 d1 16 b5 bf eb c0 ce bf ff 11 43 bf 82 64 1e c0
       -1.4147588 -1.6152624 -0.76199335 -2.4748845
000390 8e b5 92 bf 08 3b 89 c0 a3 ae 1d bf 06 dc f4 bf
       -1.1461656 -4.288456 -0.615946 -1.9129646
0003a0 e2 fd a9 bf 20 f0 ad bf a8 95 d0 bf 97 2c 1b c0
       -1.3280604 -1.3588905 -1.6295671 -2.4245965
0003b0 c7 95 c2 bf b0 8e 2b bf da 0b 9a bf 12 34 1d c0
       -1.5201958 -0.670146 -1.2034867 -2.4563031
0003c0 3e 69 11 c0 ce 56 d4 bf 10 13 eb bf a8 3f 5c bf
       -2.2720485 -1.6588991 -1.8365192 -0.8603463
0003d0 06 54 2f c0 58 b2 28 bf 51 38 93 c0 8d 02 8b c0
       -2.7395034 -0.6589713 -4.6006246 -4.3440614
0003e0 7b 9d 6d c0 30 9a 55 c0 0c 4d c7 bf 7c aa 77 c0
       -3.7127368 -3.3375359 -1.5570388 -3.8697805
0003f0 8f bb dd bf 0a 4b 32 c0 f1 80 67 bf 3c a3 80 c0
       -1.7322863 -2.78583 -0.90431124 -4.019926

fc2.weight f4 [256, 256]
000000 9a 68 f9 bb f3 44 86 be 6b f7 38 bb 49 c5 5e be
       -0.0076113464 -0.2622448 -0.0028223644 -0.21754946
000010 5c c2 f3 3c 9c 24 3a 3e b2 aa 01 be 0d 27 c1 3d
       0.029755764 0.18178028 -0.12662771 0.094312765
000020 de 1a 77 3e fe 36 e0 3d 5f 46 1e bf 7d da 7e bc
       0.24131343 0.10947989 -0.6182613 -0.015555021
000030 03 38 04 bf 3d 67 ce 3d 56 cd 63 3d 24 a4 25 be
       -0.5164797 0.10078285 0.055615745 -0.16175896
000040 29 98 83 be fc 09 d5 3c ef c8 05 be 28 30 4c 3d
       -0.25702026 0.026005737 -0.13064931 0.049850613
000050 49 ab a9 3d f9 0a a4 be 6f 1a b9 be 94 21 b4 3c
       0.08284623 -0.3203962 -0.3615298 0.021988668
000060 42 6e 46 3e 09 e3 bd 3d 9f a2 17 3e c0 35 60 be
       0.19377998 0.09271819 0.14808129 -0.21895504
000070 9d 01 c9 be c5 b7 1f 3e 3a 96 82 3d 7a c7 39 bd
       -0.39259043 0.15597446 0.0637631 -0.04535625
000080 81 f7 d5 bd ec b7 3f bd 9e f8 6e bd 57 be 19 be
       -0.10447598 -0.04680626 -0.05834257 -0.15014015
000090 8e b1 54 3e 91 d8 9c 3d eb b9 6b 3e 6a 63 1a be
       0.20770857 0.07658494 0.23020141 -0.15076986
0000a0 0e 98 c1 be 52 7f bc be f3 0e d6 be c4 18 6e bd
       -0.3781132 -0.36815888 -0.4180828 -0.058129087
0000b0 3e ee 78 3d 32 17 89 be 46 87 92 be d0 7a 28 be
       0.06077408 -0.2677551 -0.2861883 -0.16453099
0000c0 a7 bb 69 bd d1 7a 7b 3e 7b 30 ab be 5f 0f 0d 3c
       -0.057063725 0.2455857 -0.33435425 0.008609622
0000d0 ab 27 1b be da b7 d2 be 14 bd 9e be de 83 5b be
       -0.15151851 -0.41155893 -0.3100363 -0.21437022
0000e0 47 bc a0 ba 65 9b 89 be a1 c6 3a bd 2c 48 f2 bd
       -0.0012263142 -0.2687637 -0.045599584 -0.11830172
0000f0 06 db 26 be 02 f2 3a bd db c2 42 3d 0f 7c 95 3c
       -0.16294488 -0.045640953 0.04754911 0.018247632
000100 cd aa 6c be 48 9b 6a bf 2e 45 4c 3e 1e d4 ea be
       -0.2311203 -0.9164319 0.19948265 -0.45864958
000110 ee 02 4b 3d 69 bb ac bd ad 8d 18 bd 5c df fa 3c
       0.04956334 -0.08434183 -0.037244488 0.030624084
000120 d5 ca ad be 69 fb 80 3e b0 02 02 bf f7 79 96 be
       -0.3394381 0.2519181 -0.5078535 -0.29389927
000130 50 5e c3 3c 92 f3 f7 3c c8 79 3b 3d 91 f6 3e 3e
       0.023848683 0.03026751 0.045770437 0.18648745
000140 4a 80 5d 3d a9 4b 25 be f7 c2 1a 3e 7d c3 65 3d
       0.054077424 -0.16142143 0.15113436 0.056094635
000150 6f a9 41 bd dd 60 ae bd 16 5e 76 bc 20 ab 1e be
       -0.047280725 -0.08514569 -0.01503708 -0.15494967
000160 82 6c cb bd 4c 3f 8e bc f7 12 dc be 3c b9 8d be
       -0.099328056 -0.017364167 -0.4298322 -0.27680385
000170 fb c6 b4 be a7 50 ff be 45 6b 80 3d 1a e4 76 3d
       -0.3530806 -0.4986622 0.0627046 0.06027613
000180 b5 91 e8 bc eb 3e a8 be 5a 0b c8 3b 0a e6 68 be
       -0.028389791 -0.32860503 0.006104869 -0.22744003
000190 f2 27 4b be 3f 0f 80 be bd 6a 98 bc ae 8a 5e 3e
       -0.19839457 -0.25011632 -0.018605584 0.2173259
0001a0 37 ae 16 3a ed e7 39 3e fc b1 99 bc 8c 5e cb 3c
       0.0005748006 0.18154879 -0.018761627 0.024825357
0001b0 1a 43 59 bc 51 3e e2 be e1 e5 2e bf 98 c0 ca bc
       -0.013260627 -0.4418817 -0.6831952 -0.024750039
0001c0 24 be 90 3e aa e3 60 bd b6 69 8d 3c 28 34 20 3c
       0.28270066 -0.054904617 0.017262321 0.00977806
0001d0 14 b6 f8 bc 31 bd 2a 3e c3 2b 83 bd 66 32 f5 be
       -0.03036026 0.16673733 -0.06404831 -0.47890013
0001e0 03 71 57 be 8a 48 c8 be ed c9 85 bf e3 94 11 3d
       -0.21039204 -0.39117843 -1.0452248 0.03554238
0001f0 33 31 ee be da 8c 4b be 92 c8 8e bd 85 bb 4f be
       -0.4652191 -0.1987795 -0.069718495 -0.20286377
000200 89 21 5a 3d d2 50 1d 3e ad 16 57 be b0 79 ec 3c
       0.053254638 0.15362862 -0.21004744 0.028866619
000210 f0 e0 13 3e 12 e3 c2 3e 41 e5 d9 3d c0 ad 18 3b
       0.14441276 0.38063866 0.1063943 0.0023296922
000220 65 fa 1a bf ba f6 ef bd 77 19 58 be 69 29 18 3e
       -0.6053832 -0.11716981 -0.21103464 0.14859547
000230 e8 f3 5f 3c b7 45 b1 be 7d cc 85 bd ad e2 07 3e
       0.013668992 -0.346235 -0.06533144 0.13270064
000240 ee ff 12 bf 7a 4c 0d 3b 20 7e 36 be 73 d0 12 be
       -0.5742177 0.0021560476 -0.1782155 -0.1433733
000250 70 17 d6 be f9 b0 23 be 26 31 61 3e 35 3a 1a 3e
       -0.41814756 -0.15985478 0.21991405 0.15061267
000260 0f 80 1c bf 3c ba b3 bd 38 db 46 3e e3 d0 c4 be
       -0.611329 -0.08775756 0.19419563 -0.38440618
000270 f4 99 08 bf e7 b1 ae 3d 8c fb 6a 3d 6a 5f d7 be
       -0.53359914 0.08530026 0.0573688 -0.42064983
000280 86 73 d6 3d cc c5 8c be b3 75 ad bd ac 30 9c be
       0.10471253 -0.27494657 -0.08469715 -0.30505884
000290 92 62 9f be 8a 18 2c be c5 aa 37 3e 83 c9 ed bd
       -0.3112989 -0.16806236 0.17936237 -0.11610701
0002a0 db 23 01 3e d0 23 17 bf 00 56 56 be ed 72 ad be
       0.12611334 -0.5903902 -0.20931244 -0.33876744
0002b0 e2 e6 67 bf 80 c3 2e bc 8d e4 ac be b9 63 9d be
       -0.90586674 -0.010666728 -0.3376812 -0.30740145
0002c0 49 e3 cb 3c ef e4 42 be 51 0e eb be 11 e9 f2 bd
       0.024888651 -0.19032644 -0.4590936 -0.1186086
0002d0 96 10 30 bd 18 48 38 3e 77 5d a9 3d c1 f3 e9 3d
       -0.042984568 0.17996252 0.0826978 0.114234455
0002e0 66 54 08 bd fb 35 e5 3d 01 5b 0b bf 30 05 87 be
       -0.033283614 0.111919366 -0.54435736 -0.26371145
0002f0 5a fa 25 be 10 18 1d bc 7b d0 e8 bd 5a cc 85 3c
       -0.16208783 -0.0095882565 -0.113678895 0.016332794
000300 ef 83 45 3d 2f c4 da be 95 f1 bf be ab 72 31 3e
       0.048221525 -0.427278 -0.37489 0.17328899
000310 14 e0 0f 3d 66 b1 c8 bc 26 dd 5f bf 5d cf e2 ba
       0.035125807 -0.024498653 -0.8744682 -0.0017304231
000320 f2 51 67 bf 29 22 41 be 09 42 a2 be 5a 1d 46 be
       -0.90359414 -0.18860687 -0.31691006 -0.19347134
000330 e5 79 e4 be d0 c5 b5 be 25 84 06 be ec 34 cc 3c
       -0.44624248 -0.3550248 -0.13136347 0.024927579
000340 51 29 08 3e 23 15 0b 3e 09 4c a6 bd 46 f2 2f 3e
       0.13297011 0.13582282 -0.08119971 0.17182264
000350 dc 5d be 3d af 96 db bd df 12 f5 bd b8 67 81 bc
       0.09295246 -0.107221 -0.1196649 -0.015796527
000360 cb 38 2a bf 56 fe 5a 3e 0c 64 32 be d2 3f d1 be
       -0.6649291 0.21386084 -0.17420977 -0.40869004
000370 be d6 06 3c 67 bc 58 3e 9d cb 94 bf 3d 2d c9 bd
       0.008229909 0.2116562 -1.1624638 -0.09823082
000380 ec ac 0e be ae db c8 bd 25 57 38 3e ac 13 8e 3d
       -0.13933152 -0.098075256 0.18001993 0.06937346
000390 e5 82 81 bd ea ea 64 bc 2f af 03 bc bd 6c a7 bd
       -0.06323794 -0.0139720235 -0.0080373725 -0.08175037
0003a0 70 ec d1 be a2 22 57 bf 78 88 c9 3d ef 6a 98 3d
       -0.410007 -0.8403722 0.098404825 0.07442271
0003b0 78 94 54 3c f9 d9 0d be 42 02 0b 3d 91 3a 0a be
       0.012974851 -0.13852681 0.0339377 -0.13498904
0003c0 fa cc 39 be 5d f5 95 be 3c a9 3b 3e 4c d8 a0 3d
       -0.18144599 -0.2928876 0.18326277 0.07853755
0003d0 c3 7e 4d bd 46 2e c1 bd 5e 54 7d 3d 3b 90 16 3b
       -0.050169718 -0.09432654 0.061848037 0.0022974152
0003e0 46 ef 61 bc cc 3d 59 bd 94 2c 1f 3e a5 d4 fd 3d
       -0.013789957 -0.05303745 0.15544349 0.12394074
0003f0 ce ce 86 3c 22 a0 08 3e 12 8c 30 3e fb 89 24 bd
       0.016456034 0.13342336 0.17240933 -0.04017065

fc2.bias f4 [256]
000000 f3 15 2e bf 8f b5 a7 be 65 6b 5f bf ca 8e 1e bf
       -0.6800224 -0.32755706 -0.87273246 -0.6193663
000010 bb dd 6f bf 6b 12 f9 bd 5f 0d 38 be 84 8c 4d bf
       -0.9369771 -0.12161716 -0.1797385 -0.80292535
000020 f2 3e 98 bf 66 0c ec be b3 38 e0 bf cd b5 ed be
       -1.1894209 -0.4610321 -1.7517303 -0.46427765
000030 40 d1 bc be 88 4b b7 be cc ba b9 be da d0 57 bf
       -0.36878395 -0.35799813 -0.36275327 -0.8430306
000040 28 7e d1 be 63 5a 82 be a5 67 d6 be 8f 26 2e bf
       -0.40916562 -0.25459585 -0.4187595 -0.68027586
000050 b1 a2 29 be f7 ad bd be 1b 15 dd be 53 c4 1e bf
       -0.16565968 -0.37046787 -0.43180165 -0.62018317
000060 04 d3 e3 bf 72 51 17 bf 58 22 14 bf 21 c6 45 bf
       -1.7798772 -0.5910865 -0.57864904 -0.77255446
000070 9d 68 6f bf 19 d4 50 3f aa c8 3f be 76 96 8a be
       -0.93519 0.81573635 -0.18728891 -0.27067918
000080 64 76 ae be 04 b4 2b bf 49 49 3d bf 69 77 f4 be
       -0.340747 -0.6707156 -0.7393995 -0.47747353
000090 8b 6c 55 bf d0 52 1a bf 5b 65 66 be 29 21 32 bf
       -0.8336875 -0.6028261 -0.22499602 -0.6958185
0000a0 0b 1b d9 be 25 29 9a be c1 07 20 bf b8 8d c2 be
       -0.42403445 -0.30109516 -0.6251183 -0.37998748
0000b0 8f 21 b7 be 2d 34 95 bf 0e 52 e5 be 84 ea 3e bf
       -0.3576779 -1.1656548 -0.44789165 -0.7457659
0000c0 52 3c b7 be 1b 45 b8 be b2 04 99 bf 4a d1 94 bf
       -0.35788208 -0.35990223 -1.1954558 -1.162637
0000d0 27 ac 3c 3f 6c 7e da bf 30 02 d0 be 87 1e c7 be
       0.73700184 -1.7069831 -0.4062667 -0.38890478
0000e0 94 7c 94 40 63 26 34 bf 0d 7d a4 be 27 3b 54 bf
       4.6402073 -0.70371073 -0.32126656 -0.8290276
0000f0 34 f0 83 c0 52 45 d4 bf 55 5e 84 bf 2d fa 72 bf
       -4.1230717 -1.6583655 -1.0341288 -0.9491299
000100 19 64 d1 be ed 0a 13 bf 48 19 28 bf e8 06 ab be
       -0.4089668 -0.57438546 -0.65663576 -0.33403707
000110 14 f8 48 bf 04 db 1f c0 35 24 2e c0 c5 39 01 c0
       -0.7850354 -2.4977427 -2.72096 -2.019151
000120 f0 f8 91 bf ed 16 78 bf a8 53 a2 bf f1 75 b9 bf
       -1.1404095 -0.9690998 -1.268178 -1.4489118
000130 bf cc 80 bf c2 52 b6 bf 49 c5 9c bf e8 c0 c3 be
       -1.0062484 -1.4244006 -1.2247707 -0.38233113
000140 24 88 35 be 9d 05 5a bf 98 0b e8 be 14 29 bc be
       -0.17727715 -0.85164815 -0.45321345 -0.3675009
000150 b9 db c3 bf d0 41 b3 be 2b 55 74 bf 73 af 8b bf
       -1.5301429 -0.35011148 -0.95442456 -1.0912918
000160 e0 f8 9e be 36 a9 44 be e5 da 67 bf c5 a8 5e bf
       -0.31049252 -0.19205174 -0.9056838 -0.8697627
000170 5c 06 0a bf b7 81 af be 67 39 18 bf 51 cf 9b c0
       -0.53915954 -0.34278652 -0.5946259 -4.869057
000180 78 a0 c7 be 59 8f b1 bf 1c 27 c8 bf 0e 0e 2c bf
       -0.38989615 -1.3871871 -1.5636935 -0.67208946
000190 29 59 be bd 23 0e 03 bf e7 2b 91 bf 69 9f 06 bf
       -0.0929435 -0.51193446 -1.1341523 -0.5258699
0001a0 57 60 3f bf 08 de 59 bf fb d7 9b be b4 75 1e bf
       -0.7475638 -0.8510442 -0.30438218 -0.6189835
0001b0 ef 9b b2 be 01 dd ba bf 1e 55 eb be 77 6a 6f bf
       -0.34884593 -1.4598695 -0.45963377 -0.9352183
0001c0 75 d0 2c be b0 3a c1 be 68 fd 2c bf a6 d8 a1 bf
       -0.16876395 -0.37740088 -0.6757417 -1.2644241
0001d0 b4 56 14 bf 22 7f d3 be d0 8c e1 be c8 16 e0 be
       -0.579448 -0.41307932 -0.44052744 -0.4376738
0001e0 5b a0 be be 77 19 1e bf ec db 41 bf 36 58 4d be
       -0.37231717 -0.61757606 -0.757262 -0.20053181
0001f0 95 6a a5 bf bb a1 13 bf af 4f 44 40 1b 09 c3 be
       -1.2923151 -0.57668656 3.0673635 -0.38092884
000200 7f d5 ce be fa 66 c6 3f e0 5a 8a bf 8f 47 b5 be
       -0.4039726 1.5500176 -1.0808983 -0.35406157
000210 e8 e0 99 bf b0 6b f1 be 98 9f 94 bf cd c7 1f bf
       -1.2021761 -0.47152472 -1.1611204 -0.62414247
000220 59 92 3a bf c1 d9 4a bf 7f 98 61 bf 53 38 cf be
       -0.7287956 -0.79238516 -0.88123316 -0.4047266
000230 4a 52 70 bf 3d 7a 4f bf c2 46 df bf 16 05 4c be
       -0.93875563 -0.81045896 -1.7443469 -0.19923815
000240 cb 65 97 be 6f b1 d7 be 99 cb b4 be 03 83 48 bf
       -0.2956985 -0.4212756 -0.35311583 -0.7832491
000250 45 9c a9 be 06 74 ca be b3 64 0f bf 6d 20 b7 bf
       -0.33127037 -0.39541644 -0.5601303 -1.430677
000260 29 90 ef bf 42 7e f0 3e f9 59 80 bf 48 92 53 bf
       -1.8715869 0.46971327 -1.0027457 -0.8264508
000270 cd 86 16 40 e0 e2 84 be f6 31 11 bf 1b 55 b0 be
       2.3519776 -0.25954342 -0.5671686 -0.3443993
000280 12 21 97 be 1c 9d df bd 08 0f 57 be 96 6d c0 bf
       -0.29517418 -0.10918638 -0.21001828 -1.5033443
000290 82 f0 31 bf e7 62 52 bf 3e a7 b9 be e7 38 44 bf
       -0.6950761 -0.82182163 -0.36260408 -0.76649326
0002a0 43 a6 d1 bf b4 be 6a bf 87 33 1f bf 19 a5 9f be
       -1.6378864 -0.9169724 -0.62188 -0.31180647
0002b0 54 f1 b0 be c9 b2 fc be 4f 85 b3 be e3 d4 41 c0
       -0.3455912 -0.49355152 -0.35062644 -3.0286186
0002c0 51 49 91 bf 98 2a ec be 1d a0 22 c0 c0 c6 ba be
       -1.1350499 -0.46126246 -2.5410225 -0.3647976
0002d0 58 a8 69 bf 0f 6f d3 be 79 e3 b6 be c2 b2 3d 3e
       -0.912725 -0.41295668 -0.35720423 0.18525222
0002e0 98 a7 65 bf 94 17 89 bf 97 d7 ea bf 0b d9 40 be
       -0.8970885 -1.071032 -1.8347043 -0.18832795
0002f0 c7 60 3b bf 87 86 36 be 7e ac ad be 7d b1 ad be
       -0.73194546 -0.17824756 -0.33920664 -0.33924475
000300 f4 b0 c5 be 7f 95 58 40 b9 28 f0 be de 90 e8 bf
       -0.38611567 3.3841245 -0.4690607 -1.816921
000310 35 a6 af be aa fb a8 3d 2f fb 62 c0 7d fe 4a bf
       -0.34306493 0.08251126 -3.546581 -0.7929457
000320 77 fa d0 be 41 51 98 be 7f a3 bf be 92 70 00 be
       -0.4081609 -0.29749492 -0.37429425 -0.12542942
000330 d8 4b 07 bf 37 58 cd be b9 21 d9 be 08 13 0c be
       -0.52850103 -0.40106365 -0.4240854 -0.13679135
000340 8a a2 ba bf 4d 1d 9e bf 0f a7 a5 bf 59 5b f7 bd
       -1.4580853 -1.2352692 -1.2941607 -0.1207797
000350 81 7c 34 3e c9 97 cc bf 92 10 bb be af 8a 8e bf
       0.1762562 -1.5983821 -0.3653608 -1.1136073
000360 9c 30 6a be f6 cf cf be 6f 75 be be 32 28 21 c0
       -0.22870106 -0.4058835 -0.3719897 -2.5180783
000370 70 14 e6 be 1f 09 49 be d8 54 94 bf cf ff d5 bf
       -0.44937468 -0.19632386 -1.1588392 -1.6718692
000380 2d 25 6e bf 30 09 b0 be c4 9d a5 be 9f e1 76 bf
       -0.93025476 -0.3438201 -0.32346928 -0.9643802
000390 56 90 47 be 38 bd 44 bf f3 43 78 be e1 31 0c bf
       -0.19488654 -0.76851225 -0.2424467 -0.5476361
0003a0 c9 ef da be 14 6e 3d bf 4b 83 e2 be 54 24 0d be
       -0.42761067 -0.7399609 -0.44240794 -0.1378339
0003b0 d0 e5 9c bf 8d e0 60 bf 55 6f 05 c0 a0 55 2f bf
       -1.2257633 -0.8784264 -2.0849202 -0.6849003
0003c0 69 fe d5 be 78 82 b0 be 99 c6 07 bf 59 5c d2 be
       -0.41795662 -0.3447454 -0.5303741 -0.4108608
0003d0 e9 e4 80 40 7a ea 53 bf d0 06 82 be ff 57 f6 bc
       4.027943 -0.8277966 -0.25395823 -0.030071257
0003e0 20 52 d8 be 15 f7 fa 3e 0d 8b ef be 54 36 dc be
       -0.42250156 0.49016634 -0.46785775 -0.430102
0003f0 87 d0 2d be 94 2c 4b bf e8 23 54 c0 2b 2a d1 be
       -0.16974078 -0.79364896 -3.3146915 -0.40852484

fc3.weight f4 [4, 256]
000000 bf 46 b9 be 10 1d c4 bd 83 a6 9c be 1e da c7 3e
       -0.36186787 -0.09575856 -0.30595788 0.39033598
000010 e2 71 d5 bb 41 f2 c7 3d 90 0f 5f 3c 7a 9b de be
       -0.00651382 0.09763003 0.01361455 -0.43477994
000020 21 c6 12 3e 3b 0e c1 bd b4 c1 61 3e 04 57 f0 3c
       0.14333393 -0.09426542 0.22046548 0.029338367
000030 63 ca 27 bd 05 63 3a bd e8 2c aa bc a5 7d ab 3e
       -0.040964495 -0.04550459 -0.020773366 0.33494297
000040 2c 91 14 3f fb 95 65 3e 17 d6 86 bd 97 76 ce bd
       0.58034015 0.22420494 -0.06583803 -0.10081213
000050 fa 0f e3 3d 44 2e 62 be 4b 14 fb bd a1 3d 1c 3e
       0.11087032 -0.22087961 -0.1225973 0.15257885
000060 b5 2c 2d 3f 53 04 3d 40 41 e9 1d 3e 7f 25 22 3e
       0.6764634 2.953389 0.1542101 0.15834616
000070 26 d3 b2 3f 4d a9 50 bf 3b 64 f3 3d 4e c3 16 3e
       1.3970687 -0.8150833 0.11884352 0.1472294
000080 51 f1 14 be a4 e0 5f 3d d2 bd 30 3e c0 6b 65 3e
       -0.1454518 0.054657593 0.1725991 0.22404385
000090 07 a5 9b bd 30 96 7f 3e 1e 5c 10 bb f3 b1 8c be
       -0.07599836 0.24959636 -0.0022027562 -0.27479514
0000a0 c9 90 82 3d f4 38 94 3e d3 14 1b 3f 97 aa 75 bd
       0.06375272 0.28949702 0.6057865 -0.05997714
0000b0 32 14 fe 3c ba 2f 66 be c3 43 4c bd ee 1f 9c be
       0.03101549 -0.22479144 -0.04986931 -0.3049311
0000c0 a2 57 63 3e e2 e0 46 3d ce 91 07 bd 7b 1a 21 bf
       0.22201398 0.04855431 -0.033098035 -0.6293103
0000d0 0e b9 33 bf 38 5b ea be f9 6b 17 bc 26 20 2e 3d
       -0.70204246 -0.4577272 -0.009242051 0.042511128
0000e0 8e 4a 52 bf ba 13 ef 3d 2c a3 e5 bd c3 a8 d3 bd
       -0.8214501 0.116736844 -0.11212763 -0.10334923
0000f0 b3 83 82 3f f9 a4 e9 3c 9b 6f c1 3d 7e ce f3 be
       1.0196441 0.028521048 0.09445115 -0.4761848
000100 22 2e b4 bd f4 2c c3 3d 21 10 c0 bd b0 27 be bb
       -0.08797862 0.095300585 -0.09378076 -0.005803071
000110 c7 63 b0 bd 18 80 8f 3e 26 b4 f1 be ab 36 0e 3e
       -0.08612781 0.28027415 -0.47207755 0.13888042
000120 86 b6 7b 3a 19 43 4b 3e 13 f3 50 3e 25 53 ab 3e
       0.0009602088 0.19849814 0.20405225 0.33461872
000130 8a 17 d6 bd 76 b8 ea 3e 17 d0 b8 bd 23 9e 51 bd
       -0.104537085 0.45843858 -0.09024065 -0.0511762
000140 ed cf b4 be ae 65 5f be ff 31 d4 3d 60 10 94 be
       -0.35314885 -0.21816131 0.103610985 -0.28918743
000150 3a f5 a4 bf bc be ad bc a5 df e2 3a 33 cc 59 3d
       -1.2887337 -0.021209113 0.0017309083 0.053173255
000160 78 09 9b 3d a6 31 58 be 9f 35 29 3e 0f 6a e0 3e
       0.075701654 -0.2111269 0.16524361 0.43830916
000170 06 0c 67 be 8c b6 b9 bd 53 29 a4 be 09 d0 f7 3e
       -0.2256318 -0.09068021 -0.32062778 0.48400906
000180 a8 82 d0 3d 50 ee a8 3d d8 76 4c 3e c6 60 90 3e
       0.10181171 0.082485795 0.1996721 0.28198832
000190 d6 cb 03 bc 48 0d 83 3e 50 ac bf bc e9 31 dd be
       -0.008044204 0.2559607 -0.023397595 -0.4320214
0001a0 86 f2 25 3e 61 b5 1a 3e 37 b2 03 bf 3c 6b 5d be
       0.16205797 0.15108253 -0.5144381 -0.21622938
0001b0 76 7e 67 3e 64 66 47 3e e9 13 c6 3d 94 b8 df 3d
       0.22606835 0.19472653 0.09671766 0.10923877
0001c0 cd 46 9e 3d ff 46 81 bd bb 69 6e be bb aa 79 bc
       0.07728348 -0.063123696 -0.2328252 -0.015238459
0001d0 50 87 ca 3d 70 64 8e be 8d ad 8e 3d 04 99 44 3e
       0.0988909 -0.27811003 0.06966696 0.19198996
0001e0 61 64 13 bc f1 02 8f be aa 43 43 bc a0 dc a9 3d
       -0.0089961 -0.27931932 -0.011917988 0.08294034
0001f0 d8 02 1a 3e 56 7b f8 3c fa b6 09 c0 aa 40 d4 bc
       0.15040147 0.030332249 -2.151793 -0.02590974
000200 51 43 b6 3d 9a 49 a4 be bf e2 ae 3e d3 de 9d 3e
       0.08899558 -0.32087404 0.3415737 0.30834064
000210 31 d0 6d 3f 07 d0 4b 3e da 1b 51 be 3f ae 1a 3e
       0.928958 0.19903575 -0.20420781 0.15105532
000220 83 2e e9 bd d7 7b 09 be 70 44 c5 3d c0 0a 60 bd
       -0.113858245 -0.13426147 0.09632194 -0.054697752
000230 60 7a 99 3e ae f9 20 bc 21 8b 9e 3f d8 a1 42 3d
       0.29976177 -0.009825153 1.2386209 0.047517627
000240 4f 51 a5 3d 70 04 57 3c 4a cb ae b9 c7 d9 96 3d
       0.08072149 0.013123617 -0.00033339328 0.073657565
000250 47 55 2a be 87 e1 00 bf 9c de 79 3d 82 32 6b bd
       -0.16634093 -0.5034413 0.061003312 -0.057421215
000260 c3 34 4a be 2d 9d 50 bd 2f 57 62 3e da 0d 94 bd
       -0.1974669 -0.050931145 0.2210357 -0.072292045
000270 8a 86 ca 3f c1 65 a2 bd b5 82 d2 3e 3c c8 06 bf
       1.5822308 -0.07929564 0.41115347 -0.52649283
000280 b2 fd 7d bb 0b fc 33 3c 26 13 a2 3d fd d0 9d be
       -0.003875595 0.010985385 0.079138085 -0.30823508
000290 cb 3a 97 3d 26 7f 09 be 16 fc d3 bd 2a b4 b1 3d
       0.07384261 -0.1342741 -0.10350816 0.08676942
0002a0 fa 8d 19 3f 3c af 3f 3e b3 75 9a bd d4 69 90 3e
       0.59982264 0.1871919 -0.075419806 0.2820574
0002b0 9c 99 94 3e 14 4a 9a 3e ec 7d e4 bc 18 dc ef 3e
       0.29023445 0.30134642 -0.027892075 0.46847606
0002c0 5a b5 a8 3e ef 70 5e 3e 61 22 83 3f d5 0c 8f be
       0.3295086 0.21722768 1.0244867 -0.27939478
0002d0 de cd 19 3e 9e 3f e3 3e a4 62 b4 be b2 bb 73 bd
       0.15019938 0.44384474 -0.35231507 -0.059505172
0002e0 aa 52 9c 3e 86 a8 91 3d 83 92 fb 3e 7c e8 7f 3d
       0.30531818 0.071122214 0.49135217 0.062477574
0002f0 4f 90 87 3e 71 3f 89 bd b4 42 8d bc 21 d6 a0 3d
       0.26477286 -0.067015536 -0.01724372 0.07853342
000300 f2 5c 96 be 59 1a 78 bf c7 21 73 be 22 ef 52 be
       -0.29367787 -0.96915203 -0.23743354 -0.20599034
000310 a9 43 c9 bd fb 24 12 3f 4e c5 0a be 8d 80 02 3f
       -0.09827358 0.5708768 -0.13551828 0.509774
000320 94 d9 15 bd bc 51 94 3d f9 ae cd bb 21 ca cb 3c
       -0.03658445 0.07242152 -0.006276962 0.024876656
000330 46 8f 4a 3e fa be 8e 3c ce 67 21 be 91 45 78 3c
       0.19781217 0.01742505 -0.15762255 0.015153305
000340 27 86 18 bd 33 ed 56 3e 9d 79 69 3f 0c a6 1a 3e
       -0.037237313 0.20988922 0.9120119 0.15102404
000350 5e 9f 60 bf 06 4a 4b be 38 94 8b be 90 e8 c5 be
       -0.87743175 -0.19852456 -0.2726152 -0.38653994
000360 4e 06 81 be 93 07 9a be fc 8a 63 bd 81 3f 2e 3f
       -0.25200123 -0.30083904 -0.055552468 0.6806565
000370 bc b3 8b bb fa c0 71 3e 7e 57 a8 3e 40 1e 4b 3f
       -0.0042633694 0.23608771 0.3287925 0.7934303
000380 21 84 73 3e 20 97 91 bd e6 cf 8d 3e fc 17 00 3e
       0.23780872 -0.07108903 0.27697676 0.1250915
000390 a8 c4 67 3e 38 4a 76 3d d3 13 53 3d 78 c1 fa 3d
       0.22633612 0.060129374 0.051532578 0.122439325
0003a0 7b 9e 60 bd 1e d9 76 bd 92 96 56 3f 14 14 09 bd
       -0.05483864 -0.060265653 0.838235 -0.033466414
0003b0 d4 d5 0c bd 3e 1d 05 3f cf 7b 4a bf d1 46 7a be
       -0.03438361 0.51997745 -0.79095167 -0.24441077
0003c0 14 f6 bf 3c a1 61 ad bd 3d b2 fd 3e 56 2c a6 bd
       0.023432769 -0.08465887 0.49550048 -0.08113925
0003d0 8c 06 5f bf 88 f3 08 3e fc 5a b8 3e f3 e0 3e bd
       -0.87119365 0.1337415 0.36006916 -0.046601247
0003e0 1b b3 88 3e 43 0a 12 c0 a5 32 57 be cc 1f 6b be
       0.26699147 -2.2818763 -0.21015413 -0.22961348
0003f0 1c ec 79 3d d0 93 31 be ac e3 d0 3f f1 99 d0 3c
       0.061016187 -0.17341542 1.631948 0.02546403

fc3.bias f4 [4]
000000 62 f2 94 3f d7 39 8e 3f c7 ea e8 3e 50 f0 90 3f
       1.1636469 1.1111401 0.4549162 1.1323338
